models/MiniResNet_pneumoniaMNIST.pth (torch, 34535 bytes, 33 tensors)

input_block.0.weight f4 [8, 1, 5, 5]
00000000: 4d7a 1f3e a497 483e 51ef ff3d 3e19 483e
00000010: 19e5 79bd 06ff e3bd 4192 87be acc6 133e
00000020: be8b 103e c1b6 51be af04 c03c 6222 42bd
00000030: e04f 213e ba55 8fbd 00f3 b93d 19bf 93bd
00000040: f5b5 2c3e f18e 953d e4d7 28be 82ae b13d
00000050: 30fd 99bd c728 16bc 48d5 01bd 6e0a 0f3e
00000060: bb25 e3bd 29f1 f6bd 750d 84bd eecf d0bd
00000070: ad6e f63c f13a 36be a8f5 333e afcf 2abe
00000080: d92f 363e 03bf 443d 2cf1 49bd c6c9 533e
00000090: 332d de3d 2739 843e 7ac9 503d 6c28 efbc
000000a0: 3ca8 c73d dee0 49bc 6626 063e 2084 023e
000000b0: 9d0a f73d 324e bdbd 7d99 123e 13ee 533d
000000c0: d4c3 633d 24b1 d8bd 0753 32be c656 b2bd
000000d0: 6666 05be c1b1 603e 9c4b ef3d c507 ff3d
000000e0: c7e4 4f3d ccf7 33bc f8a0 273e 7f2b febd
000000f0: d8c4 473d 846a 07be ffa3 1f3d 1e8d d8bd
00000100: 24b9 7d3d 3fbb a3bb dc37 3d3e 6850 0abe
00000110: 27ac f2bd c1a5 6bbd e942 723e 38e8 0c3e
00000120: b75f 5b3e 69b6 10be c825 1abe ec7b 17be
00000130: 97d9 1cbe 91a6 903d 8631 b23d 8683 3a3e
00000140: 6219 b0bd a9d9 f8bd 1f1c f63d 7650 46bd
00000150: 0a6c 1f3e 8b1e 94bb dfec 1b3e 3d76 0ebe
00000160: fbdb b7bd 1476 d53d 89da 7a3d 9297 0bbd
00000170: 1164 db3d 164b e73d 6fe5 02be 91a2 44be
00000180: 99d0 d03d e465 0fbe d729 0ebe 76f6 70be
00000190: 6232 a1bb ddac c93d 8578 efbd 2dfd 4dbe
000001a0: 91e5 883d 0017 b7bd b1a5 ddbd 17fa 42be
000001b0: eb2b 95be 60d8 cdbd 4e09 563e 6796 453d
000001c0: 5731 4d3d 9882 60be 9020 16be 5fcb b8bd
000001d0: ccff 193c 6fe1 35be 51f3 c3bd 8ae1 2ebe
000001e0: c60f af3d a5bc 983b 5c00 923d d3d9 2fbd
000001f0: dcda b2bd 59e3 a4bd 92a9 81bd 60b5 0abe
00000200: 2c96 333e 7505 a4bd 0b97 783e 2068 fc3d
00000210: 3e1b f4bd 508f 223e 10c2 abbd ff32 9fbd
00000220: c71d 46be 4ac1 53be 3ecf 823d 409c 54bd
00000230: 3055 e93c 40e9 5bbe 8199 0b3e 3b2c 12be
00000240: f398 1cbc 2e4d 6d3d dad9 df3d 421e 2f3e
00000250: 4765 5b3e db7d c5bd 834b 6d3d 0d7a adbd
00000260: 3d46 55bd 8d4a 2abe 8fc6 393e 2955 0dbe
00000270: a7d8 d63d ff9e 423d 4613 e43c 1ff9 edbd
00000280: 8d2d 613e a5c1 b93d 2ed3 573d 2756 39be
00000290: 8aea cb3d 21b2 4abd bd20 b7bd f6c0 383e
000002a0: dcd8 413d 52f6 e2bd daa6 edbd 0d0a 2aba
000002b0: 4c29 103e 52f1 adbc 64ef cebd c9d6 0bbe
000002c0: 84d4 62be 8db2 e13b 8852 e23d 65cd 36be
000002d0: 3b6c 52bb f1a5 6c3d c369 e43c 5560 59bd
000002e0: 0095 163e 821a 553d a770 ba3c 9781 3fbd
000002f0: 94b9 66bd e4df 2f3d c4e8 1dbd e89e 8abd
00000300: e52a 183e f531 233e 38ec f43c 4ac0 aebc
00000310: fc98 113d 2a44 e83d a1a0 e73d 4b5d 173e
0.15573998 0.19589096 0.12496818 0.19540879 -0.0610095 -0.11132626 -0.2647877 0.14431256
0.14115807 -0.20479871 0.023439733 -0.04739607 0.15753126 -0.06998773 0.09079552 -0.07214183
0.16866286 0.073026545 -0.16488606 0.08675863 -0.07518995 -0.0091649955 -0.03169754 0.13968822
-0.11091181 -0.120577164 -0.06447879 -0.101959094 0.030082071 -0.17795922 0.17574179 -0.16680788
0.1779169 0.048033725 -0.049302265 0.20682439 0.10848465 0.25824854 0.050973393 -0.02919408
0.09748885 -0.012321679 0.13100585 0.12745714 0.12062571 -0.0924343 0.14316364 0.051740717
0.055606678 -0.10580662 -0.17414485 -0.08707957 -0.13027343 0.21942808 0.11684343 0.12452654
0.05075529 -0.010984372 0.16369998 -0.1241064 0.04877171 -0.13224226 0.03897476 -0.10573791
0.061944142 -0.0049966867 0.1847834 -0.13507235 -0.11849242 -0.057531122 0.23658337 0.1376046
0.21423231 -0.14132084 -0.15053475 -0.14793366 -0.15317379 0.0706302 0.08700852 0.18214235
-0.085985914 -0.121508904 0.120170824 -0.048416577 0.15568557 -0.0045202426 0.15227078 -0.13912292
-0.08977505 0.10422912 0.061243568 -0.034080096 0.107124455 0.112936184 -0.12782834 -0.19202639
0.10196037 -0.14003712 -0.13883148 -0.23531517 -0.004919336 0.09847424 -0.11692909 -0.2011611
0.06684411 -0.08939934 -0.10822619 -0.19040714 -0.2913507 -0.10051036 0.20901987 0.048239138
0.050095882 -0.21924818 -0.14660859 -0.09023165 0.009399366 -0.17761777 -0.09567893 -0.17078224
0.085479304 0.00466116 0.07128975 -0.042932343 -0.0873315 -0.080511756 -0.06331171 -0.13545752
0.17537755 -0.08008853 0.24276368 0.12324548 -0.119192585 0.15874982 -0.08386624 -0.077733986
-0.19347297 -0.20679203 0.063871846 -0.051906824 0.028483003 -0.21475697 0.13632776 -0.14274685
-0.00955795 0.057934932 0.10930224 0.17101386 0.21425353 -0.09643146 0.05793334 -0.08470545
-0.052068938 -0.16630001 0.1814215 -0.13802017 0.10490542 0.04751491 0.027841222 -0.11619782
0.21990032 0.09070138 0.05269163 -0.18099271 0.09956844 -0.049486283 -0.08941791 0.18042359
0.047325954 -0.11082138 -0.1160409 -0.0006486483 0.14078254 -0.021233235 -0.10104254 -0.13656153
-0.22151381 0.00688774 0.11050898 -0.1785179 -0.0032107967 0.05777544 0.027882462 -0.053070385
0.14705276 0.052027233 0.022758795 -0.046754446 -0.056329325 0.042938128 -0.03855206 -0.0676859
0.14860113 0.15937026 0.029897794 -0.021331925 0.035546288 0.11341126 0.113099344 0.14781682

input_block.0.bias f4 [8]
00000000: 6c54 4cbe c6c8 93bd 2451 373e 54c9 823c
00000010: cd7e 82bb 3ff6 debd 3e3f babd 2fc4 91bd
-0.1995408 -0.07216029 0.17902046 0.015965141 -0.003982401 -0.108868115 -0.09094094 -0.07117497

input_block.1.weight f4 [8]
00000000: deb3 8f3f 3324 763f 5176 803f c456 7a3f
00000010: 25ea 823f 4696 833f 0306 843f a4d7 803f
1.1226766 0.96148986 1.0036107 0.97788644 1.0227705 1.0280235 1.0314335 1.0065808

input_block.1.bias f4 [8]
00000000: 4eaf ef3d 02f1 c7bd 5f97 3d3d cef5 2f3d
00000010: 8b51 cbba 5347 a53c 5394 acbb 9cde 543d
0.117033586 -0.097627655 0.046286937 0.042959027 -0.0015511973 0.020175612 -0.005266705 0.05197011

input_block.1.running_mean f4 [8]
00000000: bafe 8f3d e1d3 e23e 739b a13e 492e 44be
00000010: 87c8 57bf 4265 1cbe 413a bbbd 1245 153e
0.07031007 0.44302276 0.3156391 -0.19158281 -0.84290355 -0.15273002 -0.091419704 0.1457713

input_block.1.running_var f4 [8]
00000000: 6457 103c 1a66 cf3c fafd bd3b fbe5 333c
00000010: ae53 973d ee17 ae3b 928a 593a d4a1 0e3c
0.008809898 0.02531724 0.0057980986 0.010980125 0.073890075 0.0053129112 0.00082985417 0.008705575

conv_block_1_1.0.weight f4 [8, 8, 3, 3]
00000000: 2982 80bd 9237 8fbb e6f1 b13d a0c7 df3d
00000010: 4457 f9bd 2c76 fbbd 9414 e73b 70d5 db3d
00000020: 3795 903b f6ef 03bd 4715 973c aadf 43bd
00000030: 7f1b f3bc 613a d63d 4f38 9abd b1f5 7eba
00000040: 96a8 00be e544 743d 32eb ae3d b9b9 cd3c
00000050: e143 2d3c 9a56 c6bd 17b4 f6bd 9f50 223e
00000060: 1043 d53c b44f 1c3d 95ee 573d 02ac 353d
00000070: b936 543d 068e c8bc 3866 1ebd b8c0 82bd
00000080: 0b82 403e 4abf 80bd a69d a7bc 0dfc 2dbd
00000090: cb28 133d 4608 0dbd 7ffb 60bc 3a39 023e
000000a0: d9b7 053c 74db 1b3e 5c62 253d d17c c1bd
000000b0: 8978 5c3d 0ca8 4bbd 4212 6dbd bf5f 02be
000000c0: d556 173d e803 97bd c98f c73d 888f 113c
000000d0: cd2e 623d 47da babd cadb 89bc 45e0 97bd
000000e0: 6be8 933d 40b8 163e 0ce3 b13a 5af4 713d
000000f0: d1ab 08be 0b24 d5bd 855f 113e 451c a1bd
00000100: ed76 343d abd8 733d 1ad4 2a3e a993 383c
00000110: ad84 ecbd 7544 a63d eacd 943d 62e9 28be
00000120: b05e fd3b 8e3b 1dbd 9bdf fb3c 171f 433d
00000130: cbf3 bf3c c0db aaba 5f7c d1bd c738 cf3d
00000140: df22 e03d c23e 033c 314b df3c 88f4 02bc
00000150: b4cd dabd c7ea 92bd fcf6 a93d a2cc 60bc
00000160: 8c30 bfbc 0dfc 613c 517f 13be 3813 0fbd
00000170: 77de 7f3d 12d2 86bc a1ba 83bc 9ce0 98bd
00000180: b49a 673c be5f ea3d db0a 79bd e588 7ebd
00000190: 89fc 7dbd c9e6 bcbc b6a6 2f3e 556b bf3d
000001a0: dabf 16bd a0ee 933d 6bf3 813d 54cf d5bd
000001b0: c9d7 cb3d b81e c13d cdc3 86bb aa3c b83b
000001c0: 2aa0 1fbe da42 04be adf1 243e 984b a33d
000001d0: c70d 9bbd 6894 31be 9400 fdbd 4e25 47be
000001e0: 961d 08bd 4112 4bba 3a9f 9d3a c1e8 0f3e
000001f0: 3d23 1a3d a8f2 66bd 9381 2e3c 2298 91bd
00000200: ab6b 79bc 7bd6 d43d b4a4 6cbc a71e 57bd
00000210: e33c 1f3d 9b75 623c 9c76 31be 0a4a 22be
00000220: 3f87 d1bd b9ac 55bd cc51 783d 1c69 c3bd
00000230: 999d 94bd 0578 483d 864d 823d 6642 b53d
00000240: 67d4 0e3e fea1 e53d e0e0 e6bd 5882 e4bb
00000250: 48a0 643d ee3c 2abd 7cb6 34bd 649b 0e3e
00000260: a077 2ebd dbf0 18bd f3f3 9bbd a198 553d
00000270: 1db2 d03c b174 88bc 2362 2abd fc47 0dbe
00000280: 6a22 08be e84d bebc 8cf7 b13d 1e51 273d
00000290: 1938 81bd 13fd ca3c aa97 a4bd 65f2 1c3c
000002a0: 5c1f 8a3d f65d 033e dd8e 683e 6639 fcbd
000002b0: d75c 5e3d bc8a a1bd 8c8e 9d3d 81db e03d
000002c0: 6d65 3c3c 3ba6 343e 0e1b 52bd 0a13 ae3c
000002d0: 29df 543d 76dc 24bc 8b3e 2fbd 0da3 35bc
000002e0: 8d11 c03d d568 993c 36b7 e23d 590c 24bd
000002f0: e459 00be 25ea 9abd d867 26bd 961b e2bd
00000300: 1de2 ad3b 9007 e93d 5960 063d e51a ac3b
00000310: f529 f7bd a12a 2ebe 6ca8 bdbd 056b 51bc
00000320: 4baf 1ebc eed7 4a3d 5cea cbbc 7f29 70bd
00000330: cfe8 5a3e 4c19 f63d 233b 173e 213e 0bbc
00000340: 8f31 633c 913e d53d f4ad 81bd e455 61bd
00000350: 376b 36bd 7506 aebb f235 09bc 747d d33d
00000360: ffe8 0e3d 17b5 06bd 6207 e6bc 0ef8 36be
00000370: e128 cabd 17b9 183c d5c2 21bd eaec c1bd
00000380: cc4b a2bd 2d53 713c 3e7d 09be 3092 753d
00000390: d273 0fbe b97f 48bd 0b41 3dbd d89d e23c
000003a0: 9bef 67bd 7fdc 8b3d 704c c2bd e9a6 5fbd
000003b0: d4d6 813d 8848 92bd b2d0 0abe bd82 0a3e
000003c0: 4281 103e 61ae 8dbd 2eda 903d a5ec 0dbd
000003d0: 4e16 f7bd b6b4 c83c abb3 ab3d c8fc c93b
000003e0: c86c 423d d620 713d f295 8ebd b099 d9bd
000003f0: dddf 28bd 6666 ffbc d174 e0b9 6881 91bd
-0.06274826 -0.004370638 0.086887166 0.10926747 -0.12174848 -0.12278399 0.0070520137 0.10734069
0.004412319 -0.032211266 0.018442763 -0.047820725 -0.029676197 0.10460354 -0.07530271 -0.0009725942
-0.1256431 0.059636015 0.08540954 0.025112974 0.010575266 -0.09684487 -0.12046068 0.15851067
0.026032954 0.03816195 0.052717764 0.044353493 0.05181 -0.024481785 -0.038671702 -0.063844144
0.18799607 -0.062864855 -0.020460915 -0.042476702 0.035927575 -0.03443172 -0.013731836 0.12717143
0.0081615085 0.15220433 0.040377006 -0.09447635 0.05382589 -0.04972081 -0.05787874 -0.12731837
0.036948044 -0.07373792 0.09744222 0.008884318 0.055220414 -0.09123664 -0.016828436 -0.07415823
0.072220646 0.14718723 0.0013571694 0.059070922 -0.13346793 -0.10407265 0.14196594 -0.0786672
0.04405873 0.059532803 0.16682473 0.011265674 -0.115487434 0.08118526 0.072658375 -0.16495278
0.007732235 -0.038386874 0.030746272 0.04763707 0.02343168 -0.0013035461 -0.102288 0.10118251
0.10944151 0.008010568 0.027257534 -0.007992871 -0.10683766 -0.071736865 0.08299062 -0.013720663
-0.023338579 0.013793004 -0.14404036 -0.034930438 0.06246802 -0.016457591 -0.016080203 -0.07464716
0.014136005 0.114440426 -0.06080137 -0.06214227 -0.062008414 -0.023059266 0.17153439 0.09346644
-0.036804058 0.072232485 0.063452564 -0.10439935 0.09953267 0.09429687 -0.0041126967 0.005622466
-0.15588441 -0.12916127 0.16107817 0.07973403 -0.07570987 -0.17341769 -0.12353626 -0.19447824
-0.03323134 -0.00077465555 0.0012025603 0.14053632 0.037631262 -0.05638376 0.01065101 -0.07109095
-0.015223424 0.103924714 -0.014443565 -0.052519467 0.038876425 0.013821985 -0.17330402 -0.15848556
-0.10230874 -0.052166674 0.060624883 -0.095415324 -0.07256622 0.048942585 0.06362443 0.08850555
0.13948213 0.11212538 -0.1127336 -0.006973546 0.05581692 -0.041562013 -0.044119343 0.13926464
-0.042594552 -0.037339073 -0.07614889 0.05214751 0.025475556 -0.016657205 -0.041597497 -0.13796991
-0.13294378 -0.023230508 0.08689794 0.040848844 -0.06309528 0.024778878 -0.0803674 0.009579276
0.067442626 0.12828812 0.22710748 -0.123156354 0.054287758 -0.078877896 0.07693204 0.10979367
0.011498791 0.17641537 -0.051295333 0.021249313 0.051970635 -0.010062328 -0.042784255 -0.011086238
0.093783475 0.018726746 0.11070101 -0.04005084 -0.1253429 -0.07564191 -0.040626377 -0.11040418
0.005306496 0.113783956 0.032806728 0.0052522295 -0.120685495 -0.17008449 -0.092606395 -0.012781863
-0.009685348 0.049522333 -0.024892025 -0.058633324 0.21377872 0.12016544 0.14768653 -0.008498699
0.013866796 0.10412324 -0.06332007 -0.055013552 -0.04453584 -0.0053108283 -0.008374678 0.10326663
0.03489017 -0.032887544 -0.028079692 -0.17868063 -0.09871078 0.009321473 -0.039492447 -0.09469016
-0.07924613 0.014729303 -0.13426682 0.05995387 -0.14009026 -0.04894993 -0.046204608 0.027663156
-0.05662499 0.06829166 -0.094872355 -0.054602537 0.06339803 -0.071427405 -0.13556173 0.13526435
0.14111808 -0.06918026 0.070728645 -0.03464951 -0.12064801 0.024500232 0.08383878 0.006164167
0.047467023 0.058869205 -0.069621935 -0.10625017 -0.041229118 -0.031176757 -0.00042811644 -0.071047604

conv_block_1_1.0.bias f4 [8]
00000000: e4de 43bd 403a edbd 3097 7a3d dd96 d53c
00000010: 1a2a 74bd cd4d fb3d aa7f 9ebc 6d9c d23c
-0.047819987 -0.11583376 0.06117934 0.026072914 -0.059610464 0.12270699 -0.019347984 0.025709355

conv_block_1_1.1.weight f4 [8]
00000000: 9598 743f d58c 8b3f 3478 873f 6ea4 813f
00000010: c1cb 723f 4c8b 7a3f 3ed8 803f 40a3 803f
0.9554532 1.0902354 1.0583558 1.0128305 0.94842154 0.978688 1.0065992 1.004982

conv_block_1_1.1.bias f4 [8]
00000000: c06e b0bd fcdd 10bc 3976 853c 756f 0a3c
00000010: 4ee5 1abe 9611 52bd e18e 4cbe 06ab e0bb
-0.08614874 -0.008841988 0.016291725 0.008449425 -0.15126535 -0.051286303 -0.19976379 -0.006856325

conv_block_1_1.1.running_mean f4 [8]
00000000: 0986 3f3e 7658 02bf 03de 0a3f 6fa8 06bf
00000010: ebed 163f 13e3 a9be 21d4 02bf b544 5c3e
0.18703474 -0.5091623 0.54245013 -0.5260076 0.58956784 -0.33181056 -0.51104933 0.21510585

conv_block_1_1.1.running_var f4 [8]
00000000: d7c7 6f3e 996d aa3e e289 8b3e 0288 b93e
00000010: 29bf ea3e f03c 893e 1354 8b3e e04e 263e
0.23416077 0.3328674 0.27253634 0.36236578 0.4584897 0.26804304 0.2721258 0.16241026

conv_block_1_2.0.weight f4 [8, 8, 3, 3]
00000000: ca77 483d a84d 0fbe 8842 cd3d 9369 fabd
00000010: 600b 9ebd e185 48bd 19c1 8dbd e60a cc3d
00000020: 1517 bb3c d5d0 983d a0c3 1cbe 114d 9f3d
00000030: c896 733c 2462 08be fdf7 b2bc 78d6 5a3d
00000040: f74e 133d 62ba 18be c08d 62bd 6af2 5bbd
00000050: 444e 02bc 6504 b03d 1d16 5d3d d664 1b3c
00000060: b504 7e3d c9d1 c43c 29fe 6dbd 82d0 233e
00000070: ad42 a23d 455d f53d 518f fcbb e9ec 87bd
00000080: 2afe d5bd 5e26 4d3e 5a9f 453e 720c 85bc
00000090: 45b3 bd3d 6436 4cbd 0497 d83d c7bc d33c
000000a0: 0a21 e5bd 9571 84bd 437c c4bd 6d09 0abc
000000b0: 17e3 d4bd 7056 123d 2e45 7dbd c5c0 a0bd
000000c0: 7656 eb3d b3ca d7bd cd4c a5bc e93d a0bc
000000d0: baaf 83bd cb18 3fbd 8d3c 0c3c 3048 3dbd
000000e0: b174 163c f398 163e 3757 be3d 47d9 1e3c
000000f0: c783 0bbd a6ba d63d 18a1 5b3d 210e 643d
00000100: 990a a73d 1179 b43c af53 b93d ee79 503d
00000110: 4eaf 273d 9bf0 49bd db6d fa3d 276c f3bc
00000120: 4156 f0ba 857f 093e ac46 033e c686 913c
00000130: 1110 64bc 9905 c1bd 0d10 93bb d055 c93d
00000140: a730 f43c 5e60 3e3c 5c1f bfbc da37 063d
00000150: e4bd 843d 4895 8d3c 558b ef3d d0c7 2abd
00000160: 5480 bf3d b658 133e 189a 813d 19ab 113e
00000170: 180d 1e3e c849 dd3d d0c0 cb3d bc05 fbba
00000180: ceb9 0dbe 9191 af3b b3aa 4abc a188 dabc
00000190: dcbe 5b3a c37c adbd 3930 543d 266a 493d
000001a0: 3128 f73b b59b e1bd 7cd8 bcbd 085c 113c
000001b0: 8a37 303e 97b8 c13d 0eb4 fe3d 9be3 dc3d
000001c0: b82e 883d f505 693d f5ec 27bd f17b d93c
000001d0: a2d7 9bbd d01c 6dbc d0b7 6abd 7c2a 103e
000001e0: 3411 c53d 7793 933d 0958 e03d e1f5 e9bc
000001f0: 3cb0 383d 2b48 ed3d d646 adbb ba9b a53d
00000200: 6dc9 92bd 3988 50bd e101 91bc 680b d23a
00000210: 8628 b4bc 2c81 70bd 3258 f7bc 8666 913d
00000220: 5dd9 92bd f6ce 6b3d fc44 a73d 23c8 c7bc
00000230: 3f8e 85bc baf2 2c3c 6349 52bd 0366 e0bb
00000240: d248 cc3c d404 843d ed3f 403d 1887 a73d
00000250: ec25 edbd 7e24 f33d 0e09 2cbd 8b4d c1bd
00000260: 19f7 ecbd 488d 633d b504 23bd 1d0c 0cbe
00000270: 3bdc 74bd f814 2c3e 10e1 bfbd e666 00be
00000280: 9576 4e3e ff5c dd3d fd93 863d 0f38 44be
00000290: de12 8fbd cd35 12be 67e0 03bc 1fbd 81bc
000002a0: cd08 e8bd 2b4b 4cbc 4565 61bd 704d a63a
000002b0: 0511 363d 0cb3 893d a7eb caba f784 eaba
000002c0: 5902 093d 4beb 23be e904 dd3c f65a 7c3d
000002d0: ab08 af3b 7bf7 9a3c 9a24 583d 1827 91bc
000002e0: 88c4 b0bc f497 5f3d 5542 033e bd8c 2a3e
000002f0: 3571 3a3c 856b 493d 2e01 963d b16c 1d3e
00000300: 5d6d 89bd 223d e1bc f4b6 a2bc 08c8 17bd
00000310: 8589 103d 4661 a73d e54e a83b b390 87bd
00000320: 034a 903d 5acd 3dbe 1122 cfbb 552a 1e3c
00000330: 8b60 c13d 702d 893a 76ee 53bd bdc6 38bd
00000340: b475 143d d1fb b4bd 1233 0bbe fd3c fb3c
00000350: 80a0 14be cadd 28be 250b 403c 90c7 a0bd
00000360: 2942 a73c c81a 05bd 42b6 c83c d397 2d3c
00000370: 9a95 5abd f973 3c3a 0d72 303c 9c67 393d
00000380: a2a7 a4bd e5c3 443e ad54 f53d 28b8 c13d
00000390: 7f7b 3fbd 984e bdbc 5f45 81bd 516b 49bd
000003a0: 3362 9a3d f285 283d da7e cd3c 3c97 fabd
000003b0: 7e9c a73c c783 f5bd cfdd 11bb 99ea bd3a
000003c0: 5993 b0bd ea4c 61be ac77 2d3d 7622 ec3d
000003d0: 7593 46bc 73a8 1cbe b75b d63b df1c 8dbd
000003e0: 9198 2bbe c481 093e e0f7 9f3d 0c0e a33d
000003f0: 87c1 a9bd 01df ebbd 2adc ac3c 65f2 6f3d
0.048942365 -0.13994467 0.100224555 -0.12227168 -0.07717013 -0.048955802 -0.06921596 0.09963016
0.022838155 0.074617065 -0.15309 0.07778371 0.014867492 -0.13318688 -0.021846766 0.05342719
0.03596398 -0.1491485 -0.055310965 -0.05369798 -0.00795323 0.08594588 0.053976167 0.00948449
0.062016208 0.024025815 -0.058103714 0.15997508 0.07922874 0.119806804 -0.0077075143 -0.06636984
-0.104488686 0.20034167 0.19299069 -0.016241286 0.092627086 -0.04985656 0.10575679 0.025846852
-0.11187942 -0.064669766 -0.095940135 -0.008425099 -0.103948765 0.035726964 -0.061833553 -0.07849268
0.114911005 -0.10536709 -0.020178223 -0.019560771 -0.064300016 -0.046654504 0.008559358 -0.04621142
0.009183095 0.14706783 0.09293979 0.009695358 -0.03406122 0.10484819 0.053620428 0.055677537
0.08156318 0.022030385 0.090491645 0.05089753 0.040938668 -0.049301725 0.122279845 -0.029714657
-0.0018336253 0.13427551 0.12819928 0.01776446 -0.013919846 -0.09424896 -0.0044879974 0.098308206
0.029808355 0.011619655 -0.023330383 0.032768108 0.06481531 0.017283097 0.11696497 -0.041694462
0.093506485 0.1438931 0.06328219 0.14225425 0.15434682 0.10805088 0.099488854 -0.0019151489
-0.1384041 0.005357929 -0.012369799 -0.026676478 0.0008382627 -0.08471062 0.0518038 0.049173497
0.007542633 -0.11016027 -0.092209786 0.00887204 0.17208686 0.09459036 0.124366865 0.107856
0.06649536 0.056890447 -0.040997464 0.026548358 -0.07609488 -0.0144722015 -0.057304204 0.14078707
0.09622422 0.07205861 0.109542914 -0.028559627 0.045089945 0.115860306 -0.0052879853 0.08086343
-0.07167325 -0.050911162 -0.017701091 0.0016025128 -0.02199198 -0.058716938 -0.030193422 0.07099633
-0.07170365 0.05757042 0.081674546 -0.024387425 -0.01630318 0.010555917 -0.05133952 -0.0068480982
0.024937067 0.064462334 0.046935964 0.08180064 -0.11579499 0.11872195 -0.042000823 -0.09438618
-0.11570568 0.05555466 -0.03979941 -0.13676496 -0.05978034 0.16804874 -0.09369099 -0.12539253
0.20162423 0.10808753 0.06571195 -0.1916201 -0.069860205 -0.14278336 -0.008049107 -0.01583725
-0.113298036 -0.012469093 -0.05502822 0.0012687873 0.044449825 0.067236036 -0.0015481607 -0.001789241
0.033449505 -0.16007726 0.02697988 0.061610185 0.0053416095 0.018916836 0.05276928 -0.017718837
-0.021578088 0.054588273 0.12818272 0.1665525 0.01137953 0.049174804 0.07324444 0.15373494
-0.067103125 -0.02749497 -0.01986263 -0.037056 0.0352874 0.0817285 0.005136358 -0.06619396
0.070453666 -0.18535367 -0.0063211997 0.009653647 0.09442242 0.0010465812 -0.051741086 -0.045111407
0.036245063 -0.08837093 -0.135937 0.03066873 -0.14514351 -0.16490856 0.011721407 -0.078505635
0.02041729 -0.032496244 0.02450097 0.01059528 -0.053365327 0.0007188912 0.010769379 0.045264825
-0.08039786 0.19215353 0.11979041 0.09458953 -0.046748634 -0.023108765 -0.063120596 -0.04917461
0.07538261 0.041143365 0.025084902 -0.12235877 0.020460363 -0.11988025 -0.0022257452 0.0014489471
-0.08621854 -0.22001997 0.042350456 0.115300104 -0.012120117 -0.15298633 0.006541695 -0.06890272
-0.16757418 0.13428408 0.0781095 0.079616636 -0.082888655 -0.11517144 0.021101076 0.058580775

conv_block_1_2.0.bias f4 [8]
00000000: 3369 dd3d ed16 c63d 1503 7d3c 8cf2 1a3e
00000010: 7884 2abd 0e0f 0fbe 7422 e03c dda3 893c
0.10811081 0.096723415 0.015442629 0.15131587 -0.04163024 -0.13970587 0.027360179 0.016801769

conv_block_1_2.1.weight f4 [8]
00000000: 98f1 a23f e8ba 823f 18f2 9b3f 0ded 8b3f
00000010: 4804 923f 0953 883f cbe0 873f 3c23 a33f
1.2729979 1.0213289 1.2183256 1.0931717 1.1407557 1.065034 1.0615476 1.2745128

conv_block_1_2.1.bias f4 [8]
00000000: 3576 913e fae2 a0bd c01f 373d f768 513d
00000010: c5f8 043d 1fb1 2cbb b645 303c db6f d33d
0.28410497 -0.07855792 0.044708014 0.051125493 0.032463808 -0.002635069 0.010758808 0.10324069

conv_block_1_2.1.running_mean f4 [8]
00000000: 86f7 6c3e f3e8 2b3f 2210 19be 7229 903d
00000010: c946 01bf 12cd a83d 0e2a 0a3e 68cb 02bf
0.23141298 0.6715233 -0.1494756 0.07039155 -0.50498635 0.08242239 0.13492605 -0.51091623

conv_block_1_2.1.running_var f4 [8]
00000000: 596f 3e3e 3bbd a43e 69e2 853e af69 253e
00000010: 116f 5f3e c65b 1b3e a63b 383e a253 9e3e
0.18597163 0.3217562 0.261493 0.16153596 0.21819712 0.15171728 0.17991504 0.30923182

conv_block_2_1.0.weight f4 [16, 8, 3, 3]
00000000: a84f 293e 3b5b b13c 5a3b 4e3e 3335 313d
00000010: 22f4 6a3d db1c f8bd 40cd f03d 71bf 54bd
00000020: bc3f 553e 545f 30bd e806 49be 5ae3 56bd
00000030: 3596 fdbc f9f7 34be 2b58 cabd cfb5 46bd
00000040: 7814 b638 feae c7bd 431c fc3c bb81 4f3c
00000050: 9579 45bd f3df c63d 35f0 9c3c 7c32 46bd
00000060: 19f7 a1bc 8285 dfbd cace 8ebd 3c8d 4c3a
00000070: 2ebd 06be 5085 38bc 17bd d9ba e3e1 e73c
00000080: 3682 2abd 4094 833c 9333 1e3d 56ed b83d
00000090: 7ad0 873c 04b5 cfbd 5007 fcbc 7d1a 813c
000000a0: bcdf b9bd 1139 193c 302f 93bb c422 81bc
000000b0: a424 92bb 9f03 cc3d 0b80 943b a82f d2bc
000000c0: b08c 973d 10af 77bd 26fe 4c3d 40c7 fdbc
000000d0: 4e71 18bd 9340 163c cb82 eb3d cdb3 683d
000000e0: d18f 9e3d 7ff3 bb3d 94f3 64bd 0af0 2b3d
000000f0: b842 cb3d fa1c e03d d22e f4ba a14b 833d
00000100: 45ef 9cbd 73ee 78bd 9246 37bc ffa6 f7bd
00000110: 46dd 19be d7d6 a4bd 0d4c c33c 72c2 21bc
00000120: 8a88 bebc b6b8 0d3d 6fa8 cd3c 2bed 90bc
00000130: 63a4 1c3e 86df 003e eed7 ba3b 57c0 89bd
00000140: 5de4 a4bd f6f6 db3c 29d4 003e 2cfd a3bc
00000150: 6915 09be 42bd 503d 7e20 163d c88b 99bd
00000160: 2194 babc 199d 05bc 9d6c 3b3c 76be f4bc
00000170: 8c25 bc3d 1793 11bd 31bc 3fbd eca6 813b
00000180: 3c64 8dbd 10f5 d83d 2d70 b3bd f37d 29bb
00000190: 7715 27bd 1660 0c3d 3c51 ccbc b206 923c
000001a0: ee20 2d3c ee0f 383d 3448 bdbc a7ee 77bd
000001b0: 3858 e6bd 77fc 4ebe ca7c 95bd 150e ea3d
000001c0: 6948 b83d 236c 2b3e 1850 babd 1db9 0cbd
000001d0: 4640 f13b c358 18be f145 27be 6984 00be
000001e0: 7ddb c1bc b50c 8b3d ba1c 053e 4d65 3a3e
000001f0: 86c4 283e dbb8 9d3d aeaf 38bd f649 d5bd
00000200: 34c2 503c 784a 2ebe e1d4 873d 3d8c 4dbd
00000210: 114f 803a 13ff 933d e3eb b6bd 0e66 a73d
00000220: 62cb aabc 2649 923c 0b39 ccba f18e adbc
00000230: e242 e7bc e2be 673d 3368 8b3c a121 0ebe
00000240: 68ed ea3d 9069 db3c 5d97 173e b54f 3c3c
00000250: cf35 1ebd 7702 bdbd 64ab 743b 8033 01bb
00000260: 1059 753d bbed 58bd 9e39 0ebc 861f 323c
00000270: 67cf c2bd d9f9 03be 8f8c 5dbd 9c6f e9bd
00000280: 5fc2 d6bd c22b bfbd 5d67 a3bd 7952 77bd
00000290: b581 b6bd 30c9 ba3d c0b0 043e 1736 253e
000002a0: 232c f4bb 0769 aa3d 70b6 193d be62 c43c
000002b0: 539b 96bd 75c1 9abd 614e 5dbc c25a 4e3d
000002c0: caa0 ad3d 973c 873d b9d0 393e 74fb bd3d
000002d0: b8d1 78bc 0e27 47bd 3925 04bd c7bb 40bd
000002e0: 71d3 9b3d 17e9 cf3d 3a55 9e3d 1f40 29bd
000002f0: 2109 de3c 4e8e 2d3d 2c8d 053d 7298 563d
00000300: f8d6 9e3d a4bb 423d bfb7 6a3d f00f c73d
00000310: 46bf 64bc 9d9b 5fbd 2d94 933d 65fd 023d
00000320: 09fa 2cbb f406 4d3d 5d14 233d 8d04 65bc
00000330: 618e 57bd 2a93 4e3c 41be fabc 20b0 b53c
00000340: 485a a93c 7d01 8b3d 497b 13be 7d02 8fbc
00000350: 33b2 b1bc 4896 87bd f383 dfbd edf2 043d
00000360: 5aa3 4e3d dde5 83bd 3445 783d 6e45 28bd
00000370: 6b41 80bd 161f abbc caa4 71bd 6af1 b13d
00000380: 3d7f ddbd 5b4c 573d e155 09be d284 08bd
00000390: 19d0 83bc 084e d73c b317 b3bd b2f3 7d3d
000003a0: f957 bb3c 9a88 d43d 6c7f 61bd 404d 283d
000003b0: 5306 0abd 0c21 18be aa11 b63d 67a2 eebd
000003c0: 93d9 a7bd 62e1 f1bb 130b 9e3d df24 febd
000003d0: a49e 1dbe 4277 d0bd 97bb 99bc dc43 17bc
000003e0: c770 3b3d fe73 81bd 4dfd bc3c acb9 1abe
000003f0: 9231 b539 e012 923c ac81 cd3c aea2 8cbd
0.16534293 0.021649947 0.20139828 0.043263625 0.05736173 -0.12114879 0.11757898 -0.051940385
0.20825094 -0.043059662 -0.19631541 -0.052462913 -0.030955413 -0.17672719 -0.09880098 -0.04851323
8.682249e-05 -0.09750174 0.030775195 0.0126652075 -0.048211653 0.09710684 0.019157508 -0.04838799
-0.019771146 -0.109141365 -0.06973036 0.0007803028 -0.13158104 -0.011262253 -0.0016612139 0.028305953
-0.041628085 0.016061902 0.038623404 0.09029643 0.016578902 -0.10141948 -0.030765206 0.0157597
-0.09075877 0.009351985 -0.004491709 -0.015763648 -0.0044599343 0.09961628 0.0045318655 -0.02565749
0.07399881 -0.060469687 0.050047062 -0.030978799 -0.03721743 0.009170669 0.11499556 0.056812096
0.077422746 0.091773026 -0.055896357 0.041976966 0.09924835 0.10943027 -0.0018629676 0.064109094
-0.076628245 -0.060774278 -0.011186259 -0.12092399 -0.15025815 -0.0804879 0.023839975 -0.0098730195
-0.023258466 0.034599982 0.02510473 -0.017691216 0.15297084 0.12585267 0.0057020104 -0.06726139
-0.08051369 0.026851159 0.12580933 -0.020018183 -0.13387074 0.05096174 0.03665208 -0.07497364
-0.022775711 -0.008155131 0.01143947 -0.029875975 0.09186849 -0.035540666 -0.046810333 0.003956666
-0.06903884 0.10593617 -0.0876163 -0.0025862425 -0.040791955 0.034271322 -0.02494108 0.017825458
0.010566933 0.044937067 -0.023105718 -0.06053033 -0.11247295 -0.20213495 -0.07299192 0.11428467
0.08998186 0.1674047 -0.09097308 -0.034356225 0.0073623983 -0.1487761 -0.16335274 -0.1255051
-0.02366423 0.06789533 0.1299924 0.18202706 0.16481218 0.07701274 -0.045089416 -0.104144976
0.012741614 -0.17020595 0.066324 -0.05018257 0.0009789189 0.07226386 -0.089317106 0.08173762
-0.020848934 0.017857146 -0.0015580965 -0.021186324 -0.028230134 0.056578524 0.01701746 -0.13880016
0.11471063 0.026783735 0.14803834 0.011493613 -0.038625535 -0.09228986 0.0037333602 -0.0019714534
0.05989939 -0.052961092 -0.008680729 0.010871774 -0.09512215 -0.12888278 -0.054089125 -0.11398241
-0.10486292 -0.09334518 -0.07978699 -0.060381386 -0.089114584 0.09120405 0.1295805 0.16133915
-0.0074515506 0.083208136 0.0375275 0.023972865 -0.073538445 -0.0755643 -0.0135074565 0.050379522
0.08477934 0.066033535 0.18146028 0.092764765 -0.01518672 -0.04862123 -0.03226206 -0.04705408
0.076086886 0.1015188 0.077310994 -0.041320916 0.027103962 0.04237204 0.032605335 0.052391477
0.07755846 0.04754223 0.05730414 0.09719837 -0.013961619 -0.054591764 0.07205997 0.031979937
-0.002639415 0.05005546 0.03981434 -0.013978136 -0.052626017 0.012608329 -0.030608298 0.02217871
0.020672932 0.06787393 -0.14402498 -0.017457241 -0.021691417 -0.06620461 -0.10913839 0.032458235
0.050448753 -0.06440327 0.060612872 -0.04108184 -0.062624775 -0.020888846 -0.058995046 0.08688624
-0.108152844 0.052563053 -0.13411666 -0.033329792 -0.01609044 0.026282325 -0.08744755 0.061999984
0.022869097 0.10377617 -0.05505316 0.041089296 -0.033697437 -0.14856356 0.08890088 -0.116520695
-0.08195796 -0.007381604 0.07716956 -0.12409376 -0.15392548 -0.101789966 -0.018766208 -0.0092324875
0.04576185 -0.06320952 0.023070002 -0.1510989 0.00034559943 0.017831266 0.025086246 -0.06866966

conv_block_2_1.0.bias f4 [16]
00000000: a0f5 f53d 386c c73d 8833 7b3b 0e96 83bd
00000010: d6c5 f8bc dc3a 6abd 4fe7 953d 3f8f 99bb
00000020: d367 bf3c 91c2 a03d f093 243d dbdb adbd
00000030: eaa9 c13d 0776 843d 86f4 92bd b6f8 c13d
0.1200974 0.09737438 0.0038330276 -0.06425105 -0.030367773 -0.05718504 0.07319509 -0.0046862657
0.023364937 0.078496106 0.040180147 -0.084892 0.09456237 0.064678244 -0.071755454 0.09471266

conv_block_2_1.1.weight f4 [16]
00000000: 3ae8 733f e202 713f 8cf1 7d3f 4129 6f3f
00000010: d352 893f 64f2 723f bd1d 7b3f 660e 683f
00000020: 48fa 803f e687 703f fd97 513f 667c 7e3f
00000030: 8e89 833f f7af 7a3f 5a33 843f 1a5f 8b3f
0.95276225 0.94145024 0.99196696 0.93422323 1.0728401 0.9490111 0.9809225 0.9064697
1.007638 0.93957365 0.8187254 0.99408567 1.0276353 0.9792475 1.0328171 1.0888398

conv_block_2_1.1.bias f4 [16]
00000000: ef45 08be 0d6b 493c f959 58be 6a1f b23c
00000010: e401 7abe 43e6 6bbb 14b2 2abe bcf4 7fbe
00000020: deb3 cfbd d37d 37be ff71 edbd 7616 a7be
00000030: 08e0 83bd 2777 4abe 2b57 59bd 1818 bcbd
-0.13307928 0.012293589 -0.21128072 0.021743495 -0.24414784 -0.00359954 -0.16669494 -0.24995703
-0.10141729 -0.17919092 -0.11594009 -0.32634324 -0.06439215 -0.19772016 -0.053061645 -0.09184283

conv_block_2_1.1.running_mean f4 [16]
00000000: aef6 e03d 02b6 5f3d 2f72 273f 7ba0 00c0
00000010: c228 2cbf d057 6bbf 21dd 303e 1ca1 93bf
00000020: 773e 0cc0 d83e a1be 2e0f a13e 255b 3abf
00000030: 33b8 01c0 1958 75bf e7bd babf 3e44 0d3f
0.109845504 0.054616936 0.65408605 -2.009795 -0.6724969 -0.91930866 0.17271854 -1.1533542
-2.1913126 -0.31493258 0.31456894 -0.72795326 -2.0268676 -0.9583755 -1.4589204 0.55182254

conv_block_2_1.1.running_var f4 [16]
00000000: 37c0 af3f 605f f53e a1a9 e03e 6d70 5c3f
00000010: b6de 403f 2a7b 273f 67f4 2c3f 65de 563f
00000020: ba37 4a3f 7321 853f 7f6c 073f 7d09 143f
00000030: b315 ab3f 2721 2f3f 5d3b 643f 2259 af3f
1.3730534 0.47924328 0.43879417 0.8610905 0.7533983 0.6542231 0.6756043 0.839331
0.7899128 1.0400833 0.52899927 0.5782698 1.3365997 0.6840996 0.8915308 1.3699076

conv_block_2_2.0.weight f4 [16, 16, 3, 3]
00000000: 6c00 a23d 24ca 353d 8df9 633d fba7 c73c
00000010: 4aa2 9bbd 91e3 3a3d 0ec5 b53d 21b2 b8bc
00000020: 31fc d73d 9bb4 ccbd 2a86 14bd ddc3 b1bd
00000030: d062 19bd b5cf f93b f93f e73c 0b02 2bbd
00000040: c3eb 56bc 47f2 553d 2beb ed3d da6b cd3c
00000050: 7e84 0fbc 9a34 ad3d d240 693c 522c a4bc
00000060: d6ad dd3d f983 333d 45c5 2a3d 4ac6 88bc
00000070: d8cb 07bd ce4c 463d d399 973c ffbc 1abc
00000080: 99f8 3f3d 57e1 8fbd 352a 5bbd 7ece 063a
00000090: 9d6a ad3d 9717 893d d68b 0d3e 00f5 9e3c
000000a0: 8cbc 943d ad94 a83d a8c1 a63d 5fe1 c23d
000000b0: 27ee 183e b87c 3ebd 7119 e0bc 3380 143c
000000c0: dc16 443d 9d27 473d af07 433d 806f 6dbb
000000d0: 4441 8c3d 0db9 253d f741 ee3d a6fd d0bb
000000e0: 3055 68bb 842e 3e3d e761 7ebc 639c 8c3d
000000f0: 9694 65bc f56f 6bbd 9204 92ba 11b9 df3d
00000100: 9b8e a13d f6d5 3c3d a5ba df3d 0c3e ef3c
00000110: 6779 443c c069 153d ee7a 513d 42c4 653c
00000120: d825 9a3c 1b73 d3bc 4906 82bd 19a8 8fbd
00000130: 33ff 3b3d 8653 7fbd cc1f 7cbc da11 543d
00000140: 4fe1 cdbd 2bc8 fd3d 6f1f 713c 4df5 613d
00000150: f379 aa3d c207 9abb 59fb 7f3b 73db f43c
00000160: a45f bd3d 2abd 4a3d 4b4d e6bc 8b12 cdbc
00000170: 3c3e 0e3d 4f77 873b 1c21 c8bc 68e6 313c
00000180: 4b38 593c d9a9 7abc 250d b23d 0643 013e
00000190: c495 b63d 3bcc b13d 387c bf3c 4a78 e23d
000001a0: e082 c93d aed3 173d 64f3 5a3d 6831 293d
000001b0: 4f4b 1e3d b6a4 783d 2906 dd3d ea61 5abc
000001c0: f2de db3d 620b b93d d847 14bd c6aa f73c
000001d0: 757c 253d 3616 09bb 1ee8 123d 898d 963d
000001e0: 90e5 223c dc1a c73c 75ae e03c f6f0 c43d
000001f0: 5b01 cf3d f3f5 b23d 5701 b0bd f24b a9bc
00000200: e7a5 e5bd 3a68 a7bd 6609 8abd 7ae0 cdbc
00000210: 2c81 c6bb c1f3 4bbd 393b 583c 4e7e b3ba
00000220: 07d2 fa3d aead c23d 697a b43d 516b d13d
00000230: d3d3 c53d 6079 633d f53c 483b 4770 853d
00000240: 8921 f53c 15a2 403d d55a ad3d c1bc df3d
00000250: 48aa b5ba f015 87bc 3a88 963d 2b57 87bc
00000260: 1c1c b23d d97d ddbd 0f58 52bd a08f 54bd
00000270: 1200 e7bc f7dc f93c 6e58 06b9 a4e6 69bd
00000280: 7689 153d deae 0f3d 78d9 203e ff2b 8bbc
00000290: c8e9 1bbd a3bc 0c3d 2a67 86bb 39f2 98bd
000002a0: 3d7f 0b3e 3a5e ce3d d132 a63d 8581 1abd
000002b0: 95df 303b 7d43 7a3d ede3 13bc ce0d 783c
000002c0: 2479 d53c 22b1 083c 00d4 223d 1a19 87bc
000002d0: ea2a 993d c07f 773d ed02 fa3d f5ba 023c
000002e0: 7181 fa3d f064 683d 6c1d 963d 4301 083e
000002f0: 9329 ed3d c472 89bb 88c9 3a3d 37ff eabc
00000300: 25fa 673d 0fc1 af3d 597a ab3d 71a1 32bc
00000310: 7fcd 753d ac04 013c 0d5e b03d 576d 3f3d
00000320: 4bb4 4a3d 94ee dd3d 69a3 7bbd 3be8 a63d
00000330: 4da9 a5bc 0116 46bd 223a 3e3d 11ea e23d
00000340: 7b33 b03d b9ec 163d 5e12 813d d40c 9b3c
00000350: 18e8 543c 34f7 843d 231f 9c3d 4747 4537
00000360: 3784 183c 0774 863c 921e 11be 5b98 0c3d
00000370: 605a 3cbd 9ba9 b2bd ec14 8bbd 5562 063d
00000380: 6eb8 bbbd 08ef 423d e0ad 3a3c 828f 6e3d
00000390: 3453 843c 8688 f93a d60f bbbb ae8e 9f3d
000003a0: 5204 153d 25d8 693d 0cbc 3ebb ebb1 26bd
000003b0: 3e74 223d 8a2f a0bc d84a 863c ae03 98bc
000003c0: dab6 2d3d e2c8 a93b cdb2 c1bc e00c 0c3e
000003d0: c1fe 753d 777a e83d 24bd 913d acca b03d
000003e0: f9ad 9d3d 851f a23c 3a5e 8e3d 6314 c33d
000003f0: 58cb 4f3d dc7d 643d d286 0c3e 27c6 6c3c
0.07910237 0.04438223 0.055657912 0.024372092 -0.075993136 0.04562718 0.08875476 -0.022545876
0.105461486 -0.09995385 -0.03626076 -0.08679936 -0.03744775 0.0076236376 0.028228747 -0.041749995
-0.013117733 0.052233007 0.1161712 0.025075842 -0.008759616 0.084572986 0.014236646 -0.020040665
0.10824172 0.04382703 0.041692037 -0.016696114 -0.033153385 0.04841309 0.018505966 -0.009444474
0.04686794 -0.07025402 -0.05350705 0.0005142464 0.084676005 0.066939525 0.13822874 0.019403934
0.07262525 0.08231483 0.08142406 0.095156424 0.14934598 -0.04650566 -0.027355881 0.009063768
0.047873363 0.048621763 0.04761475 -0.003622979 0.06848386 0.04045968 0.116336755 -0.0063778935
-0.0035451166 0.04643108 -0.015526271 0.06865766 -0.014012476 -0.057479817 -0.0011140278 0.109239705
0.07888528 0.046102487 0.109242715 0.029204391 0.011991835 0.036477804 0.051142626 0.014023842
0.018816873 -0.025811723 -0.06348855 -0.07014484 0.045897674 -0.062335514 -0.01538844 0.051774837
-0.1005274 0.12391695 0.014716967 0.055165578 0.08324041 -0.004700632 0.0039059727 0.029889798
0.092467576 0.049496807 -0.028113028 -0.025033256 0.03472732 0.0041340957 -0.02442985 0.010858156
0.01325805 -0.015299284 0.08693913 0.12623224 0.08915284 0.08681532 0.023374662 0.110580996
0.098394156 0.037067108 0.05345477 0.041306883 0.03864604 0.060703956 0.107921906 -0.013329009
0.10735883 0.09035374 -0.036201328 0.030232798 0.040401895 -0.002091778 0.035865895 0.073512144
0.009942427 0.0243048 0.027426938 0.09616272 0.101076804 0.08738317 -0.085940056 -0.020666096
-0.11213284 -0.081741765 -0.06740074 -0.025131453 -0.006057879 -0.04979301 0.0131977135 -0.0013694258
0.12247091 0.09505783 0.088124104 0.10225547 0.09659543 0.055535674 0.0030553911 0.06515556
0.029923217 0.047029573 0.084645905 0.10924674 -0.0013859952 -0.016489953 0.07350202 -0.016521057
0.08696768 -0.10815019 -0.05135351 -0.051894784 -0.028198276 0.030500872 -0.00012812178 -0.05710472
0.036508046 0.035078876 0.15707958 -0.016988752 -0.038064748 0.034359585 -0.0041016536 -0.07468075
0.13622756 0.10076566 0.08115161 -0.037721176 0.0026988734 0.061099518 -0.00902651 0.01514001
0.02605874 0.008343013 0.03975296 -0.016491462 0.07478888 0.060424566 0.12207589 0.007979144
0.1223172 0.056736887 0.073298305 0.13281731 0.11580195 -0.0041945893 0.04560235 -0.028686149
0.05663504 0.08581745 0.08372945 -0.010902748 0.06001043 0.007874649 0.08611689 0.046735134
0.049488347 0.10836521 -0.061435137 0.08149763 -0.02022233 -0.04836083 0.04644216 0.11079801
0.08603569 0.03684685 0.063023314 0.018927015 0.012994789 0.06492463 0.07623126 1.1758711e-05
0.009308866 0.016412748 -0.14171818 0.034324985 -0.045984626 -0.08723756 -0.067911 0.03280862
-0.091660365 0.04759124 0.011393994 0.05824233 0.016152956 0.001903788 -0.005708675 0.07790886
0.036381073 0.057090897 -0.0029103784 -0.04069702 0.03966164 -0.019553918 0.01639311 -0.018556442
0.04241071 0.005181418 -0.02364483 0.13676786 0.060057405 0.11351483 0.07116154 0.086324066
0.07699198 0.01979042 0.06951566 0.09525373 0.050731033 0.05578409 0.13723305 0.01445154

conv_block_2_2.0.bias f4 [16]
00000000: be10 96bd 9e91 cebc c0b1 24bc 1216 783d
00000010: 1067 1b3d 27bd 6d3d d531 fb3c 358c a93d
00000020: 0f98 a8bc e6ff 97bc d52c 7abc addc 123d
00000030: de12 c8bc d586 e13c 7769 cd3c 5919 a43c
-0.07327412 -0.02521592 -0.0100521445 0.060567923 0.037940085 0.058041718 0.03066341 0.082786955
-0.02058032 -0.01855464 -0.015269478 0.035854984 -0.02442306 0.027530113 0.025074704 0.020031618

conv_block_2_2.1.weight f4 [16]
00000000: be98 b63f e5c7 ab3f 4512 c43f 4faa b03f
00000010: 3fbe d73f 1c9a bc3f f2a9 b53f 7ee7 bf3f
00000020: 0f79 c93f 277b b73f 197a c03f ad8f d03f
00000030: 469a b73f 5ea3 c03f f052 af3f d373 d43f
1.4265363 1.3420378 1.5318075 1.3801974 1.6854934 1.473453 1.4192488 1.4992521
1.5740069 1.4334458 1.5037261 1.6293846 1.4343956 1.5049856 1.3697186 1.6597847

conv_block_2_2.1.bias f4 [16]
00000000: 3ce0 2a3d def0 de3d 0c66 2c3e f66e a83d
00000010: 4d3d 3b3e fe6a dc3d bb1a 3c3e 99db 053e
00000020: dc9e 1b3e d393 fd3d 710d e23d bd2e 193e
00000030: 4a42 f03d ff91 1c3e 6639 1e3e ce54 253e
0.041717753 0.108857855 0.16835803 0.08224289 0.18285103 0.10762595 0.18369572 0.13072051
0.15197319 0.12381711 0.1103772 0.14959235 0.11731394 0.15290068 0.15451583 0.16145632

conv_block_2_2.1.running_mean f4 [16]
00000000: 96c7 553f 3ce7 7a3f 2c0c ffbe 5ccb 833f
00000010: a044 08bf 66c0 27bf 78e3 883f a042 0cbf
00000020: 69fb 25bf 516f 823f 968a 34bf 277d 1dbf
00000030: c63d 1dbf 6318 17bf 9261 8a3f 4514 3abf
0.8350767 0.98009086 -0.49813974 1.0296435 -0.53229713 -0.6552795 1.0694418 -0.5478916
-0.64836746 1.0190221 -0.70523965 -0.6151909 -0.61422384 -0.59021586 1.0811026 -0.7268718

conv_block_2_2.1.running_var f4 [16]
00000000: 2dd1 473e df21 373e dd02 5f3e 15f3 433e
00000010: 7949 8f3e 8ec5 5e3e 3bb2 6b3e af29 603e
00000020: a46c 863e 2d82 493e 1fbc 723e 618e 8f3e
00000030: e28a 533e 8f1d 7e3e a642 3a3e 7d0c a73e
0.19513388 0.17884015 0.21778436 0.19135697 0.27985743 0.21755049 0.23017208 0.21890901
0.2625476 0.19678564 0.23704575 0.28038314 0.20658448 0.24815963 0.18189487 0.32626715

concat_adjust.weight f4 [16, 8, 1, 1]
00000000: 85aa bf3e 4fb0 163e 850f 843e 1f51 d5bc
00000010: 39a7 83be 1169 ba3e a345 923e f129 853e
00000020: d482 8d3e 875f 073e 0cd2 0bbe 537a 3ebe
00000030: 0650 293e 9785 e03e e6cb 013e 568c f9bc
00000040: 48d5 9e3e f60c 94bd fb42 953e d5fa 80bd
00000050: a0cd 70bd 7fc4 0ebe 4a3e 293c 6c03 923e
00000060: e3b4 9a3e d5bb d7bd bfcc 08bc d3ea 483e
00000070: 880a c0bc 1d00 1e3e ce69 bb3e fbdf 84bd
00000080: fe80 993e 1f6a b83e bb3c 9b3e ce3c 0a3e
00000090: 6147 353c 7274 3abe 1334 b9bc 8afa 993e
000000a0: 603d 833e 8fbd b53c 0c8a c53e 35f7 07bd
000000b0: 0d09 483e f8ff 2cbe babc d33d d0bd db3e
000000c0: 1ee9 a63e 0bec 573e 9a41 683d 719f abbd
000000d0: da62 b0bd ea97 82bd 1f12 ee3e d233 5bbc
000000e0: eab4 683d a0f6 74be 7ceb ff3c 3251 c83e
000000f0: b86c 363e 4ab7 0fbd 68fa 523e 2275 d23e
00000100: d5e1 c03e a9c2 31be d28c 4b3e 1386 b5bd
00000110: 1594 813c c770 8c3e 9f81 52be 5d85 ad3c
00000120: ece9 a13e fcc3 f53e c27f 5ebe c6a1 c7bd
00000130: 204d 01bd 46bd e23e cb9e c23e b1dc 923e
00000140: 3d08 8e3e cbf0 43bd 4a4a b93e 322f a43d
00000150: 0acc 203e e984 c2bd e163 1a3e 7c83 963e
00000160: d049 9e3d 3ac4 b23e 5388 903d 94c0 3e3e
00000170: b699 dc3e a141 4a3e 878b abbd 3d9a 4a3d
00000180: fda9 283e b6f1 4a3d 30bf 133e 90fe a23e
00000190: c9c1 753e 58a4 34be 649d 68be c3d0 f13e
000001a0: 8536 083e aa73 81bd e879 a9bd b85c ea3e
000001b0: 0640 9d3e fecc 20be ea24 59be efa0 f13e
000001c0: d242 a73e d821 f13d ed7d 10be 79c5 b43e
000001d0: e52c d1bd b923 b63e 3511 01be 4d19 3fbe
000001e0: b89f 19be 68c4 c23e aff8 f53e e784 19be
000001f0: a712 d13e 5f75 16be e38e 69be b88e b93e
0.37434784 0.14715694 0.2579309 -0.026039658 -0.25713518 0.36408284 0.28568754 0.2600856
0.27638876 0.13220035 -0.13654345 -0.1860135 0.16534433 0.4385192 0.12675437 -0.030462425
0.31022096 -0.072290346 0.29152665 -0.062978424 -0.05878985 -0.13942145 0.010329792 0.28518236
0.3021613 -0.10533873 -0.0083495965 0.19620828 -0.023442522 0.1542973 0.3660416 -0.064880334
0.29981226 0.36018464 0.3031977 0.13499758 0.011064381 -0.18208483 -0.022607839 0.3007396
0.25632763 0.022185115 0.38581884 -0.03319474 0.19534703 -0.1689452 0.10338731 0.42918253
0.3259973 0.21086137 0.056703188 -0.083800204 -0.086126044 -0.063766316 0.464982 -0.013379054
0.056813158 -0.23922205 0.031240217 0.39124447 0.1781491 -0.035086907 0.20603335 0.4110499
0.37672296 -0.17359413 0.19877937 -0.08863463 0.015817681 0.27429792 -0.20557259 0.021181757
0.3162378 0.48001087 -0.21728423 -0.09747653 -0.031567693 0.4428503 0.38011774 0.28684
0.2774066 -0.04783706 0.3618949 0.08016814 0.15702835 -0.09498007 0.15077163 0.2939719
0.07728922 0.34915334 0.07057252 0.1862815 0.43086022 0.19751598 -0.08376222 0.0494635
0.16471095 0.04954692 0.14428401 0.3183484 0.23999704 -0.17640817 -0.2271629 0.47229585
0.13302048 -0.06320889 -0.08275205 0.45773864 0.30712909 -0.15703198 -0.21205488 0.47193095
0.32668167 0.11774033 -0.14110537 0.3530691 -0.10213641 0.3557413 -0.1260422 -0.18661995
-0.15002334 0.3804047 0.48041293 -0.14992104 0.40834543 -0.14693211 -0.22808413 0.36241698

concat_adjust.bias f4 [16]
00000000: ecf1 773e 9357 9e3e 6cef 6b3e 99d5 d73e
00000010: 3b48 f9bd fe9f 8a3e 86c2 923d f4bc 173e
00000020: 2fa8 ca3e 1778 04be 79d7 873e e4bc a13d
00000030: ca26 b13e 3e10 133e 14ec a83e 1f2d 003f
0.2421338 0.3092619 0.23040551 0.4215515 -0.1217198 0.2707519 0.07166009 0.14818174
0.3958144 -0.12936436 0.2653158 0.07897356 0.34599906 0.14361665 0.32992613 0.5006885

classifier.0.weight f4 [1, 16]
00000000: b130 95be e06d f8be a9f6 033f 813e bebe
00000010: 205e ad3e fc21 bd3e 3c39 b9be ebba dc3e
00000020: 78b6 e03e c0d5 9abe d7d3 8f3e 5bfb 7d3e
00000030: fbd2 f03e 227d dd3e a97a e6be 20cc 7a3e
-0.2913871 -0.48521328 0.5154825 -0.37157062 0.33860874 0.3693999 -0.3617648 0.43111357
0.43889213 -0.30241203 0.28091308 0.24802916 0.47035965 0.4325953 -0.45015457 0.2449193
