models/MiniResNet_pneumoniaMNIST.pth (torch, 34535 bytes, 33 tensors)

input_block.0.weight f4 [8, 1, 5, 5]
000000 0e 0d 3c 3e 95 35 5c 3e 3e 40 3d 3e 15 0e 7f 3e
       0.18364355 0.21504815 0.18481538 0.24907716
000010 63 f6 8b bd 9f a5 e4 bd 0e 77 82 be ff 06 15 3e
       -0.06834104 -0.11164402 -0.25481457 0.1455345
000020 0e fe 1d 3e 7a d7 7a be c7 88 c0 ba 56 cc 04 bd
       0.15428945 -0.2449626 -0.00146892 -0.032421432
000030 f8 fe 17 3e 13 11 bc bd 20 c8 93 3d 10 6f a2 bd
       0.14843357 -0.09182944 0.07215905 -0.0793134
000040 1c d5 49 3e 02 c9 9c 3d 8b 6a 1e be bc c0 07 3e
       0.19710201 0.07655527 -0.1547033 0.13257116
000050 bd 50 d7 bd cd 54 71 bd eb fc 6e bd 54 2a 0a 3e
       -0.105134465 -0.058918763 -0.05834667 0.1349271
000060 a2 1f ae bd a3 b7 16 be 8e 5a 68 bd b0 68 bf bd
       -0.08502127 -0.1471849 -0.056726985 -0.093461394
000070 ee f9 03 3d 07 ae 0f be 31 63 1d 3e 4b 64 31 be
       0.032220773 -0.1403123 0.1536987 -0.17323415
000080 f9 f7 3a 3e 24 fd 63 3d f1 6d fd bc d1 aa 91 3e
       0.18258657 0.055661336 -0.030936213 0.28450635
000090 72 a2 81 3e 97 da db 3e e7 8e 12 3e b1 fd 6e 3b
       0.25319248 0.42940208 0.14312325 0.003646713
0000a0 be fb a8 3d 27 a9 24 3c 10 76 00 3e a2 7f c9 3d
       0.08251141 0.010050095 0.12545037 0.09838797
0000b0 ea bc d5 3d 57 4d 08 be d8 bd af 3d dd ed cb bc
       0.10436423 -0.13310753 0.08581132 -0.024893695
0000c0 34 92 13 3c 3a 61 cb bd 01 ad 4f be 8b ec 08 be
       0.0090070255 -0.09930654 -0.2028084 -0.13371484
0000d0 db 8d 31 be 4b 43 63 3e 1c f5 1d 3e 8e c0 04 3e
       -0.1733927 0.22193639 0.15425533 0.12964079
0000e0 d1 1e 91 3d c3 c6 9a ba 57 ee 2a 3e 4a 1b 1b be
       0.07085956 -0.0011808503 0.16692482 -0.15147129
0000f0 83 12 46 3d 7e b0 e7 bd b8 28 08 3d b1 a5 00 be
       0.048357498 -0.1131296 0.033241957 -0.12563206
000100 37 bf c2 3c 61 30 e8 3c 2e 3b 3b 3e 90 a8 1d be
       0.023772819 0.028343381 0.18284294 -0.15396333
000110 07 98 08 be 7e 4d 5f bd ae c7 84 3e 3f 50 0e 3e
       -0.13339244 -0.05451726 0.25933594 0.13897799
000120 f5 74 42 3e 85 76 24 be 6a e6 2d be 70 5a 35 be
       0.18989928 -0.16060837 -0.16982427 -0.1771028
000130 10 7b 58 be 06 7a 3e 3d 51 9f dd 3d 11 c5 62 3e
       -0.21140695 0.04650309 0.10821403 0.22145487
000140 a1 7b e7 bd 81 ae 29 be a3 c0 b2 3d fd 90 13 bd
       -0.11302877 -0.16570474 0.08728149 -0.036026943
000150 10 ee 2f 3e b3 7d 35 3c 83 d8 4a 3e 59 9c ef bd
       0.17180657 0.011077332 0.19809155 -0.11699743
000160 6f 1f 82 bd 0b 07 1e 3e 38 1e 97 3d 39 11 f8 bc
       -0.06353652 0.15432374 0.07378811 -0.03028165
000170 d8 f6 9f 3d e4 47 02 3e 0c 69 8b bd da 04 65 be
       0.078107536 0.12722737 -0.068071455 -0.22365132
000180 c1 c3 aa 3d ca 24 2a be 6c 16 17 be ba 44 33 be
       0.08338118 -0.16615596 -0.14754647 -0.17506686
000190 8e 36 92 bb 19 05 ed 3d 06 09 f5 bd 27 dd 40 be
       -0.00446207 0.11573238 -0.11964612 -0.18834363
0001a0 9c a6 fd 3d 4b a1 9d bd bd 39 93 bd 65 9c 32 be
       0.12385294 -0.0769678 -0.07188747 -0.17442472
0001b0 fa ab 9a be 50 d1 2a bd a6 c2 65 3e 21 90 ae 3d
       -0.30209333 -0.041703522 0.22437534 0.08523584
0001c0 b1 37 02 3e 36 7b 2f be 19 ae 22 be d4 a4 12 be
       0.12716557 -0.17136845 -0.15886725 -0.1432069
0001d0 69 3e fb bc 07 40 5b be ee 86 07 be 6d 27 80 be
       -0.030669408 -0.21411143 -0.13235065 -0.2503008
0001e0 0d c9 c4 3d 53 7e 3a 3b f3 0d a9 3d b9 ca 13 bd
       0.0960866 0.0028456643 0.08254614 -0.036082003
0001f0 84 4f 92 bd 70 ff bc bd c2 10 a3 bd 0e 89 1b be
       -0.07144073 -0.09228408 -0.07962181 -0.15189001
000200 b9 67 48 3e 49 36 9c bd 26 0f 74 3e 49 f0 15 3e
       0.19570817 -0.076275416 0.23833904 0.14642443
000210 3e 31 00 be 21 56 1f 3e d7 9b 01 be 12 a8 bc bd
       -0.12518784 0.155602 -0.12657104 -0.09211744
000220 7c 5e 50 be e6 67 54 be ff 00 ba 3d 15 f2 8b bd
       -0.20348543 -0.20742759 0.09082221 -0.06833283
000230 40 d7 85 3a 53 11 62 be 81 c1 11 3e f5 f3 13 be
       0.0010211244 -0.22076921 0.14233972 -0.14448531
000240 ac b1 e0 bc f0 b2 a6 3d a3 7a 1f 3e 52 f9 35 3e
       -0.02742847 0.08139598 0.15574126 0.1777089
000250 dd f1 66 3e 3b 1e b4 bd 90 72 fd 3c 8d c1 b1 bd
       0.22553201 -0.087948285 0.030938417 -0.08679495
000260 54 2c 3e bd 07 ae 2f be 29 7f 35 3e 82 d7 01 be
       -0.046428993 -0.1715623 0.17724289 -0.12679866
000270 0c 89 f0 3d 81 3a 6d 3d 35 cf 84 3c 69 71 f1 bd
       0.117448896 0.05791712 0.016212085 -0.117892094
000280 23 e8 77 3e 68 84 b8 3d 4a 23 48 3d 57 9c 5b be
       0.24209647 0.090096295 0.04886178 -0.21446358
000290 ff 43 ee 3d d8 c0 73 bd 61 78 8c bd a2 d1 57 3e
       0.11634063 -0.059510082 -0.06858898 0.21076062
0002a0 63 c6 71 3d 5d 38 f3 bd 7a 02 13 be 31 0b a0 b9
       0.059027087 -0.11875985 -0.14356413 -0.00030525916
0002b0 ec 54 2a 3e b4 88 03 bc ed 35 0e be 1a 8f 3c be
       0.16633958 -0.008028198 -0.13887759 -0.18413964
0002c0 ec 7d 7e be ce 14 90 3b cc f7 00 3e 14 bb 3b be
       -0.24852723 0.0043970114 0.12594527 -0.18333083
0002d0 61 1f 7f 3b 69 dd af 3d 2d ab 8a 3d 82 d4 4a bc
       0.0038928615 0.085871525 0.067709304 -0.012379767
0002e0 26 d1 2f 3e 1c f6 0f 3d 67 99 2b 3d 03 a1 83 bc
       0.17169628 0.035146818 0.041894343 -0.016067987
0002f0 c8 48 97 bd 2c ed f2 ba d5 ef 33 bd f8 ba 40 bd
       -0.07386929 -0.0018533817 -0.043929894 -0.047053307
000300 c5 3f 33 3e 54 e9 23 3e b7 66 ca 3c a9 90 fe bc
       0.17504795 0.16006976 0.024707181 -0.031074839
000310 72 f8 36 3d 47 1b 13 3e 7f 7d 07 3e a8 30 1a 3e
       0.04467053 0.14365874 0.13231467 0.15057623

input_block.0.bias f4 [8]
000000 8a 4e dc bd 5b e9 1b be f0 2b 0b 3e 2e 99 a9 3d
       -0.10757168 -0.15225737 0.1359098 0.0828117
000010 b8 af b0 bd 55 0d a1 3b 44 7f db bd c0 f1 31 be
       -0.08627266 0.0049149194 -0.10717633 -0.17377377

input_block.1.weight f4 [8]
000000 79 d8 88 3f d5 b4 6d 3f e9 5c 7c 3f 0b 9b 71 3f
       1.0691062 0.9285405 0.9857927 0.943772
000010 a0 04 7a 3f c4 cc 88 3f bd 76 82 3f b2 f1 7f 3f
       0.9766331 1.068749 1.0192486 0.9997817

input_block.1.bias f4 [8]
000000 81 5b a3 3d 65 69 36 be a0 b6 b1 3d 9d 30 f7 3d
       0.07976437 -0.17813642 0.08677411 0.12069819
000010 4b d7 0e 3d 78 17 31 bd f4 d3 ae 3c 9a 7d 0e 3c
       0.034873288 -0.043235272 0.021341302 0.008696938

input_block.1.running_mean f4 [8]
000000 5f 59 2f 3e b6 43 09 3f d6 18 34 3e f7 8e 87 bd
       0.17123936 0.53618944 0.17587599 -0.06619065
000010 14 6c 50 bf 1c 83 7a bd d0 d5 bc bd 9d 26 d9 3d
       -0.81414914 -0.061160192 -0.09220469 0.10603068

input_block.1.running_var f4 [8]
000000 40 8b 49 3c 2c 1f 4e 3d ce a4 a3 3b 5b da 4f 3c
       0.012301266 0.050322697 0.0049940115 0.012686337
000010 c5 68 79 3d 2c 77 f7 3b fe e7 a3 3a 28 8a 4e 3c
       0.06089093 0.007552048 0.0012505052 0.012606181

conv_block_1_1.0.weight f4 [8, 8, 3, 3]
000000 51 5c d8 bd a9 ef c1 bc 70 54 bb 3d b1 a8 f3 3d
       -0.10564483 -0.02367385 0.091469646 0.1189741
000010 35 af 10 be 23 38 42 be 10 43 00 bd e9 ab 9c 3d
       -0.14129336 -0.18966727 -0.031313956 0.07649977
000020 d7 b4 d5 ba a7 e7 8e bb 82 33 2c 3d af f8 af ba
       -0.0016304505 -0.004361111 0.04204131 -0.0013425554
000030 03 a6 fd bc b8 bf fc 3d ae 0b d4 bc 4d 74 e0 ba
       -0.03096295 0.12341255 -0.025884476 -0.0017124504
000040 17 fe 5b be 0f 32 0d 3d ef e6 87 3d 4d e4 5e bd
       -0.21483646 0.034471568 0.06635844 -0.054416943
000050 8f d0 9b 3d 01 42 7b bd 99 5b e6 bd c7 8c 35 3e
       0.07608139 -0.061342243 -0.112479396 0.17729484
000060 df 06 47 bd 7e bb 0f 3e 78 a4 26 3e bf 40 1f bd
       -0.048590537 0.14036366 0.16273677 -0.038880106
000070 30 ff 32 3d 3c 30 ae bc 13 69 22 bd 5f 4a ce bd
       0.043700397 -0.021263234 -0.039650988 -0.10072779
000080 04 80 6a 3e a4 fa b0 bd b6 f9 4a bc 3b 0f 86 3c
       0.22900397 -0.08641556 -0.012388637 0.016364684
000090 4a 90 48 3c 61 cd f0 39 70 28 10 bd 5d d4 04 3e
       0.012241432 0.00045929386 -0.035194814 0.12971635
0000a0 0c 62 4d 3b 72 aa 00 3e 85 2c 1c 3d 39 47 bf bd
       0.0031338958 0.1256502 0.038128395 -0.093397565
0000b0 6a 16 d7 3d d5 ca 9e bc 56 12 26 bd 0f d1 24 be
       0.10502322 -0.019383827 -0.04054483 -0.16095375
0000c0 99 cf e5 3c ce 9e a8 bd 89 a3 fc 3d 1e 02 76 bc
       0.028053092 -0.082334146 0.12335879 -0.015015153
0000d0 c1 53 f8 3c 44 4f 37 be 20 f4 a2 bc 42 9d 80 bd
       0.030313374 -0.17901331 -0.019891798 -0.062799945
0000e0 53 16 95 3d b6 4f 1e 3e 6e b4 fa bc 76 f4 c4 3d
       0.07279649 0.15460095 -0.030603614 0.0961694
0000f0 a3 6f 42 be 14 70 de bc ab f4 63 3e 0e 97 fd bd
       -0.18987899 -0.027153052 0.22261302 -0.12382327
000100 19 56 2b 3d 68 f8 12 3d d4 ff eb 3d 46 4e bf 3c
       0.041830156 0.03588143 0.11523405 0.023352753
000110 50 e9 da bd 87 5c 01 3e 38 b5 2e 3d fe df 84 be
       -0.10689032 0.12632953 0.042653292 -0.25952142
000120 e8 d9 45 3c 7e cd 72 bd 0a 04 2b bc 0e 91 d3 3d
       0.012075879 -0.059278004 -0.010437975 0.10330401
000130 11 53 2c 3d 26 f7 48 bd ae 6a 9f bd 00 69 01 3e
       0.042071406 -0.049063824 -0.077840194 0.1263771
000140 db 1d f3 3d 28 43 0a bd 98 f0 84 bc ab 59 b3 bc
       0.11870929 -0.03375545 -0.016228005 -0.021893343
000150 72 82 d6 bd 46 ac 78 bd e0 d1 b2 3d 45 12 89 bc
       -0.10474099 -0.060711168 0.08731437 -0.016732344
000160 a4 12 60 3d c3 c6 e9 3d 7e 45 3b be 8e ef 27 bd
       0.054705277 0.11414864 -0.18288228 -0.04099994
000170 f0 5a d9 3d 2e e2 0c bd 10 61 79 bd d2 36 9d bd
       0.10613048 -0.03439539 -0.06088358 -0.07676472
000180 16 52 93 bb 94 96 d3 3d d5 3c bc bd 55 34 ac bd
       -0.0044958694 0.10331455 -0.0919129 -0.08408419
000190 2a ac a6 bd df f5 05 bd e7 e1 4d 3e 5c f8 ed 3c
       -0.081383064 -0.032705184 0.20105706 0.029049091
0001a0 04 bd 81 bd 3a 60 df 3d 1f f2 a9 3c 2f 08 42 be
       -0.0633488 0.10907026 0.020745335 -0.18948434
0001b0 3c 12 63 3d 3d bc ad 3d aa cc e7 bb 87 4f e7 3c
       0.05543731 0.08483169 -0.0070739584 0.028236164
0001c0 54 37 ee bd 7f 25 08 be fc 00 55 3e 1a c4 15 3e
       -0.11631647 -0.13295554 0.20801157 0.14625588
0001d0 7c 57 b7 bd 98 d7 6f be ce 75 34 be 22 07 57 be
       -0.08952233 -0.23422086 -0.17623064 -0.20998815
0001e0 d0 a5 71 bd 42 42 b2 bc 23 90 ce 3b 89 d0 c6 3d
       -0.05899602 -0.02176011 0.0063038035 0.09707744
0001f0 97 88 5c 3d 42 b6 eb ba 61 4a c5 3c 07 67 c0 bd
       0.0538412 -0.0017983394 0.024083318 -0.09394651
000200 63 51 0e bd d7 54 25 3e 7c 14 c8 3c 20 a0 62 bd
       -0.034745585 0.16145645 0.02442383 -0.05532849
000210 d3 98 a7 3d c7 aa 26 3d d5 52 61 be f3 95 2e be
       0.08183446 0.04069021 -0.22004254 -0.17049389
000220 14 20 af bd 59 8a 85 bd 52 a2 d7 3d d1 35 a4 bd
       -0.0855104 -0.06520528 0.10529007 -0.08018077
000230 87 92 6e bd 85 d4 bc 3c 2b 56 95 3d ab 9d 2b 3e
       -0.058245208 0.023050556 0.07291826 0.16759364
000240 18 03 ee 3d 37 c8 05 3e 1a 8f f5 bd 00 6d a0 bc
       0.11621684 0.13064657 -0.11990185 -0.019583225
000250 fd 80 90 3d 2b 76 9f bc f7 23 da bc b0 02 25 3e
       0.070558526 -0.019465527 -0.026628477 0.16114306
000260 68 c2 64 bd e9 c8 3a bb a5 9a 49 bd a9 7e b6 3d
       -0.055849463 -0.00285011 -0.049219746 0.08910877
000270 b0 38 83 3d 9f 9a e2 3c 3a 3e e1 bc bb b2 16 be
       0.06407297 0.02766162 -0.027495492 -0.14716618
000280 32 27 c6 bd 30 67 24 bd d3 d7 eb 3d 80 2b 9b 3d
       -0.09675445 -0.04013747 0.115157746 0.07576656
000290 6c ec 6e bd ac 52 0f bc 69 86 b1 bd 44 08 d9 ba
       -0.05833094 -0.008747738 -0.08668215 -0.001655825
0002a0 2d 5e 9a 3d e6 eb 31 3e 84 b6 82 3e 06 96 1c be
       0.07537494 0.17375144 0.25529873 -0.15291604
0002b0 80 c4 b4 3c b5 06 08 be 48 bf f6 3d 70 40 ee 3d
       0.022066355 -0.13283809 0.12048203 0.11633384
0002c0 e3 f0 2c 3c 61 e8 57 3e 41 98 4d bc 7d 67 8b 3d
       0.010555479 0.2108474 -0.012548507 0.06806848
0002d0 40 d7 3a 3d c2 0f 1d bd 26 1e 14 bd 60 7a fc bc
       0.045615435 -0.038345106 -0.036161564 -0.030820072
0002e0 17 c6 ca 3d db af 00 3d a4 df c3 3d 0a bb 59 bd
       0.09901064 0.03141771 0.095641404 -0.05315689
0002f0 b5 a9 16 be fc a0 ee bd 98 80 95 bd 14 64 f2 bd
       -0.14713176 -0.11651799 -0.07299918 -0.11835495
000300 10 b9 57 bc 7e eb 1f 3e e9 b8 5b 3c 9e 0e 40 3d
       -0.013166681 0.15617177 0.013410785 0.04688894
000310 4f 1b e6 bd f5 3f 30 be 08 65 e7 bd 15 28 f6 ba
       -0.112356775 -0.17211898 -0.11298567 -0.0018780256
000320 fa 6b 3a bc b1 5e 83 3d ab 95 4f bc e4 35 b7 bd
       -0.011378283 0.06414545 -0.012669961 -0.08945826
000330 37 c6 91 3e bd ac 13 3e 2a 1a 4a 3e cf f4 a1 bc
       0.28471538 0.14421363 0.19736543 -0.019770054
000340 fa 89 2a bc 3c be 99 3d 84 fe c1 bd 3a 10 1d be
       -0.010408873 0.075069875 -0.09472373 -0.15338221
000350 db 1f b6 bd c1 4a 10 3d de a5 26 bd 0f 54 94 3d
       -0.08892795 0.03522754 -0.040685527 0.072425954
000360 d3 29 22 3c 70 6c 04 bd fe 37 89 bd 8c 3e 40 be
       0.009897667 -0.032329977 -0.06700133 -0.1877386
000370 c6 3d b7 bd 49 5f cb bb 78 eb c4 bd ed ab f0 bd
       -0.08947329 -0.0062064272 -0.096152246 -0.11751542
000380 98 f1 dc bd cb 81 12 3d 9e e2 a4 bd f2 e3 13 3e
       -0.10788268 0.03576831 -0.08051036 0.14442423
000390 89 50 25 be 18 fd 27 bd fb 03 4d bd 8c 50 89 3d
       -0.16144003 -0.041012853 -0.050052624 0.06704816
0003a0 2f b6 cd bc 7d 30 b4 3d bc 4a 17 be 5e dd 4d bd
       -0.025111286 0.08798311 -0.14774603 -0.05025994
0003b0 08 69 13 3e 7d 30 2d bd 38 5c 23 be 57 0f 26 3e
       0.14395535 -0.04228257 -0.15953147 0.16216789
0003c0 6b 8c 1e 3e 21 78 d9 bd 11 82 9b 3d 34 c3 5e bc
       0.15483253 -0.10618616 0.075931676 -0.013596345
0003d0 9c 39 cd bd 15 ab 33 3c 42 e7 93 3d 22 ce e2 bb
       -0.10020754 0.010966082 0.07221843 -0.0069215456
0003e0 10 ee 40 3d d6 a3 ad 3d 6d 1b 0d bd 2a 0f a6 bd
       0.047102034 0.08478515 -0.034449983 -0.08108361
0003f0 ec 69 84 bd fb 03 07 bd f1 26 db 3b a0 e6 59 bd
       -0.064655155 -0.03296278 0.006687992 -0.053198457

conv_block_1_1.0.bias f4 [8]
000000 ad 3f 04 bd 50 6c cb bd 68 fd d7 3c f4 95 36 3d
       -0.03228729 -0.09932768 0.02636595 0.0445766
000010 44 06 42 bd b8 5d 4b 3e df c3 5b bd c2 5f 98 3d
       -0.047369257 0.1985997 -0.053653594 0.07440139

conv_block_1_1.1.weight f4 [8]
000000 4d 12 7e 3f 1a 01 89 3f fd ab 8a 3f 54 3f 80 3f
       0.99246675 1.0703461 1.0833737 1.0019326
000010 93 d0 73 3f 58 6a 6d 3f b3 93 83 3f d1 55 80 3f
       0.95240134 0.9274039 1.0279449 1.0026189

conv_block_1_1.1.bias f4 [8]
000000 18 9b 40 be ac 19 95 bd 98 bb 69 bc bb fd c6 3c
       -0.18809164 -0.07280287 -0.014265917 0.02429091
000010 e9 f0 49 be c3 ea b8 bd c9 24 2a be c6 32 f5 bc
       -0.19720806 -0.09029152 -0.16615595 -0.029931437

conv_block_1_1.1.running_mean f4 [8]
000000 29 ed 53 3e 57 13 f2 be f8 b9 40 3f d7 ec 0d bf
       0.20695938 -0.4728038 0.75283766 -0.55439514
000010 81 f7 87 3e 54 f2 1e be 49 fd 19 bf 9e 50 93 3e
       0.26556018 -0.15522128 -0.6015211 0.28772444

conv_block_1_1.1.running_var f4 [8]
000000 2b 56 d6 3e bc 76 f2 3e 5c 72 02 3f 8e 9e 10 3f
       0.41862616 0.47356212 0.5095575 0.56491935
000010 7f d8 eb 3e f1 39 a8 3e 39 72 cf 3e d7 de 8d 3e
       0.4606361 0.32856706 0.40516832 0.27709076

conv_block_1_2.0.weight f4 [8, 8, 3, 3]
000000 d2 95 48 3d 6c 70 45 be 9a 02 de 3d 64 0b 0d be
       0.048971005 -0.19281167 0.1084034 -0.13773876
000010 36 11 14 bd 60 3a d1 bd 03 96 5b bd 95 02 84 3d
       -0.036149226 -0.10216212 -0.05360986 0.06445805
000020 cd 1b 89 3d 39 82 b6 3d 0a a1 41 be 21 40 b5 3d
       0.06694756 0.08911557 -0.18909088 0.08850122
000030 60 36 ba 3c 7b 6b 05 be ce 92 17 bd 16 02 1f bd
       0.022731006 -0.13029282 -0.03700524 -0.03882035
000040 5e 64 6c bc 3b ee c4 bd b6 03 ee bd ed f0 b2 bd
       -0.014428226 -0.09615751 -0.116218016 -0.08737359
000050 ec 4a b9 bd 9f a9 95 3d 6d cd 9f 3d 4b 97 d5 ba
       -0.09047493 0.07307743 0.07802854 -0.0016295699
000060 70 12 ab 3d bc f9 1c 3c 28 12 d4 bd 6d 6b a3 3d
       0.08353126 0.009581026 -0.103550255 0.07979474
000070 58 4c 02 3e 3d 96 33 3e 89 d6 eb 3c b0 58 5f bd
       0.12724435 0.1753778 0.028788822 -0.05452794
000080 56 c0 21 be 45 fe 5b 3e e1 df 3e 3e 49 19 88 bd
       -0.15796027 0.21483715 0.1864009 -0.06645448
000090 70 08 c0 3d ad ef bf bc a8 9b 55 3e fd 29 b7 3d
       0.09376609 -0.023429716 0.2086016 0.089435555
0000a0 c4 3e 20 be 99 f6 88 bd ae 3f 68 bd 47 9a 93 bc
       -0.15648943 -0.0668766 -0.056701355 -0.018017901
0000b0 a8 21 00 be 75 33 e6 3c 1a 5e 1b be 86 05 55 bd
       -0.12512839 0.028100708 -0.15172616 -0.05200722
0000c0 27 33 49 3e c6 8b 9f bd 7e 81 ab bc 6f 25 c8 3c
       0.1964842 -0.077903315 -0.02093577 0.024431912
0000d0 12 51 63 bc 26 6b f1 bb 41 35 92 bd a5 21 d4 bc
       -0.013874309 -0.0073675094 -0.071390636 -0.02589495
0000e0 55 f6 a1 bd 1f 7b 38 3d 11 e1 98 3c e5 7c 42 bd
       -0.07908312 0.045039292 0.018662008 -0.04748239
0000f0 36 0a e6 bc 3e 25 70 3e 8f f7 88 3c 0d a8 d8 3d
       -0.02808104 0.23451707 0.016719608 0.10578928
000100 8c 19 5b 3c 58 4c a7 bc cd 7c 08 3e 52 cb 4e 3d
       0.01337279 -0.020422146 0.13328858 0.05048687
000110 7d d3 43 3d f6 c6 8f bd 30 96 00 3e 6d 96 83 bb
       0.047809113 -0.07020371 0.12557292 -0.004015735
000120 e7 fe 87 3d 4a d6 1a 3e d0 2b 32 3e b1 7d 0b bd
       0.06640416 0.15120807 0.17399526 -0.034055416
000130 0b 07 c2 bc 55 9d d4 bd 0b da 28 bb 42 31 c4 3d
       -0.023684999 -0.10381571 -0.002576473 0.09579708
000140 af a0 e0 bb 2c 53 5e 3d 93 d1 24 bd b1 e8 48 3d
       -0.0068550925 0.054278538 -0.040238928 0.049050037
000150 44 41 a4 3d bc fd 58 bc e5 fd 14 3e 1b 8e f1 bd
       0.08020261 -0.013244089 0.14549978 -0.117946826
000160 2a 5f 90 3d 05 7c 3c 3e fd 31 5d 3d cc de 13 3e
       0.07049401 0.18406685 0.05400275 0.14440459
000170 25 e8 36 3e d1 14 b9 3d e5 33 cd 3d d9 a8 86 3c
       0.17861994 0.090371735 0.10019664 0.016437935
000180 60 15 30 be 03 e6 90 3c a0 3e 89 bb 19 e5 28 bd
       -0.17195654 0.017687803 -0.0041883737 -0.04123411
000190 c5 7f b8 bc fd bf d3 bd 16 fc 0d bd 06 8d bd 3d
       -0.022521863 -0.10339353 -0.034664236 0.09255414
0001a0 80 14 65 3a db d9 e0 bd 7a 12 a8 bd 11 59 3e bc
       0.00087387115 -0.10979053 -0.08206649 -0.011617915
0001b0 da d5 1a 3e c5 75 fb 3d af 45 10 3e 41 d2 19 3e
       0.1512064 0.12278322 0.14089082 0.15021612
0001c0 89 03 cf 3d 82 8d fd 3d 26 e0 33 bb 8a d8 81 3c
       0.10108096 0.12380506 -0.0027446835 0.015850324
0001d0 be 51 03 be ff ea b7 3c 9d 83 0c bd 2f f1 07 3e
       -0.12824151 0.022450922 -0.034305204 0.13275598
0001e0 63 96 ca 3d 1f da 80 3d d5 87 b4 3d f7 ee 25 bd
       0.09891965 0.06291603 0.088149704 -0.040511098
0001f0 ca 91 3e 3d 50 df 10 3e 60 91 5d 3d 6b 66 0f 3e
       0.046525754 0.14147687 0.05409372 0.14003913
000200 3a 55 18 bd 58 f4 63 bd 66 2a ef 3c 4a 38 ec bb
       -0.037190653 -0.055652946 0.029195022 -0.0072088586
000210 68 87 a4 bd ab 00 c3 bd d8 b9 df bc 56 44 c5 3d
       -0.08033639 -0.09521612 -0.027310297 0.09632175
000220 1e 41 de bd 3b 62 64 3d fd ac c8 3d 31 cf c0 bc
       -0.10852264 0.055757742 0.0979862 -0.023536297
000230 c9 e6 98 3d d9 de 5d 3d b0 a5 e3 bd d0 e6 15 3d
       0.07465894 0.054167602 -0.11115587 0.036597073
000240 f0 c4 24 bd 38 97 f9 3d 40 3f b2 3d 64 30 a2 3d
       -0.040226877 0.12187046 0.0870347 0.07919386
000250 71 55 d9 bd 93 41 30 3e e4 c4 0c be 18 cd 08 be
       -0.10612 0.17212515 -0.13746983 -0.13359487
000260 42 b5 6c be 13 2b 33 bb 1d 5f dc 3c df 1b 4c be
       -0.2311602 -0.0027338907 0.026900822 -0.19932507
000270 46 d0 8b bb 6c f3 47 3e f6 53 2f bd 13 40 67 bd
       -0.0042667715 0.19526452 -0.04280468 -0.05645759
000280 ff 18 67 3e 99 77 88 3d 4f 89 f9 3d 4c 47 24 be
       0.22568129 0.066634364 0.12184393 -0.16042823
000290 e7 29 1c 3a af 77 3f be 47 85 a9 bc 4b 53 a0 bb
       0.00059571717 -0.18698 -0.020693434 -0.004892742
0002a0 f3 1f c1 bd a6 d1 06 bd 97 b5 15 be 98 5a 1a 3c
       -0.09429922 -0.03291478 -0.14620052 0.009421013
0002b0 64 94 97 3d 96 19 34 3d bc a9 38 bd 90 55 fe 3c
       0.0740135 0.043969713 -0.045083746 0.031046659
0002c0 d4 91 28 3d 0c 28 82 be 54 8c 1a 3d f4 2e 77 3d
       0.041154698 -0.25421178 0.037731484 0.060347512
0002d0 3b 31 83 bc 03 30 c8 3c eb 15 54 3d 65 7f 03 bd
       -0.016014686 0.024436956 0.051778715 -0.032103915
0002e0 71 e3 0a bc a8 78 2d 3d df 3e 71 3e 9f e8 33 3e
       -0.008477078 0.042351395 0.2355914 0.17569207
0002f0 85 32 6c bd d4 31 a6 3d fb 27 d6 3d 2e 3d 06 3e
       -0.057665367 0.08114973 0.104568444 0.13109276
000300 f9 ca ae bd f1 f2 85 bd 21 e4 2e 3d 1a 47 6b bd
       -0.08534808 -0.06540478 0.04269803 -0.057440855
000310 3e 61 53 3d a3 d0 09 3d 2e ff 16 bb 81 88 2a be
       0.05160641 0.033646237 -0.0023040283 -0.16653635
000320 4e 73 f1 3c 81 0c 3f be 89 04 8c bd 6d 0c 8b 3d
       0.029473927 -0.18657114 -0.068368025 0.067894794
000330 2a 87 11 3e c5 60 47 3d cd 5a 3c bd 03 d6 82 bc
       0.14211717 0.04867627 -0.045985032 -0.01597119
000340 fa 02 18 3d 5a 3e f5 bb bb fd 24 be 46 3e 8a bc
       0.037112214 -0.0074842395 -0.16112415 -0.016875397
000350 63 cb 95 bd 2a 67 3e be 2a c7 78 3d 27 d8 a2 bd
       -0.073141836 -0.18594041 0.060736813 -0.07951384
000360 9e 2a 3e ba ff 63 47 bd 71 74 f8 3c 6b 27 e1 3d
       -0.0007254275 -0.048679348 0.030328961 0.109938465
000370 89 dc 7a bd c9 43 e2 3c ac f4 ea bc 6b b5 86 bb
       -0.061245475 0.027620213 -0.028681122 -0.004110982
000380 f3 f6 8a bd 16 12 17 3e 24 15 1a 3e d8 6b 33 3d
       -0.06785383 0.14752993 0.15047127 0.04380402
000390 c5 19 e8 bd 09 84 82 bd 0c eb 18 be 46 34 66 3d
       -0.1133304 -0.0637284 -0.14933413 0.056202196
0003a0 6a fa 25 bc 97 75 f6 b9 d5 b0 3b 3d 18 51 3a be
       -0.010130504 -0.00047008388 0.045822937 -0.18194997
0003b0 e0 df a0 3c b6 1c 7d bd 5d 30 b0 3c d8 4d 2f bb
       0.019638002 -0.06179496 0.021507436 -0.002674928
0003c0 b0 70 8c bc f5 92 7b be 98 55 ff 3d 8b 43 0e 3e
       -0.017143577 -0.24567778 0.124674976 0.13892953
0003d0 30 46 bb 3b 2e 6d 61 be 06 cb 04 3b b8 84 a0 bd
       0.005715154 -0.22014305 0.0020262613 -0.07837814
0003e0 4b 53 16 be 89 b0 1f 3e ad 71 ad 3d 53 a8 04 3e
       -0.14680211 0.15594687 0.084689476 0.12954836
0003f0 dd d9 ea bd c9 ec ab bd 8c 66 91 bc 2c fc b7 3d
       -0.114673354 -0.083947726 -0.017749093 0.08983645

conv_block_1_2.0.bias f4 [8]
000000 67 95 c4 3d 72 b3 b7 3d e5 b4 30 bd f4 cb 3e 3e
       0.09598809 0.08969773 -0.043141264 0.1863249
000010 a8 08 0b bd 9d 21 06 bd ef 9d 9d 3d 18 93 b1 bc
       -0.033943802 -0.0327469 0.07696139 -0.021676585

conv_block_1_2.1.weight f4 [8]
000000 44 58 b2 3f 23 87 83 3f 1b 9b a0 3f f5 dd 99 3f
       1.3933187 1.0275615 1.2547334 1.2020861
000010 47 09 9b 3f 52 64 8c 3f 4d 39 90 3f 55 d4 b2 3f
       1.2112206 1.0968115 1.1267487 1.3971049

conv_block_1_2.1.bias f4 [8]
000000 bf 31 9b 3e 1c 9b 18 be db f8 15 3d 6b c0 9b 3d
       0.3031139 -0.1490292 0.03661428 0.0760506
000010 3b 19 8b 3d 8c 75 e1 bc 46 22 70 3c 46 ef a4 3d
       0.06791922 -0.027521871 0.014656609 0.0805345

conv_block_1_2.1.running_mean f4 [8]
000000 0d 55 0f 3e b0 a0 37 3f d5 73 5e be 1a 50 5d 3d
       0.13997288 0.71729565 -0.21723874 0.05403147
000010 da 93 11 bf 45 da bd 3c 99 e3 7d 3e 63 10 f8 be
       -0.5686623 0.023175368 0.24793853 -0.48450002

conv_block_1_2.1.running_var f4 [8]
000000 56 7e 66 3e 63 44 c9 3e b9 c6 57 3e 8f 18 2c 3e
       0.22509131 0.39309987 0.210719 0.16806243
000010 58 10 75 3e 71 2d 35 3e 5e 6f 84 3e 2d 82 ba 3e
       0.23932016 0.17693116 0.25866216 0.3642744

conv_block_2_1.0.weight f4 [16, 8, 3, 3]
000000 44 9c 0e 3e 93 b6 95 bc 61 17 71 3e 1c c0 a3 3d
       0.13926798 -0.018275535 0.23544075 0.07995626
000010 ac 4a 4b 3d ad f7 09 be e0 b3 97 3d 1b fd b2 bd
       0.04963176 -0.13473387 0.07407355 -0.08739682
000020 bf ea 6d 3e 28 8e 83 bc 74 20 45 be a0 93 c4 3a
       0.2323408 -0.016058996 -0.19250661 0.0014997609
000030 71 a7 a5 3a d3 aa 5c be 08 a0 ca bd 28 bd 90 bd
       0.0012638402 -0.2154954 -0.09893805 -0.07067329
000040 93 92 17 bd 6c e6 98 bd 79 c4 83 bc 71 11 52 3d
       -0.03700502 -0.074658245 -0.016084896 0.051286165
000050 11 7c 9f bd 0a 68 77 3d 27 c5 06 3d 3f 9e 7f bc
       -0.07787336 0.060401954 0.032902863 -0.015601694
000060 c3 2d 20 bd 2c 11 3a be 6d b4 c1 bd 99 0c 76 3c
       -0.03910614 -0.18170613 -0.094582416 0.015017652
000070 15 d7 28 be 25 07 f3 3b 35 27 1a bd 45 c8 4b 3d
       -0.16488297 0.007416623 -0.037635047 0.04975154
000080 a3 56 b0 bd d3 07 32 3c a0 86 0a 3d 6b 6c 0e 3e
       -0.08610275 0.010866123 0.033819795 0.13908546
000090 c2 7e c2 3d ae 88 c2 bd c1 fd 18 bd 47 f8 52 3d
       0.094968334 -0.09498726 -0.037351374 0.051506307
0000a0 cf d3 cd bd 15 7f 78 3d be 7b 89 3d 68 db 48 3d
       -0.10050165 0.06066807 0.06713055 0.049037367
0000b0 60 6d bb 3d 5c e8 0f 3e a6 73 76 3a fa 05 bd bc
       0.09151721 0.14053482 0.0009401388 -0.023074139
0000c0 3d 8e 1c 3e 0c d1 d2 bc 76 4e cd 3d d7 5a a0 3b
       0.15288635 -0.025734447 0.10024731 0.0048936415
0000d0 9f 30 27 bd f9 db 66 3d b6 04 00 3e 4c e4 6f 3d
       -0.040817853 0.056362126 0.12501797 0.05856733
0000e0 9b c8 10 3e b1 c0 90 3d 94 ff 5d bd d8 4b 30 3d
       0.14139025 0.07068003 -0.054198816 0.04304108
0000f0 28 e7 cd 3d b5 40 49 3d 7c 09 8b 3c 0f 13 9d 3d
       0.10053855 0.049133975 0.016972296 0.07669651
000100 c4 58 b6 bd b8 2b 8b bd 12 39 ae bd d2 3d 1d be
       -0.089036494 -0.06795448 -0.08506979 -0.15355614
000110 7c 07 66 be 2b 9f 8d bd 10 d0 89 bc 24 b4 e3 bc
       -0.22463793 -0.069151245 -0.016822845 -0.027795859
000120 39 4d 4c bd 27 a3 f6 3c 48 94 39 3d 50 89 b9 bd
       -0.049878333 0.030107094 0.045307428 -0.090593934
000130 02 7c 07 3e e4 47 4a 3e 22 1c 07 bb 70 66 78 39
       0.13230899 0.19753987 -0.0020616134 0.00023689284
000140 a3 8b 69 bd 4e bb 8a bd fc a7 82 3d f8 03 12 bd
       -0.057017934 -0.06774007 0.06379697 -0.035648316
000150 80 07 44 be 2e 22 3d 3d 6c ea ee 3c 3d e6 d4 bd
       -0.19143486 0.046175174 0.029164515 -0.10395477
000160 d2 17 f7 bc e8 ce 56 bc 68 40 7f 3d 22 4d 9a bb
       -0.030162726 -0.013110854 0.062317282 -0.004708902
000170 22 18 eb 3d b2 84 14 be 9c 9c 97 bd 61 84 ba bc
       0.11479212 -0.14503744 -0.07402918 -0.022768201
000180 30 94 a7 bd 2c a1 59 3b 79 2b 14 be 95 22 c7 bc
       -0.081825614 0.0033207638 -0.14469709 -0.024308482
000190 aa 62 82 bd 12 93 48 3d 8f 35 db bd 42 d2 83 3d
       -0.06366475 0.048968382 -0.10703575 0.06436588
0001a0 38 d9 07 bc d3 d9 c0 3c b3 85 cb bc 25 80 91 bd
       -0.008291535 0.023541367 -0.024844026 -0.0710452
0001b0 5e 59 a8 bd e4 c4 89 be b0 24 17 bd a0 32 d5 3d
       -0.082201704 -0.26908028 -0.036900222 0.104100466
0001c0 96 85 48 3e 9f c1 39 3e 2d e3 14 bd dc aa 0e bd
       0.19582209 0.18140267 -0.036349464 -0.034830913
0001d0 ad 79 b1 3c 62 5b 15 be c7 36 79 be 56 2b 00 be
       0.021664465 -0.14585641 -0.24337302 -0.12516531
0001e0 e3 42 b1 3b 14 2b a4 3d a5 ec 4f 3e d8 e2 3d 3e
       0.005409585 0.08016029 0.20305116 0.18543565
0001f0 53 91 7a 3e 6a 5b bd 3d 13 6d cd bd 20 3e df bd
       0.244695 0.092459515 -0.1003057 -0.10900521
000200 b9 e8 8f 3d 45 b5 77 be ea df bf 3d ad 45 dd 3a
       0.0702681 -0.24190243 0.0936888 0.0016881727
000210 fb 51 94 bc 70 a6 1a 3d c7 b0 ac bd bf 74 bc 3d
       -0.018105498 0.037756383 -0.08432155 0.09201955
000220 10 b3 32 39 32 25 81 bd 10 ba ec 3c 5a fc ae bc
       0.00017042109 -0.063059226 0.028897315 -0.021360565
000230 e3 90 60 3b 1a ce 7f 3d e3 12 29 3d a9 c2 47 be
       0.0034266047 0.062452413 0.041277777 -0.1950785
000240 9e d7 b4 3d 49 41 e6 bc 82 e6 19 3e 61 2a 0c bd
       0.08830188 -0.028107302 0.15029338 -0.034220103
000250 8b c8 83 3c 2d 49 f9 bd 9b 1f 41 3c 03 5e 4b bd
       0.016086837 -0.1217216 0.0117873205 -0.049650203
000260 fc ce e9 3c c0 a9 5b bc b9 cd 46 3c a9 11 14 3c
       0.02854108 -0.013407171 0.012134009 0.009037414
000270 ab b3 85 bd 63 20 3f be f8 51 bb bd bc 81 ca bd
       -0.065284096 -0.18664698 -0.09146494 -0.09888026
000280 21 a3 99 bd c6 4c cd bd c4 aa 8f bd 26 58 e1 bc
       -0.075018175 -0.10024409 -0.07014993 -0.027507853
000290 29 67 4e bd 1f 97 1e 3e 2f b9 ec 3d f7 90 62 3e
       -0.05039135 0.15487336 0.115587585 0.22125612
0002a0 f5 94 fa 3c 6b 97 07 3e 48 2a 5b 3d 9e 2d 9c 3c
       0.030588606 0.13241355 0.05350712 0.01906472
0002b0 79 6a 86 bd 0c 74 16 be ee a2 06 3c 32 43 40 3d
       -0.06563277 -0.14692706 0.008217556 0.046939082
0002c0 59 11 06 3e 0e 89 05 3d 9c d4 16 3e da e5 ae 3d
       0.13092555 0.03260141 0.14729542 0.085399345
0002d0 1a 29 28 bb 33 80 3b bd 62 de 37 bd 1f 7f 44 bd
       -0.0025659264 -0.045776557 -0.044889815 -0.047972795
0002e0 b5 a5 b6 3d a2 5f 15 3e 04 6a a0 3d 52 42 8e bd
       0.08918325 0.14587262 0.07832721 -0.06946243
0002f0 0e 9f 31 3d 74 63 9b 3d 0f e9 de bb 4f 5f 2a 3d
       0.043364577 0.075873286 -0.006802685 0.0415948
000300 40 ec 14 3e bf 6b a5 3d df c0 e1 3d a7 e0 e8 3d
       0.14543247 0.080771916 0.11023115 0.11370974
000310 ae fa 15 bd ff 12 43 bd e7 4b 8a 3d 16 aa 40 3d
       -0.03661602 -0.047625538 0.067527585 0.047037207
000320 c4 b0 3a 3b f5 55 e7 3c 4f 9c 06 3d 89 5b 4e 3c
       0.0028486708 0.02823923 0.03286391 0.012595066
000330 1b 8b d1 bd 78 28 17 bd 1d 22 82 bd e4 96 e4 3d
       -0.102316104 -0.03690383 -0.06354163 0.111615926
000340 47 40 77 3d 1e c7 ff 3d 7c cb 3a be 88 90 d9 3b
       0.060364034 0.124891505 -0.18241686 0.006639544
000350 a7 9b e9 bc 5b 50 b9 bd be c3 22 be ef 71 54 3d
       -0.028516604 -0.0904853 -0.15894982 0.051866468
000360 9c e9 e0 3d 65 6c 72 bd 30 3e c5 3d a8 c5 1f 3c
       0.109820575 -0.059185404 0.09631002 0.009751715
000370 e5 58 32 be 4f 04 c1 bc 8a 75 19 bd 00 b2 f9 3c
       -0.17416723 -0.023561625 -0.03746561 0.030480385
000380 38 1a 3a be 62 96 7e 3d b9 b9 2f be 44 0f 69 bd
       -0.18174064 0.062155135 -0.17160691 -0.056899324
000390 33 66 ad bc a2 93 ba bb 61 be 13 be 28 1c d8 3d
       -0.021166896 -0.0056938687 -0.14428093 0.105522454
0003a0 37 6e 34 3d 8d bb 11 3e 63 35 83 bd 78 a6 0c 3d
       0.04405042 0.14231701 -0.06406667 0.034338444
0003b0 a7 96 7a 3d 7a 35 c7 bd d5 39 d2 3d 2f 53 66 bd
       0.06117883 -0.09726997 0.10264937 -0.056231674
0003c0 8f bc cb bd 74 df 4b 3d 30 44 0a 3e f4 6d c4 bd
       -0.09948074 0.04977365 0.13502574 -0.095912844
0003d0 55 cd 65 be 01 cc 24 be ed ac 5e bc 17 a6 52 bd
       -0.22441609 -0.16093446 -0.013591033 -0.051427927
0003e0 19 11 9a 3c 24 e5 49 bd d4 ce 75 3c 93 d3 20 be
       0.01880698 -0.04929079 0.015002925 -0.15705709
0003f0 8c 4e 94 3c 0b 7c ae 3c 83 d3 19 bc da 9a 2a 3c
       0.01810386 0.021299383 -0.009388807 0.010412896

conv_block_2_1.0.bias f4 [16]
000000 92 95 de 3d 84 5f f6 3d 3a a1 b7 bc 3c 0c 91 bd
       0.10868372 0.12029937 -0.022415746 -0.07082412
000010 85 0b 21 bc b8 41 7d bd 20 04 b3 3d 3b 63 a1 3c
       -0.009829407 -0.061830252 0.08741021 0.019700637
000020 0b eb df 3b 0a 89 9b 3d 4d c3 1e 3d 30 b9 30 bd
       0.006833439 0.075944975 0.038760472 -0.04314536
000030 0e b1 dd 3d b2 e3 71 3d 76 6f 2d bd 1e 90 a2 3d
       0.10824786 0.059055038 -0.042342626 0.079376444

conv_block_2_1.1.weight f4 [16]
000000 df a8 6d 3f 8f d1 70 3f de 72 70 3f e5 fa 64 3f
       0.928358 0.9406976 0.93925273 0.89445335
000010 15 1b 88 3f 09 14 6c 3f 0b e2 6d 3f 91 58 6b 3f
       1.0633265 0.9221807 0.9292304 0.91932017
000020 f7 27 7f 3f c4 a6 66 3f 64 e5 46 3f b7 8f 84 3f
       0.99670357 0.90098214 0.7769377 1.0356358
000030 c6 dc 80 3f f7 e2 7f 3f 4c 36 7c 3f 45 2b 8a 3f
       1.0067375 0.99955696 0.9852035 1.0794455

conv_block_2_1.1.bias f4 [16]
000000 37 bf 5d be d6 80 c9 bd 54 60 b1 be 39 98 3c bc
       -0.21654974 -0.09839027 -0.34643805 -0.011510902
000010 8d 92 9b be 62 46 ed 3d eb 8f 63 be 61 b6 9b be
       -0.30385247 0.1158569 -0.22222869 -0.30412582
000020 de 60 55 be 30 3c a6 be 35 af 0e be 49 14 bc be
       -0.20837733 -0.32467794 -0.13934024 -0.36734226
000030 82 76 fc bd 6f 55 82 be 85 28 0a bd 3f 3f a3 bd
       -0.12327291 -0.25455806 -0.03373005 -0.079710476

conv_block_2_1.1.running_mean f4 [16]
000000 d1 ef a7 3d 79 b1 4a bd ee c9 4b 3f 24 3b 11 c0
       0.08200038 -0.049485657 0.79604995 -2.2692347
000010 84 ab 3d bf ef ff 62 bf 47 f6 c6 3e e7 be af bf
       -0.7408984 -0.88671774 0.3885977 -1.3730134
000020 4c 49 1d c0 45 74 bb be e6 21 fc 3c cb 21 88 bf
       -2.4575987 -0.36612144 0.030777883 -1.0635313
000030 28 ec 16 c0 2f aa 51 bf e0 59 84 bf e4 ed 48 bc
       -2.3581638 -0.81900305 -1.0339928 -0.012263749

conv_block_2_1.1.running_var f4 [16]
000000 b5 0c a5 3f 06 6e 86 3f ae b6 71 3f 6e fc a2 3f
       1.2894503 1.0502326 0.9441937 1.2733285
000010 29 8f 82 3f 86 9d 7c 3f 75 52 4a 3f 69 36 8a 3f
       1.0199939 0.9867786 0.7903207 1.0797855
000020 05 4c 80 3f e9 74 2b 3f ae 65 75 3f e5 24 61 3f
       1.0023199 0.66975266 0.95858276 0.8794692
000030 ba ef be 3f ef b6 8f 3f a5 b2 a4 3f f0 14 cd 3f
       1.4916909 1.1227702 1.2867018 1.6022015

conv_block_2_2.0.weight f4 [16, 16, 3, 3]
000000 8b 37 d1 3d 37 6d 58 3d f1 98 c8 3d c1 b4 f1 3c
       0.10215672 0.05283853 0.09794796 0.029505135
000010 46 14 9b bd bc 64 c3 3d 61 ed cd 3d c4 8c 34 bc
       -0.07572226 0.09540698 0.10055042 -0.011019889
000020 02 75 2d 3e 22 0f fb bd 28 ca 8b bd ed fa 84 bd
       0.16939166 -0.12258746 -0.068256676 -0.06493173
000030 d4 eb 89 bd 9a 37 29 bd 1a ef a1 bc 49 44 de bd
       -0.06734434 -0.04131279 -0.019767333 -0.10852868
000040 a7 ee 1b bd b2 9f 1a bd bd ae 0f 3e d0 e2 01 bc
       -0.038069393 -0.037749954 0.14031501 -0.0079276115
000050 fc 37 20 bc a3 60 07 3e aa 1e b4 3c ac 42 26 bd
       -0.009778973 0.13220458 0.021987278 -0.040590927
000060 88 b1 1a 3e 79 8f 5c 3d 57 23 94 3d 9a 36 8b bd
       0.15106785 0.053847764 0.07233303 -0.06797524
000070 fd ca 54 bd b0 e7 66 3d 51 e9 62 bc 11 26 44 bc
       -0.051951397 0.0563733 -0.013849572 -0.011971966
000080 f3 08 95 3d 02 26 be bd f3 f2 b4 bd 3d 28 0b 3d
       0.072770976 -0.09284593 -0.088354014 0.03397392
000090 38 25 a5 3d c6 57 cd 3d 8c 12 25 3e d2 86 1b 3d
       0.080637395 0.10026507 0.16120356 0.03797037
0000a0 35 76 c5 3d 96 8e 06 3e 75 8d ab 3d 45 72 ef 3d
       0.09641687 0.1314033 0.0837659 0.11691717
0000b0 10 fb 35 3e b2 7d b7 bd ab 60 43 bd 25 11 ec bc
       0.17771554 -0.08959521 -0.04769961 -0.028816769
0000c0 18 91 3f 3b d9 1e 2a 3d 33 6d 80 ba cf 6c 7d bd
       0.002923077 0.041533325 -0.0009798169 -0.061871346
0000d0 66 3e 20 bb 90 b3 d2 bc 56 20 14 3e 48 94 d5 bc
       -0.0024451255 -0.025720388 0.1446546 -0.026071683
0000e0 59 be cc 3c d9 15 a1 3d 97 3c b2 bc af 79 ef 3d
       0.024993109 0.07865495 -0.021757407 0.11693131
0000f0 97 37 cc 3c 87 a8 b4 bd 66 a7 a9 3c 09 ef 14 3e
       0.024928851 -0.088212065 0.020709705 0.1454431
000100 c7 df bc 3d 57 44 92 3d 11 5b 1f 3e 3e 51 bd 3d
       0.0922237 0.07141941 0.15562083 0.09244011
000110 80 c2 5a 3d 7c da 7e 3d 04 52 dd 3d 14 57 74 3d
       0.053408146 0.06222008 0.10806659 0.059653357
000120 e9 ed a7 3c 11 d4 0f bd 0b 4d 5e bd 51 8b 59 bd
       0.020499187 -0.03511435 -0.054272693 -0.053111378
000130 94 c1 b3 3c 31 2c 67 bd 3f 59 a8 bc 42 4d 23 3d
       0.021942891 -0.05643863 -0.020550368 0.0398686
000140 cf ce b2 bd fa e6 42 3e 2e 9b 2e 3d c1 f8 a2 3d
       -0.08730852 0.19033423 0.04262846 0.07957602
000150 10 d4 fc 3d df a4 9d 3c 22 df 02 3c 67 b7 c6 3d
       0.12345135 0.019243656 0.007987769 0.0970295
000160 7d 5d af 3d 50 e4 23 3d dc d8 e3 bc 22 c6 50 bd
       0.08562753 0.040012658 -0.027813368 -0.050970204
000170 31 74 c0 3c d9 ce 8e 3c ad ff f3 bc 18 23 47 3d
       0.023492904 0.017432617 -0.029785002 0.048617452
000180 7b e8 5c 3d e6 9e 8b 3a 6b 50 04 3e 20 38 06 3e
       0.05393265 0.0010652214 0.12921302 0.13107347
000190 41 9f f1 3d 4b 28 c3 3d b3 c5 dc 3d 79 2c 2a 3e
       0.117979534 0.0952917 0.10779896 0.16618527
0001a0 97 cc e9 3d 02 db 81 3d 98 4f b8 3d 20 84 83 3d
       0.114159755 0.063406006 0.08999556 0.06421685
0001b0 a0 65 8d 3d 90 17 be 3d fd a8 0a 3e 9e 27 ec 3c
       0.06904149 0.09281838 0.13541026 0.028827485
0001c0 61 ef ea 3d 5c 48 03 3e 51 21 de bc d8 d4 31 3d
       0.11471439 0.12820572 -0.027115496 0.043415874
0001d0 12 63 96 3d 93 42 3c bc 5a 2c f9 3c e7 44 92 3d
       0.07343115 -0.011490482 0.030416656 0.07142048
0001e0 02 1d aa 3c ee fd 33 3d 06 03 88 3d ab 75 c0 3d
       0.020765785 0.043943338 0.06641202 0.093974434
0001f0 a2 ab 21 3e a7 3f 3a 3e 38 84 b3 bd 8b 27 63 bd
       0.15788129 0.18188344 -0.08765453 -0.055457633
000200 2c 70 fd bd 6c 4e 82 bd 90 aa b7 bd c7 04 80 bd
       -0.12374911 -0.06362614 -0.08968079 -0.06250911
000210 f7 b6 2e 3b 69 e9 69 bd e0 86 86 bc 2e 84 04 3d
       0.0026659349 -0.057107363 -0.016421735 0.03235262
000220 4e e2 c8 3d ed 6e 72 3d 5e 58 b2 3d f5 cf ce 3d
       0.09808789 0.05918782 0.08708261 0.100982584
000230 c6 43 ae 3d 77 b5 86 3d 96 53 c8 3c b8 af 93 3d
       0.085090205 0.065775804 0.02445392 0.0721125
000240 46 a3 77 3d 48 eb 83 3d 77 ba eb 3d 2a 2e c5 3d
       0.060458444 0.06441361 0.11510175 0.09627946
000250 aa 5f ae bc 87 9d 27 3d 6c 5d 87 3d 8a 8f 03 bc
       -0.02128585 0.040921714 0.06609616 -0.008029828
000260 bb 0a 22 3e e9 a9 e2 bd 31 ec b8 bd 64 28 69 bd
       0.15824406 -0.11067564 -0.09029425 -0.056923285
000270 1e c8 b8 bd f4 a7 f0 bc f6 aa 4f bd ad 90 08 be
       -0.09022544 -0.029376961 -0.05070015 -0.1333644
000280 d7 be 28 bd d9 25 4e bc 96 df 2b 3e 2b a3 1e bd
       -0.041197624 -0.012582266 0.1678451 -0.038729828
000290 d5 41 4e bd c4 9d b9 3d 77 c0 0b bc 1a c2 aa bd
       -0.05035575 0.090632945 -0.008529774 -0.08337803
0002a0 51 44 2c 3e 34 2b a1 3d 13 a9 b2 3d 2b c9 d4 bd
       0.16822936 0.078695685 0.087236546 -0.10389932
0002b0 6e d2 52 bd 18 11 8c 3d 85 48 24 bd 3f 3d 74 3c
       -0.051470213 0.06839198 -0.040108223 0.01490718
0002c0 34 2d 83 3d a7 cf 18 bd ca bd 74 bc 26 64 18 3d
       0.06405106 -0.037307408 -0.014937827 0.037204884
0002d0 ec 82 8b 3d 5d dc c7 3d 81 e9 14 3e f0 f0 e6 3c
       0.06812081 0.09758828 0.145422 0.02819106
0002e0 9a 86 e8 3d 28 ad e5 3d 77 81 a3 3d 4b 86 10 3e
       0.11353798 0.112146676 0.07983678 0.14113729
0002f0 8d d2 2b 3e 98 16 74 bd 2a 70 fa 3c 27 8d 62 bd
       0.16779537 -0.05959186 0.030571062 -0.055310395
000300 21 ff c9 3b aa 7d a2 3d dd 47 40 3d eb ca 6e bd
       0.006164447 0.07934125 0.046943534 -0.058298986
000310 cd 4e f0 3c 12 06 11 bd 4b 43 06 3e 7e 53 44 3c
       0.02933445 -0.03540618 0.13111608 0.011982797
000320 c7 86 a3 3d 36 79 ee 3d 06 ab 66 bd 6f 4a 03 3e
       0.07984691 0.11644213 -0.056315444 0.12821363
000330 93 27 ce 3b b6 9d bb bd f4 e9 ba 3d a0 bc 0d 3e
       0.0062913387 -0.0916094 0.09126654 0.13841486
000340 b5 69 cb 3d a9 49 8f 3d f9 b5 f9 3d a5 dd 98 3d
       0.099322714 0.069964714 0.12192912 0.0746415
000350 43 61 7e 3d 00 65 ba 3d 45 e0 e6 3d 9c 6a 56 3d
       0.062104475 0.091012955 0.11273245 0.052347764
000360 a2 74 54 3c 06 3e f9 bc d3 c1 dc bd bb ae 38 3c
       0.012967261 -0.030425083 -0.107791565 0.011272128
000370 f6 53 5a bd 98 79 9f bd fe 53 4d bd 30 dd 9c 3c
       -0.053302728 -0.07786864 -0.05012893 0.01914844
000380 5a 16 87 bd 3c 53 1e 3e 8a 6a a2 3c bd d2 b4 3d
       -0.0659606 0.15461439 0.019826192 0.08829258
000390 5a 52 bf 3d f9 83 0b 3c a9 ce 6c 3b 9c cf 12 3e
       0.09341879 0.008515351 0.0036133921 0.14337009
0003a0 90 ad 08 3d d5 85 8b 3d 9a 45 f0 bc e9 4b 5f bd
       0.033368647 0.06812636 -0.029330064 -0.054515753
0003b0 4e e6 58 3d 7d 91 21 bd 12 b0 37 3c 2e 74 ab 3c
       0.05295401 -0.03944539 0.011211412 0.020929422
0003c0 65 d7 31 3d e9 f2 b9 3c 74 65 93 3d c4 66 1a 3e
       0.043418307 0.022698836 0.07197085 0.15078264
0003d0 6c 21 ae 3d 4b 09 f8 3d 10 52 f9 3d 45 da 0f 3e
       0.085024685 0.121111475 0.12173855 0.14048107
0003e0 86 af c8 3d 36 07 b6 3d 58 64 c1 3d ce fc 11 3e
       0.097991034 0.08888094 0.09442967 0.14256594
0003f0 b6 b4 8e 3d 0a 36 a1 3d 77 2e 24 3e c9 97 c5 3c
       0.069680616 0.07871635 0.1603335 0.024120228

conv_block_2_2.0.bias f4 [16]
000000 65 f6 81 bd 79 0c 21 bd 82 31 c3 3b a8 59 64 3d
       -0.06345824 -0.039318535 0.0059568295 0.055749565
000010 32 9e 2e 3d 04 b9 54 3d 14 a4 74 3d b2 b9 93 3d
       0.042631336 0.051934257 0.05972679 0.07213153
000020 10 7b 99 bc e1 a4 a6 bc de b6 b1 bc c2 b3 2e 3d
       -0.018735439 -0.020342292 -0.021693643 0.0426519
000030 8d cb ae bc cb 98 ff 3c 16 d7 ac 3b 08 44 be 3c
       -0.021337295 0.031200787 0.0052746637 0.0232258

conv_block_2_2.1.weight f4 [16]
000000 a0 78 d6 3f 1f 16 c6 3f d3 6a 1a 40 21 20 cd 3f
       1.6755562 1.5475501 2.41277 1.602543
000010 7c 9d 28 40 b0 e1 03 40 b5 46 d1 3f fa 80 11 40
       2.634612 2.0606499 1.6349703 2.273497
000020 fa 4e 19 40 b5 14 d5 3f cf 97 0b 40 11 44 1f 40
       2.3954453 1.6646944 2.1811407 2.4885294
000030 28 95 05 40 74 de 13 40 76 63 c9 3f ae 2d 27 40
       2.0872288 2.3104525 1.5733478 2.612163

conv_block_2_2.1.bias f4 [16]
000000 9c 82 8a 3d ef 10 19 3e a0 d8 55 3e ee 4d ec 3d
       0.06763193 0.14947866 0.20883417 0.115383014
000010 5f c4 61 3e 02 9d 00 3e 14 8b 64 3e d3 05 24 3e
       0.22047566 0.12559894 0.22318679 0.16017847
000020 c1 22 48 3e c6 d7 21 3e 36 c8 01 3e 08 29 3d 3e
       0.19544508 0.15804967 0.1267403 0.18472683
000030 bd 47 11 3e 0c ba 44 3e f8 fa 46 3e a6 d4 4c 3e
       0.14187522 0.19211596 0.19431674 0.20002994

conv_block_2_2.1.running_mean f4 [16]
000000 dd 48 6c 3f 0b 8e 81 3f 91 22 55 bf 4e d3 8e 3f
       0.9229868 1.0121473 -0.8325587 1.1158235
000010 ab c8 66 bf be db 64 bf aa 59 8a 3f d0 8c 7f bf
       -0.90149945 -0.893978 1.0808613 -0.9982424
000020 cc e8 7c bf 78 bf 84 3f 35 fc 87 bf d9 56 78 bf
       -0.9879272 1.0370932 -1.0623842 -0.9700752
000030 d2 da 66 bf a8 09 7e bf 56 dd 86 3f 59 ad 83 bf
       -0.90177643 -0.99233484 1.0536296 -1.0287277

conv_block_2_2.1.running_var f4 [16]
000000 e1 6a 4f 3e 1f dc 49 3e b6 98 53 3e e3 f8 45 3e
       0.20255615 0.19712876 0.20663723 0.19333224
000010 fa 33 74 3e 99 f3 4b 3e a1 bd 6e 3e a3 c7 56 3e
       0.23847952 0.19917144 0.23314525 0.20974593
000020 b0 6f 6d 3e 5b 7f 54 3e 69 f1 67 3e 64 20 7b 3e
       0.23187137 0.20751707 0.22650684 0.24524075
000030 fa 21 55 3e 1d 80 73 3e f7 f5 48 3e 72 8d 89 3e
       0.20813742 0.2377934 0.19625078 0.26865727

concat_adjust.weight f4 [16, 8, 1, 1]
000000 39 a9 cf 3e 9a 35 63 3e a5 6d 97 3e 26 ee c0 bb
       0.40558794 0.22188416 0.2957584 -0.0058877645
000010 00 dc 6f be 95 8a dd 3e 08 9b b0 3e 94 76 8c 3e
       -0.23423767 0.43269792 0.3449328 0.27434218
000020 36 64 a5 3e ff fc 57 3e f6 bc 9d bd 3a 03 15 be
       0.32303017 0.21092604 -0.07702057 -0.14552012
000030 dc fd 45 3e 6f a2 00 3f e7 77 47 3e aa 11 31 3c
       0.19335121 0.50247854 0.19479333 0.010807434
000040 95 15 a9 3e c0 14 a3 bd a5 2d 9e 3e 7d 6d 84 bc
       0.33024278 -0.07962942 0.308942 -0.01616549
000050 eb 3b 54 bc 49 41 02 be e9 aa a2 bb c6 60 a5 3e
       -0.012953739 -0.12720217 -0.0049642217 0.32300395
000060 81 a2 ae 3e ca 3c cb bc 72 1b 2c 3d 83 97 65 3e
       0.34108356 -0.02480926 0.04201836 0.22421078
000070 a5 19 2d 3b f6 fd 62 3e 96 c9 d9 3e b6 4b 13 bd
       0.002641299 0.22167191 0.4253661 -0.035960875
000080 6c 51 a4 3e 39 9b ab 3e 46 3d a4 3e 38 69 33 3e
       0.3209337 0.33516863 0.32077998 0.17520607
000090 b2 15 25 3d 8f 69 33 be 38 f5 45 bd 79 cb af 3e
       0.040303893 -0.17520736 -0.048329562 0.34334925
0000a0 f8 5d 84 3e c7 98 7a bc 53 ab c4 3e d3 b4 1c bc
       0.25852942 -0.015295214 0.3841196 -0.009564596
0000b0 16 9d 57 3e 7d 7e 38 be a0 3f 9d 3d 08 61 e5 3e
       0.21056017 -0.18017001 0.07678151 0.4480059
0000c0 3d be be 3e 97 ad 97 3e 51 bc e7 3d 0c 15 49 bd
       0.37254515 0.29624626 0.113152154 -0.049092337
0000d0 01 45 6a bd 77 b4 81 3c 22 35 07 3f d9 f8 c0 3c
       -0.057194714 0.015833123 0.5281545 0.02355616
0000e0 6a 5b a0 3d 42 bc 83 be 06 e7 36 3d ca 36 d3 3e
       0.07829936 -0.25729567 0.044653915 0.41252738
0000f0 fa b6 47 3e 07 c4 29 bd c0 13 47 3e 52 25 e2 3e
       0.19503394 -0.041446712 0.19441128 0.44169098
000100 34 9f ce 3e ba cc 2e be 4a 7a 67 3e 24 e0 39 bd
       0.40355837 -0.17070284 0.22605243 -0.045379773
000110 7f 0e 57 3d ac 88 89 3e 83 88 53 be 11 95 98 3d
       0.05250406 0.26862085 -0.20657544 0.07450307
000120 a3 e8 b6 3e 61 f3 0d 3f a4 fb 25 be f8 02 8a bd
       0.35724363 0.5544949 -0.16209275 -0.067388475
000130 a7 91 1f bc aa 95 02 3f e5 35 e3 3e f0 92 a2 3e
       -0.009739316 0.5100962 0.44377056 0.3175273
000140 86 e4 8d 3e 64 9d af bd 9e 68 b9 3e 96 82 cf 3d
       0.27713412 -0.08574942 0.3621263 0.10132329
000150 03 81 2d 3e e9 5e ee bd 99 62 f7 3d 91 2f a1 3e
       0.16943745 -0.116391964 0.12079353 0.31481603
000160 b6 99 da 3d 2d a9 a3 3e 03 f8 bf 3d 31 5f 58 3e
       0.10673849 0.31965008 0.09373476 0.21130063
000170 c0 09 e4 3e 82 4c 43 3e 5d d5 b9 bd 6c c6 d0 3d
       0.4453869 0.19072154 -0.09073899 0.10194096
000180 38 98 38 3e 77 21 9f 3c d6 63 1b 3e 4d aa ac 3e
       0.18026817 0.019425137 0.15174803 0.3372368
000190 23 29 82 3e 14 e3 40 be be 16 7d be 7b 8c fd 3e
       0.2542201 -0.18836623 -0.24715707 0.4952124
0001a0 ec 6c 2a 3e 42 b3 9b bd cc 57 6e bd 6f 04 f8 3e
       0.16643113 -0.0760255 -0.0581892 0.48440883
0001b0 e0 35 a9 3e 19 39 21 be 76 e8 58 be 6c f5 01 3f
       0.33048916 -0.15744437 -0.21182427 0.5076511
0001c0 ea 3f be 3e e4 50 4a 3e bb da a4 bd 06 1b c7 3e
       0.37158138 0.1975742 -0.08049532 0.38887805
0001d0 7b 09 9d bd ce 4d d9 3e 50 6e 57 bd ec f1 19 be
       -0.07667824 0.42442173 -0.052595437 -0.15033692
0001e0 e6 8e d9 bd 7d b4 b4 3e 22 38 fb 3e b4 1c ea bd
       -0.10622959 0.35293952 0.49066263 -0.11431256
0001f0 78 2d da 3e 1d 38 11 be 9e 62 6a be fa fa cd 3e
       0.42612815 -0.14181562 -0.22889182 0.40230542

concat_adjust.bias f4 [16]
000000 78 3d 89 3e ee 23 b3 3e f9 b0 8a 3e 4d cd e8 3e
       0.2680471 0.3498835 0.27088144 0.45469132
000010 67 3a ac bd d8 d3 93 3e a7 a3 e3 3d 46 e7 35 3e
       -0.08409577 0.2887256 0.111151986 0.17764005
000020 28 ea e0 3e 48 d4 c2 bd 2b 38 90 3e 5c b1 e9 3d
       0.43928647 -0.09513146 0.28167853 0.11410782
000030 0d ba bd 3e 2f 38 3b 3e ba 4c bd 3e 1e 0d 0a 3f
       0.37056008 0.18283151 0.369726 0.53926265

classifier.0.weight f4 [1, 16]
000000 0a 07 c6 be bb 61 16 bf 22 2d 30 3f d7 e9 ee be
       -0.38677245 -0.58742875 0.6881887 -0.4666278
000010 31 ed 01 3f d3 3b f5 3e 98 63 f2 be a1 fb 10 3f
       0.5075255 0.47897205 -0.4734161 0.56633955
000020 29 58 1e 3f 65 fc cf be 52 76 cc 3e b8 65 c8 3e
       0.6185327 -0.4062225 0.3993402 0.39140105
000030 7f 71 19 3f 59 13 17 3f e2 ca 0e bf 0e af c7 3e
       0.59938806 0.590139 -0.55778325 0.39000744
