models/MiniResNet_pathMNIST.pth (torch, 36368 bytes, 34 tensors)

input_block.0.weight f4 [8, 3, 5, 5]
0	0x3e9f562e	0.31120437
1	0x3e30b22e	0.1725547
2	0x3e13592a	0.14389482
3	0x3e935f5f	0.287837
4	0x3ee2635b	0.44216427
5	0xbe05a5b2	-0.13051489
6	0xbea8d4ce	-0.32974857
7	0xbe9b0311	-0.30275777
8	0x3b33b0cd	0.0027418614
9	0x3ea63946	0.3246557
10	0xbebeba2a	-0.37251407
11	0xbf015ebe	-0.5053519
12	0xbf148296	-0.5801176
13	0xbec96875	-0.39337507
14	0x3e25f5a4	0.16206986
15	0xbed12d71	-0.40854982
16	0xbead6cfe	-0.33872217
17	0xbedb6f51	-0.42858365
18	0xbf04f8c8	-0.5194211
19	0xbd330c2a	-0.043712772
20	0xbf005fdf	-0.5014629
21	0xbeee3c71	-0.46530488
22	0xbf224a8b	-0.63394994
23	0xbecd3b9b	-0.40084538
24	0xbe64a705	-0.22329338
25	0xbea41c7b	-0.3205298
26	0xbe8bc23b	-0.27296624
27	0xbe8c3fe6	-0.273925
28	0xbedf851b	-0.4365624
29	0xbebb7c6a	-0.36618358
30	0x3d97edc0	0.07418394
31	0x3e78799d	0.24265142
32	0x3eb150a2	0.3463183
33	0xbc347c13	-0.01101591
34	0xbed50d8a	-0.41611892
35	0x3e7ee8f7	0.24893557
36	0x3e9c4587	0.30521795
37	0x3eb33bb6	0.35006493
38	0x3eca383e	0.39496034
39	0xbe79c126	-0.24390087
40	0x3e2dbf51	0.16967513
41	0xbcf1f7cd	-0.029537106
42	0x3e7983de	0.2436671
43	0x3ee883fe	0.45413202
44	0x3d972d10	0.07381642
45	0x3e38aa56	0.18033728
46	0x3e775f68	0.24157488
47	0x3e7afea4	0.245112
48	0x3f11b66f	0.56918997
49	0x3e5e8ec4	0.21734148
50	0xbe34abb3	-0.17643623
51	0xbda61ec0	-0.08111334
52	0xbde1b3da	-0.11020632
53	0xbe0b8c04	-0.1362763
54	0x3d8e4f90	0.06948769
55	0x3d0e8256	0.034792267
56	0x3e924cec	0.28574312
57	0x3e173065	0.14764555
58	0x3d748676	0.059698544
59	0xbe466f16	-0.19378313
60	0x3e979767	0.29607698
61	0x3e8cfd23	0.27536878
62	0x3e698dff	0.22808073
63	0x3e74c09c	0.239016
64	0x3d8c1516	0.06839959
65	0x3ee86317	0.453881
66	0x3edc9377	0.43081257
67	0x3e24da59	0.16098918
68	0x3e0239c7	0.12717353
69	0x3c62dc64	0.0138464905
70	0x3f0a7078	0.54077864
71	0x3eb5e5e4	0.35526955
72	0x3e38a98c	0.18033427
73	0x3d06b34f	0.032885846
74	0xbd50503c	-0.050857767
75	0x3ea97b06	0.33101672
76	0x3cd3958f	0.025828151
77	0x3bef3e75	0.0073011466
78	0xbdd47c40	-0.10375261
79	0x3e1f2612	0.15541866
80	0x3d9fa9b0	0.07796037
81	0xbc99d8c5	-0.018780122
82	0x3c288b17	0.010287068
83	0xbe89011a	-0.26758653
84	0x3bb31a2b	0.005465766
85	0xbe5db0b7	-0.21649443
86	0xbe77d5ed	-0.242027
87	0x3dc8ec24	0.09810665
88	0xbd468182	-0.048463352
89	0xbcc76bea	-0.02434345
90	0xbe9e9f64	-0.3098098
91	0xbf2e6d7d	-0.68135816
92	0xbf3c3d56	-0.7353109
93	0xbe75425a	-0.23951092
94	0xbdb759f3	-0.08952703
95	0x3b58cde1	0.0033081698
96	0xbeb0e0b8	-0.34546447
97	0xbf34c002	-0.7060548
98	0xbefcc298	-0.49367213
99	0x3df44dfe	0.11928938
100	0xbe9b15ff	-0.3029022
101	0xbdc4104d	-0.095734216
102	0x3db7e48d	0.089791395
103	0xbd15770d	-0.03649049
104	0xbe0ee2e4	-0.1395374
105	0xbebadcd9	-0.36496618
106	0xbe11a90c	-0.14224643
107	0x3e5fe270	0.21863723
108	0x3e89c6c3	0.26909456
109	0x3d86b641	0.06577731
110	0xbded3f27	-0.11584311
111	0x3caadd47	0.020857466
112	0x3e1a63c2	0.15077117
113	0x3e2fa017	0.17150913
114	0x3daea22f	0.08527028
115	0xbe43af67	-0.1910988
116	0x3e941176	0.28919572
117	0x3e7fc78b	0.24978463
118	0x3b0d60a1	0.0021572488
119	0x3b70fb7b	0.0036770988
120	0xbedf83fc	-0.43655384
121	0xbe82b04d	-0.25525132
122	0x3da979ae	0.08275162
123	0xbe666bd5	-0.22502072
124	0xbe8a171e	-0.26970762
125	0x3e603e8d	0.21898861
126	0x3d9fa0c9	0.07794339
127	0xbd275cf0	-0.040860116
128	0x3e51fff3	0.20507793
129	0x3de07ad0	0.109609246
130	0x3e6f2088	0.23352253
131	0xbe1677a4	-0.14694077
132	0xbf37d871	-0.7181464
133	0xbe44fd18	-0.19237173
134	0xbcfa6c10	-0.030569106
135	0x3e88844c	0.26663435
136	0xbe804ebf	-0.25060079
137	0xbfb761f2	-1.4326766
138	0xbf675b7d	-0.90373975
139	0xbe2f5f96	-0.17126307
140	0x3f168b49	0.5880628
141	0x3ea69907	0.32538626
142	0xbc595f15	-0.013267298
143	0xbedf8908	-0.43659234
144	0xbdad6156	-0.08465831
145	0x3f0c5912	0.5482341
146	0x3efb5543	0.49088487
147	0x3f260d7a	0.64864314
148	0x3ef06134	0.4694916
149	0x3d3bc57c	0.045842633
150	0x3e2f6d00	0.17131424
151	0x3edf9d34	0.43674624
152	0xbe755410	-0.23957849
153	0x3e4245f8	0.18972003
154	0x3e9a8ab3	0.30183944
155	0xbea60e93	-0.32432994
156	0x3e81183a	0.25213796
157	0xbe2305fd	-0.15920253
158	0x3d2ae746	0.041724466
159	0x3eb28727	0.34868738
160	0x3e67af1e	0.22625396
161	0x3d253bb1	0.04034013
162	0xbe43e797	-0.19131313
163	0xbf54ecba	-0.83173716
164	0x3ded041b	0.11573049
165	0x3d59c3e8	0.053165346
166	0x3eb891da	0.36048776
167	0x3f92bf3a	1.1464608
168	0xbd1dd883	-0.03853656
169	0xbe0b5b0e	-0.13608953
170	0xbd594770	-0.053046644
171	0xbe052f28	-0.1300627
172	0x3eb2fde6	0.34959334
173	0x3dcc0b8c	0.0996314
174	0x3dd61267	0.10452729
175	0x3d466ba2	0.04844249
176	0x3de71b5a	0.11284514
177	0xbe33c780	-0.17556572
178	0x3e0612a9	0.13093056
179	0xbd61218d	-0.054963637
180	0x3b2ed108	0.0026674885
181	0x3eac281f	0.3362436
182	0x3e01e6de	0.12685725
183	0x3ec81395	0.3907744
184	0x3e9f7f0f	0.31151626
185	0x3dc88086	0.09790139
186	0xbb782ed4	-0.0037869709
187	0xbebefe99	-0.37303618
188	0xbeb97610	-0.36222887
189	0x3ea3ef75	0.3201863
190	0x3e045601	0.12923433
191	0x3e05f6a8	0.13082373
192	0x3ee29587	0.44254705
193	0xbe103d7f	-0.14085959
194	0xbb8b51e9	-0.004251708
195	0x3dee221d	0.116276
196	0xbc09d8f4	-0.008413542
197	0x3df251bc	0.11831996
198	0x3d560440	0.052250147
199	0x3e13d43f	0.14436434
200	0xbe9a3b67	-0.30123445
201	0xbc97d3c7	-0.0185336
202	0xbf10dbf2	-0.5658561
203	0xbe87eaa1	-0.26546195
204	0xbed49070	-0.41516447
205	0xbefe38df	-0.49652764
206	0xbd71b79e	-0.059013
207	0xbe8bbc53	-0.27292117
208	0x3e2e61d1	0.17029501
209	0x3ded0a69	0.11574251
210	0xbeb9bb84	-0.36275876
211	0xbeb8bd0b	-0.36081728
212	0xbf5c7364	-0.8611357
213	0xbf4cf60a	-0.80062926
214	0x3da7e788	0.08198458
215	0xbe408d14	-0.18803817
216	0xbdb17450	-0.08664763
217	0x3cc36bc7	0.023855103
218	0xbf38883d	-0.72082883
219	0xbeb58709	-0.35454586
220	0xbe013ead	-0.12621565
221	0xbc9e3bcf	-0.019315628
222	0xbc46573c	-0.012105759
223	0xbe8e67e9	-0.27813652
224	0xbe73ced4	-0.23809367
225	0xbe2c6324	-0.16834694
226	0x3c4ac4d3	0.012376028
227	0x3eba2b3a	0.36361104
228	0x3e60f8e9	0.21969952
229	0x3dd80f6d	0.10549817
230	0x3db6c42e	0.08924137
231	0x3f0b7dde	0.54488933
232	0x3f04b882	0.51844037
233	0x3e918d43	0.28428087
234	0x3d78e255	0.060762722
235	0x3ed3a443	0.4133626
236	0x3ec0d990	0.37665987
237	0xbeb8f05f	-0.3612089
238	0xbeeaca08	-0.45857263
239	0x3bc79e04	0.006091835
240	0x3ea8101d	0.32824793
241	0xbe17ba3f	-0.14817141
242	0xbf00d46c	-0.5032413
243	0xbda94da7	-0.08266764
244	0x3e932cf3	0.2874523
245	0x3de43240	0.11142397
246	0xbe0ef115	-0.13959153
247	0xbe141626	-0.14461574
248	0x3d89f875	0.067368425
249	0x3d1347f8	0.035957307
250	0x3d8312b6	0.06400053
251	0xbc4d2bd1	-0.012522654
252	0x3e5c0dd4	0.2148965
253	0xbcf87405	-0.03032876
254	0xbe031cf2	-0.1280401
255	0xbbc405d9	-0.0059821424

input_block.0.bias f4 [8]
0	0x3e6db4af	0.23213457
1	0xbe3f8f9e	-0.1870713
2	0xbeed14bd	-0.46304885
3	0xbe847e37	-0.25877544
4	0xbe868334	-0.26271975
5	0x3e2a0c07	0.1660615
6	0x3ce4fde3	0.027953094
7	0xbf2797f3	-0.6546623

input_block.1.weight f4 [8]
0	0x3f78d6f5	0.97203
1	0x3fa1f8c5	1.2654043
2	0x3fa016a8	1.2506914
3	0x3f84db7c	1.0379481
4	0x3f93447a	1.1505272
5	0x3fdde463	1.7335323
6	0x3fa8f03d	1.3198315
7	0x3f8bd41c	1.0924106

input_block.1.bias f4 [8]
0	0x3f69bb6b	0.913016
1	0x3f177500	0.591629
2	0x3f72d23b	0.94852036
3	0x3eab7184	0.33485043
4	0x3f37be7d	0.7177504
5	0xbe4493c2	-0.1919699
6	0x3f8a1ba2	1.0789683
7	0x3e62c85a	0.2214674

input_block.1.running_mean f4 [8]
0	0x3dc8e992	0.09810175
1	0xc05fb87e	-3.4956355
2	0xc01ac651	-2.4183543
3	0xbffa377c	-1.9548182
4	0x3e9efdbf	0.31052968
5	0x40b2f879	5.592831
6	0xbec61b47	-0.38692686
7	0x3d1f9e89	0.03896955

input_block.1.running_var f4 [8]
0	0x3dfd7dc8	0.123775065
1	0x3ec37f33	0.38182983
2	0x3e0561eb	0.13025634
3	0x3e2a6aa0	0.16642237
4	0x3daef646	0.08543067
5	0x3f46cb1a	0.7765366
6	0x3c93c93c	0.018040292
7	0x3e5a4275	0.21314414

conv_block_1_1.0.weight f4 [8, 8, 3, 3]
0	0x3d9c778b	0.076399885
1	0x3d8f013d	0.06982658
2	0x3e3333f9	0.17500295
3	0x3da0d4d2	0.07853092
4	0xbd25bb74	-0.040461972
5	0x3d2aa2de	0.04165923
6	0x3d16a00e	0.036773734
7	0x3e59f736	0.2128571
8	0x3e00c74a	0.12576023
9	0xbe8ae95a	-0.27131158
10	0xbee18824	-0.4404918
11	0xbe80b11a	-0.25135118
12	0xbe85e71b	-0.26152882
13	0xbe89f608	-0.2694552
14	0xbea26dc7	-0.31724378
15	0xbe303566	-0.1720787
16	0xbec025b8	-0.37528777
17	0xbed14620	-0.40873814
18	0x3e24fddc	0.16112465
19	0x3d3847df	0.044990417
20	0x3bc56ebe	0.0060251644
21	0xbd8390c8	-0.06424099
22	0x3e2a54a7	0.16633855
23	0x3e58d49d	0.21174856
24	0x3e65c819	0.22439612
25	0x3f4d634c	0.8022964
26	0x3eedc1ee	0.4643702
27	0xbe4140bc	-0.1887235
28	0xbdb5a691	-0.08869661
29	0xbd6a2a60	-0.05716932
30	0xbe2cdd6d	-0.16881342
31	0x3e114b3e	0.14188859
32	0x3e72ca81	0.23710062
33	0xbdf0d1e8	-0.117587864
34	0x3eb9d948	0.36298585
35	0x3ebd69f2	0.36994892
36	0xbe6b31df	-0.22968243
37	0x3d8e7ba3	0.069571756
38	0xbe1d7f0d	-0.15380497
39	0xbeb79d62	-0.3586226
40	0x3d9ae73b	0.07563635
41	0xbe40b972	-0.18820742
42	0xbe7680d7	-0.24072586
43	0x3cde54be	0.027140018
44	0x3d8957c7	0.06706195
45	0xbe881322	-0.26577097
46	0xbd94bdc2	-0.07262756
47	0xbec22b3a	-0.37923604
48	0x3cfc0168	0.03076239
49	0xbd9cd620	-0.076580286
50	0xbea80223	-0.3281413
51	0xbe624f5a	-0.22100583
52	0xbe9fa1db	-0.31178173
53	0xbea787ca	-0.32720786
54	0x3e324a2d	0.17411108
55	0x3e86d223	0.26332197
56	0x3ecc0f9a	0.39855653
57	0x3ebfb572	0.3744312
58	0xbd9ae219	-0.07562656
59	0x3eaaf9a6	0.33393592
60	0x3ee9f7fa	0.45697004
61	0xbfdfa793	-1.7473015
62	0xbf3dc155	-0.74123126
63	0xbd6eb2d7	-0.058276024
64	0xbd18ac6b	-0.037273806
65	0xbbc7bf2b	-0.006095787
66	0xbe2161a1	-0.15759899
67	0x3b3a1353	0.0028392866
68	0xbd47e9e1	-0.04880703
69	0xbde9787c	-0.11399934
70	0xbeb7f4bf	-0.35928914
71	0xbebf0da0	-0.37315083
72	0x3ef05cc8	0.46945786
73	0x3dd7b561	0.10532642
74	0xbd943f92	-0.072386876
75	0x3e051f74	0.1300028
76	0xbe646db2	-0.2230747
77	0xbd707cc0	-0.05871272
78	0x3e1327e2	0.14370683
79	0x3dcce62a	0.10004838
80	0xbe26b943	-0.16281609
81	0x3cfea353	0.031083738
82	0xbe774136	-0.2414597
83	0xbd19faec	-0.037592813
84	0xbb9edc9d	-0.0048480765
85	0xbeab1ac6	-0.33418864
86	0xbb800923	-0.003907339
87	0xbe22b675	-0.15889914
88	0xbe6064d2	-0.2191346
89	0x3f2ffe4f	0.6874742
90	0x3defff61	0.117186315
91	0x3c165851	0.00917633
92	0xbdc3cf09	-0.09560973
93	0x3d8d93c3	0.06912949
94	0x3e15805f	0.14599751
95	0x3e3e9fbc	0.18615621
96	0xbea25160	-0.3170271
97	0x3db74b59	0.08949918
98	0x3f0eae9e	0.55735195
99	0xbda1f95e	-0.07908891
100	0xbe0cf7f7	-0.13766466
101	0xbe230490	-0.15919709
102	0xbc632c09	-0.013865479
103	0x3d8f107d	0.06985567
104	0x3d3fa429	0.046787415
105	0xbe51112f	-0.20416711
106	0x3d1fdb76	0.039027654
107	0x3e97be56	0.29637402
108	0x3ee38c65	0.4444305
109	0x3d594a5c	0.05304943
110	0x3e01d23e	0.12677857
111	0xbc3f1ccd	-0.0116645815
112	0xbe342d4a	-0.17595401
113	0xbe0aab86	-0.13541993
114	0x3e1844d2	0.14870003
115	0x3b9bc907	0.004754189
116	0xbdfbf75c	-0.123030394
117	0x3dd6e3f8	0.104927
118	0xbe999d9a	-0.30003053
119	0xbf1ff082	-0.6247636
120	0xbed51712	-0.41619164
121	0xbd930b52	-0.071798936
122	0x3defbf28	0.11706382
123	0xbf58ad2f	-0.8463926
124	0xbe5ffb4b	-0.21873204
125	0x3c5dc7be	0.013536392
126	0x3d681a3a	0.056665637
127	0x3df78790	0.12086403
128	0xbe995010	-0.29943895
129	0x3dc27c28	0.09496337
130	0xbe7f4c5e	-0.24931476
131	0xbbb3eca4	-0.0054908562
132	0xbeabf79a	-0.33587343
133	0xbdb503f9	-0.08838648
134	0x4005f6fd	2.0932
135	0xbd9d5865	-0.076828755
136	0xbe47a5b5	-0.19496806
137	0xbe0e5e06	-0.13903055
138	0xbe2c70cd	-0.16839905
139	0xbe99cd18	-0.30039287
140	0x3acd08cf	0.0015642884
141	0xbe7cedb6	-0.24700055
142	0xbb5a1834	-0.0033278586
143	0x3ebda409	0.3703921
144	0x3d509fd1	0.050933663
145	0x3dbcf265	0.092259206
146	0xbba2edf1	-0.0049722125
147	0xbd8fa029	-0.0701297
148	0xbd1714b4	-0.03688498
149	0x3dcd1094	0.10012928
150	0xbd173ef8	-0.036925286
151	0xbd807c98	-0.06273764
152	0xbdbdf182	-0.092745796
153	0x3c944de8	0.018103555
154	0x3db4edba	0.08834405
155	0xbdad1460	-0.08451152
156	0xbf49310b	-0.7859046
157	0x3e02835c	0.12745422
158	0x3ef26ef0	0.47350264
159	0xbd597bb7	-0.0530965
160	0x3e402ea5	0.18767793
161	0x3f299f29	0.66258484
162	0x3e560c60	0.20903158
163	0x3bfee361	0.0077785705
164	0xbdb0285b	-0.08601447
165	0x3f14dd86	0.5815052
166	0x3f054492	0.52057755
167	0x3cfd2cc7	0.03090514
168	0x3f1bd40b	0.60870427
169	0x3f17972e	0.59215057
170	0xbcda580b	-0.02665331
171	0xbe838ebb	-0.25694832
172	0xbe90cfe9	-0.28283623
173	0xbec70772	-0.38872868
174	0xbeba5974	-0.36396372
175	0xbf22ab0b	-0.6354224
176	0xbf0806c9	-0.53135353
177	0xbe809f5d	-0.25121585
178	0xbea7b9fc	-0.32759082
179	0xbed7541a	-0.42056352
180	0x3de11b96	0.1099159
181	0x3d30bc44	0.043148294
182	0xbd682468	-0.056675345
183	0x3e8ce04a	0.2751487
184	0x3acb0fc1	0.0015492366
185	0xbe457c3a	-0.1928567
186	0x3c72970f	0.014806523
187	0xbe6f4c82	-0.23369029
188	0xbe863149	-0.26209477
189	0x3e59fc00	0.21287537
190	0xbdf080ae	-0.11743294
191	0x3e82b452	0.25528198
192	0x3e2eb6ce	0.17061922
193	0xbe18863f	-0.14894961
194	0xbc9fe6a8	-0.019519165
195	0xbdc98794	-0.098403126
196	0xbedb8126	-0.4287197
197	0x3d643b19	0.055720422
198	0xbd0e9fd5	-0.034820396
199	0x3ed5e559	0.4177654
200	0x3d8709f2	0.06593694
201	0xbf8e181e	-1.110111
202	0xbe412803	-0.1886292
203	0x3dcfb1c4	0.10141328
204	0xbead3f9b	-0.3383759
205	0xbd4c0e1a	-0.049818136
206	0x3e2297e5	0.15878256
207	0xbda947c0	-0.08265638
208	0x3d776fca	0.060409345
209	0xbbe718e9	-0.00705253
210	0xbd865908	-0.0655995
211	0x3e6f80d2	0.23388985
212	0x3e199945	0.14999874
213	0x3e81649a	0.25272065
214	0x3e61f07b	0.22064392
215	0xbd999adb	-0.075002395
216	0x3b0752ef	0.0020648798
217	0x3f131f06	0.57469213
218	0x3e23375e	0.1593909
219	0xbd6c12fe	-0.0576353
220	0x3e827497	0.25479576
221	0x3b964abc	0.0045865458
222	0xbc90926e	-0.017647948
223	0xbe82f1a6	-0.25574988
224	0xbd556a88	-0.05210355
225	0xbe5b5ba5	-0.21421678
226	0xbf4328c8	-0.762341
227	0x3e1a627e	0.15076634
228	0xbd4a59b8	-0.04940197
229	0xbec024c7	-0.3752806
230	0xbc8e5b82	-0.017377619
231	0x3e6fe1eb	0.23426025
232	0x3f524516	0.82136667
233	0x3e141967	0.14462815
234	0xbe1a4705	-0.15066154
235	0x3e4aab56	0.19791922
236	0x3e25634f	0.16151164
237	0x3e6a981b	0.22909586
238	0xbf1ef982	-0.6209947
239	0xbf2c59c8	-0.67324495
240	0x3ea7ea38	0.32795882
241	0xbe0c6112	-0.13708904
242	0xbee1caa9	-0.4409993
243	0x3eef1d79	0.46702173
244	0x3d2afb39	0.04174349
245	0xbd980617	-0.074230365
246	0xbee48741	-0.4463444
247	0x3f07b4d3	0.5301029
248	0x3f697a72	0.9120246
249	0xbee6d9a5	-0.45087925
250	0x3e97eead	0.29674283
251	0x3e5b96c6	0.21444234
252	0x3e1e4fcd	0.15460129
253	0xbe0b7111	-0.1361735
254	0xbc05af33	-0.0081594465
255	0x3c6cacac	0.014445465

conv_block_1_1.0.bias f4 [8]
0	0xbdb19f3c	-0.0867295
1	0xbc39b762	-0.011335226
2	0x3d1a49f7	0.037668195
3	0xbdaa7267	-0.08322602
4	0x3e47cfbd	0.1951284
5	0xbda906c9	-0.08253247
6	0x3c725f04	0.014793161
7	0x3eceadd5	0.40366998

conv_block_1_1.1.weight f4 [8]
0	0x3f8e320d	1.1109024
1	0x3f981852	1.1882422
2	0x3f8e2cca	1.1107419
3	0x3f9bf600	1.2184448
4	0x3f332ff6	0.6999506
5	0x3f8d9799	1.1061889
6	0x3f4899f0	0.7835989
7	0x3f58defe	0.8471526

conv_block_1_1.1.bias f4 [8]
0	0xbea49433	-0.32144317
1	0xbdc48c29	-0.09597046
2	0xbedee6ff	-0.4353561
3	0xbf3d7118	-0.7400069
4	0x3e212991	0.15738513
5	0xbdfca701	-0.12336541
6	0x3e4df1ea	0.20111814
7	0x3e0b6aee	0.13615009

conv_block_1_1.1.running_mean f4 [8]
0	0xc07fb703	-3.9955451
1	0x3fd09bfd	1.6297604
2	0xbf82416a	-1.0176213
3	0xc0285904	-2.630433
4	0xc019392a	-2.394114
5	0xc0fd9d64	-7.9254627
6	0x3fa7ce2c	1.3109794
7	0x40a6db03	5.214235

conv_block_1_1.1.running_var f4 [8]
0	0x40fc6f4b	7.8885856
1	0x4195a3dc	18.70501
2	0x40ded734	6.96377
3	0x409ec3df	4.96141
4	0x40bf5213	5.978769
5	0x41b1856c	22.190147
6	0x4116c480	9.422974
7	0x40e56b79	7.169369

conv_block_1_2.0.weight f4 [8, 8, 3, 3]
0	0xbf0612e5	-0.5237258
1	0x3d3f3b81	0.046687607
2	0xbe5d8a7a	-0.21634856
3	0xbeb49f75	-0.35277906
4	0x3d869bcf	0.06572687
5	0x3d6e68fa	0.058205582
6	0xbe231562	-0.15926126
7	0x3dc46a87	0.09590631
8	0x3e2cd154	0.16876727
9	0xbe83c417	-0.25735542
10	0xbeb3fd4c	-0.35154188
11	0x3e57f92d	0.21091147
12	0xbf2a796c	-0.66591525
13	0xbf185cae	-0.5951642
14	0x3da0760b	0.07835015
15	0xbcff703f	-0.031181453
16	0x3dc35613	0.09537902
17	0x3e8d93df	0.2765188
18	0xbcb7ddcd	-0.02244463
19	0xbe89c9da	-0.26911813
20	0xbf111114	-0.56666684
21	0xbe8d5485	-0.27603546
22	0x3ddb4cba	0.10707994
23	0x3e9a2c9f	0.30112168
24	0x3e2102e6	0.15723762
25	0x3de3b215	0.11117951
26	0xbbb0794e	-0.0053855544
27	0xbed46588	-0.41483712
28	0xbf328888	-0.6973958
29	0xbdbcbf6e	-0.092162
30	0xbe2c8a9e	-0.16849753
31	0x3d8dca84	0.069233924
32	0x3e203afa	0.15647498
33	0x3b2450aa	0.0025072494
34	0x3f3f6305	0.74760467
35	0x3ec33e89	0.38133648
36	0x3f08fc24	0.53509736
37	0x3ea78d42	0.3272496
38	0xbcab436d	-0.020906175
39	0x3f225e9b	0.63425606
40	0x3f6d3459	0.92658
41	0x3eaa93be	0.33315843
42	0xbd964ee3	-0.07339265
43	0xbd35e72d	-0.04440992
44	0x3e82c692	0.25542122
45	0x3d807145	0.062716044
46	0x3e9a8543	0.30179796
47	0x3e7f922c	0.24958104
48	0xbe9792ce	-0.2960419
49	0x3e6d811c	0.23193783
50	0x3eb77aff	0.35836026
51	0xbea04437	-0.31302044
52	0x3ec5ccd1	0.38632825
53	0x3f09f94f	0.5389604
54	0x3cd4fa94	0.025998391
55	0x3e335a70	0.17514968
56	0x3cc04b9c	0.023473553
57	0xbd679d1e	-0.056546323
58	0x3e043f5a	0.12914792
59	0x3eef8c54	0.4678675
60	0xbe5d3063	-0.2160049
61	0xbd74efdd	-0.059799064
62	0x3e4a3f00	0.19750595
63	0xbd150a6f	-0.036386903
64	0x3e245609	0.16048445
65	0x3ea7a1b6	0.32740563
66	0x3da29f10	0.07940495
67	0xbe5e2c0b	-0.21696489
68	0xbe116d2f	-0.14201806
69	0x3e4d1ce6	0.20030555
70	0xbe84b54d	-0.25919572
71	0xbe8f9346	-0.28042048
72	0x3d10f09e	0.03538572
73	0x3f1480d0	0.5800905
74	0x3f18d636	0.5970186
75	0x3d2d75db	0.042348724
76	0x3c3c0cf4	0.011477698
77	0x3e644673	0.22292499
78	0xbd510ec5	-0.051039476
79	0xbf16735c	-0.58769774
80	0xbe0c1be4	-0.13682514
81	0x3f31dddf	0.69479173
82	0x3e17da66	0.14829406
83	0xbe494b25	-0.19657572
84	0x3ebb0fbb	0.3653544
85	0x3e071388	0.13191044
86	0xbdffdcd3	-0.12493291
87	0xbed6e6bf	-0.4197292
88	0xbdc747fd	-0.097305275
89	0x3e0dc045	0.13842876
90	0x3ed2fcdf	0.4120855
91	0x3ee832d8	0.4535129
92	0xbebba598	-0.36649776
93	0x3d6f128b	0.058367293
94	0xbdae0596	-0.08497159
95	0xbcf6703a	-0.03008281
96	0xbe48caa1	-0.19608547
97	0xbef4d245	-0.47816673
98	0xbcf16a92	-0.029469762
99	0xbd378019	-0.044799898
100	0x3e4361b1	0.19080235
101	0xbe1ba499	-0.15199508
102	0x3e78baae	0.24289963
103	0x3e464465	0.19362028
104	0xbf234219	-0.6377273
105	0x3d8f1637	0.06986659
106	0xbec3295e	-0.38117498
107	0xbe41123f	-0.18854617
108	0xbd8b0675	-0.06788341
109	0x3e0a79df	0.13523053
110	0xbe2e62f3	-0.17029934
111	0x3d6660c1	0.056244615
112	0xbd77632e	-0.06039732
113	0xbea61708	-0.32439446
114	0x3e8951b4	0.26820147
115	0x3c1837e9	0.009290674
116	0xbde57aa2	-0.11205031
117	0xbb7c5207	-0.003850104
118	0x3db46c8b	0.088097654
119	0x3e0bb541	0.13643362
120	0x3eab37af	0.3344092
121	0x3edc35e7	0.43009874
122	0x3f08353f	0.5320625
123	0x3ea67971	0.32514527
124	0x3ec130c2	0.37732512
125	0x3ed9364e	0.42424244
126	0xbf1ae636	-0.60507524
127	0x3e34869d	0.17629476
128	0xbeb278a3	-0.34857664
129	0xbe3445cf	-0.17604755
130	0x3ec44278	0.38331962
131	0xbf32b157	-0.6980185
132	0xbe6d02fc	-0.2314567
133	0x3e9d06b4	0.30669177
134	0xbda0c118	-0.0784933
135	0xbe6284cd	-0.22120972
136	0xbece573e	-0.40300936
137	0x3c7195b9	0.014745169
138	0xbebc93ce	-0.36831516
139	0xbeb5ae6b	-0.35484633
140	0xbd514ae7	-0.051096823
141	0x3e0cf9f7	0.13767229
142	0x3dc87cb1	0.09789408
143	0x3f25d50c	0.6477821
144	0xbeedef54	-0.46471655
145	0xbef56eeb	-0.47936186
146	0xbe38f57b	-0.18062393
147	0xbf49c49b	-0.7881562
148	0xbf193852	-0.5985156
149	0xbebeddad	-0.372785
150	0xbd4ee907	-0.0505152
151	0xbe295133	-0.16534881
152	0x3d5a1a16	0.053247534
153	0xbf2dd7cf	-0.6790742
154	0xbec3f7df	-0.38275048
155	0xbeac892c	-0.33698404
156	0xbf0127f2	-0.50451577
157	0xbe29caf6	-0.1658133
158	0xbe255026	-0.16143855
159	0xbe9a8342	-0.30178267
160	0xbe26b61b	-0.16280405
161	0x3a16dc6c	0.00057548913
162	0xbe5c1c09	-0.2149507
163	0xbe74634a	-0.23866001
164	0xbcdb9392	-0.026803765
165	0x3ccfba58	0.02535741
166	0xbe025e61	-0.12731315
167	0xbcf1e4d1	-0.029528053
168	0x3db2e0d7	0.08734291
169	0xbe9bec4b	-0.30453715
170	0xbf025844	-0.5091593
171	0xbeabc90e	-0.3355183
172	0x3d0819d5	0.03322776
173	0xbe8747b5	-0.26421896
174	0x3e02ef0a	0.12786499
175	0x3d25d626	0.04048743
176	0x3eb6617b	0.35621247
177	0x3ea3961d	0.31950465
178	0xbc11adf0	-0.008891568
179	0x3e3cc320	0.1843381
180	0xbe221080	-0.15826607
181	0x3dad15f5	0.084514536
182	0xbe93ce5e	-0.28868383
183	0x3ea06ed4	0.31334555
184	0x3f033de1	0.51266295
185	0xbd9237f3	-0.07139578
186	0xbb3e5411	-0.0029041807
187	0xbc30b4cd	-0.010785294
188	0xbf12bbe8	-0.5731797
189	0x3d593649	0.053030286
190	0xbe0efc68	-0.13963473
191	0xbebbf9d9	-0.36714056
192	0x3e9f136b	0.31069502
193	0xbeb4b2f0	-0.35292768
194	0xbf1c6f47	-0.61107296
195	0x3e3939f5	0.18088515
196	0xbe1ecc14	-0.15507537
197	0xbed68a10	-0.41902208
198	0xbd954f3b	-0.07290503
199	0x3dd6e864	0.10493544
200	0x3dbd64e0	0.09247756
201	0xbeb1b9fb	-0.34712204
202	0xbe6de8b8	-0.23233306
203	0xbd19ec53	-0.037578892
204	0xbddeb92c	-0.108751625
205	0xbeacb139	-0.3372896
206	0xbf16a273	-0.5884163
207	0xbbb6bd92	-0.0055767978
208	0x3df50098	0.11963004
209	0x3ec22f7e	0.3792686
210	0xbe824824	-0.25445664
211	0xbeed99ff	-0.46406552
212	0xbe11b8f5	-0.14230712
213	0xbe086734	-0.13320619
214	0xbf14670d	-0.57969743
215	0xbdec7088	-0.11544901
216	0x3ce61f54	0.02809111
217	0x3e7a7779	0.24459638
218	0xbe9af1e2	-0.30262667
219	0xbd80c06f	-0.06286704
220	0xbe8e0791	-0.27740148
221	0xbeabd0b0	-0.33557653
222	0x3d67ab8e	0.05656009
223	0x3e1a34a2	0.1505914
224	0xbc6c0b4d	-0.014406991
225	0x3eec6cc3	0.4617673
226	0x3edf1a2b	0.43574652
227	0xbeca9d31	-0.39573053
228	0x3e31e1c8	0.17371285
229	0x3ee77d14	0.45212615
230	0x3db05998	0.08610839
231	0xbe48d29a	-0.19611588
232	0xbd680f7b	-0.05665539
233	0xbe3a62e9	-0.18201794
234	0x3df03b03	0.117300056
235	0x3e758ee3	0.23980288
236	0xbc309253	-0.010777074
237	0x3b7663ba	0.0037596063
238	0x3e60322a	0.21894136
239	0xbebe7a59	-0.3720272
240	0xbec353f9	-0.38150004
241	0xbd5f0692	-0.054449625
242	0x3dc9be3b	0.09850737
243	0xbef6a560	-0.48173046
244	0x3f011590	0.50423527
245	0x3e902b1d	0.28157893
246	0xbe8f311d	-0.27967158
247	0x3cf0e7a2	0.029407326
248	0xbe2c699d	-0.16837163
249	0xbeb168b9	-0.3465021
250	0xbf01615f	-0.505392
251	0xbf501b76	-0.812919
252	0xbea3660d	-0.31913796
253	0xbe859500	-0.2609024
254	0x3e85cb40	0.2613163
255	0xbe0ac53b	-0.135518

conv_block_1_2.0.bias f4 [8]
0	0xbd278ce6	-0.040905856
1	0x3e414a77	0.18876062
2	0x3e822016	0.25415105
3	0xbe9cbb88	-0.30611825
4	0x3e31087e	0.17288396
5	0xbdc9d89a	-0.098557666
6	0x3e9c3102	0.3050614
7	0xbc45ce0d	-0.012073052

conv_block_1_2.1.weight f4 [8]
0	0x3f5e35fa	0.8680111
1	0x3f894ed6	1.0727184
2	0x3faa6a1b	1.3313631
3	0x3fd29772	1.6452467
4	0x3f6220a0	0.8833103
5	0x3f86caf2	1.0530684
6	0x3fa0b913	1.255648
7	0x3f9878f8	1.1911917

conv_block_1_2.1.bias f4 [8]
0	0x3f7e9c68	0.99457407
1	0xbec3ff0c	-0.38280523
2	0xbe24afdf	-0.16082714
3	0xbf59b50c	-0.8504188
4	0x3ec5246e	0.38504356
5	0xbe38517b	-0.17999832
6	0xbf438769	-0.76378495
7	0xbe46eda1	-0.19426586

conv_block_1_2.1.running_mean f4 [8]
0	0x3f3eeff2	0.7458488
1	0x3f241145	0.6408885
2	0xc054e9c9	-3.326769
3	0xbf3f49c3	-0.74721926
4	0xbdd91a00	-0.10600662
5	0xbf0e9d16	-0.55708444
6	0x3f5e4742	0.8682748
7	0x3ec347e1	0.38140777

conv_block_1_2.1.running_var f4 [8]
0	0x402ed632	2.7318234
1	0x401b379d	2.4252694
2	0x40490739	3.1410658
3	0x40335cd4	2.8025408
4	0x4001eeed	2.0302079
5	0x40570481	3.35965
6	0x406ef4b6	3.733686
7	0x40636587	3.5530717

conv_block_2_1.0.weight f4 [16, 8, 3, 3]
0	0x3dcb5cbf	0.09929799
1	0xbbad0719	-0.005280387
2	0xbde87ecf	-0.11352312
3	0x3e3d5c9b	0.18492357
4	0x3d7940d1	0.06085283
5	0xbe39829a	-0.18116227
6	0xbe240558	-0.16017663
7	0xbd4e63ca	-0.050388135
8	0xbe1b04f5	-0.1513861
9	0xbdb770d3	-0.089570664
10	0xbd75ea7c	-0.060038075
11	0x3b0c5485	0.0021412682
12	0xbdc382fd	-0.095464684
13	0xbe384225	-0.17993982
14	0xbdc42ba2	-0.09578635
15	0x3e22484a	0.15847889
16	0xbc062b1b	-0.008188988
17	0xbda1566a	-0.0787781
18	0xbe534940	-0.20633411
19	0xbda90e04	-0.082546264
20	0xbd1bc4fa	-0.03802965
21	0x3d9024f8	0.07038301
22	0x3ea8ef74	0.32995188
23	0x3e51ff99	0.20507659
24	0x3e5c45d9	0.2151102
25	0x3f116b35	0.5680421
26	0x3f141358	0.57842016
27	0xbb32f151	-0.002730448
28	0x3d9871e5	0.07443599
29	0x3e1658ad	0.14682265
30	0xbd2a2b6e	-0.041545324
31	0xbd3779db	-0.044793945
32	0x3db2a5b4	0.087230116
33	0xbd0b3ea0	-0.03399527
34	0x3ddec5eb	0.108775936
35	0x3d92e81b	0.07173177
36	0x3e826e33	0.254747
37	0x3eb2d80c	0.34930456
38	0x3e7b00de	0.2451205
39	0x3e26a708	0.16274655
40	0x3da2ee67	0.07955628
41	0x3e21caf4	0.15800077
42	0x3e858073	0.2607456
43	0x3ebe600a	0.37182647
44	0x3da23763	0.079207204
45	0xbd127586	-0.03575661
46	0xbf109442	-0.56476223
47	0xbf00914a	-0.50221694
48	0xbdd8d8e8	-0.105882466
49	0xbf877f91	-1.0585805
50	0xbf35e656	-0.7105459
51	0xbf1291fb	-0.57254
52	0xbf979834	-1.1843324
53	0xbf5e7705	-0.8690036
54	0xbe398227	-0.18116055
55	0xbe69d182	-0.22833827
56	0x3b5e5cef	0.0033929904
57	0xbecf7f37	-0.40526745
58	0xbeb493c9	-0.35269
59	0xbd982c4a	-0.074303225
60	0xbf18ba86	-0.5965961
61	0xbf03c58c	-0.5147331
62	0x3b2314e0	0.0024884269
63	0xbdea797c	-0.114489526
64	0x3e000ce6	0.1250492
65	0x3e26d795	0.16293176
66	0x3e188992	0.14896229
67	0x3ec85ee3	0.39134893
68	0x3ee4a271	0.44655183
69	0xbdff99ba	-0.12480493
70	0x3ed9fe48	0.42576814
71	0x3f31167f	0.6917495
72	0xbe9ae79e	-0.30254835
73	0xbe3b5e2a	-0.1829764
74	0x3e8ee7ee	0.27911323
75	0xbe84931e	-0.25893492
76	0x3e802c87	0.25033972
77	0x3c15a2b5	0.009133031
78	0xbeb6e127	-0.35718653
79	0x3c3c51d0	0.011494115
80	0x3da22bba	0.079184964
81	0x3e7a74fa	0.24458686
82	0x3e8739da	0.26411325
83	0x3d692823	0.056923043
84	0xbe2d7e5a	-0.1694273
85	0xbd7b9d28	-0.061429173
86	0x3ecfca82	0.4058419
87	0xbe8f1867	-0.27948305
88	0xbdff89f1	-0.12477482
89	0xbdd84e43	-0.10561802
90	0xbe24dadf	-0.16099118
91	0xbe7468d1	-0.2386811
92	0xbeda1a92	-0.42598397
93	0xbd37495b	-0.04474769
94	0xbd6f462a	-0.058416523
95	0xbebac323	-0.36477003
96	0x3f0c1e2f	0.54733557
97	0x3ee1def9	0.44115427
98	0x3ee31add	0.44356433
99	0xbb0c087e	-0.0021367366
100	0xbd9e3651	-0.07725204
101	0xbddd73de	-0.108131155
102	0x3db95317	0.09049051
103	0x3e801667	0.25017092
104	0x3eccfee8	0.40038228
105	0x3e5f76ee	0.21822712
106	0x3f0ef2cf	0.55839247
107	0x3e4cc611	0.19997431
108	0x3e696503	0.22792439
109	0x3f06317d	0.52419263
110	0x3cd38743	0.025821334
111	0x3f51ed31	0.8200255
112	0x3f874d63	1.0570492
113	0x3e2cc095	0.16870339
114	0x3ebd7ad5	0.37007776
115	0x3eeecbef	0.46639964
116	0xbf07cc32	-0.5304595
117	0xbe710fc6	-0.23541173
118	0xbe54c601	-0.20778657
119	0xbf22821a	-0.6347977
120	0x3ed63e0e	0.4184422
121	0x3e5d08fb	0.21585457
122	0xbe5d048b	-0.21583764
123	0x3ea1bbb1	0.3158851
124	0x3c77016c	0.015076023
125	0xbe3d7fd4	-0.18505794
126	0x3e15ceda	0.14629689
127	0x3daa2b36	0.08309023
128	0x3ce8569a	0.028361607
129	0xbcf98329	-0.03045805
130	0xbe1a9790	-0.15096879
131	0xbe111d70	-0.14171386
132	0x3d08c529	0.03339115
133	0xbda36159	-0.07977552
134	0x3e2bbdd8	0.16771638
135	0x3e888e24	0.26670945
136	0x3e2e1dee	0.17003605
137	0x3e769a29	0.24082245
138	0x3eaaeaa6	0.33382148
139	0x3cb1164c	0.021617077
140	0xbe01865e	-0.12648913
141	0xbea8570f	-0.3287892
142	0xbecf017e	-0.40430826
143	0xbeef676a	-0.46758586
144	0x3dc453e3	0.095863126
145	0xbd860a9a	-0.06544991
146	0xbe4e2f51	-0.20135237
147	0x3d9d210b	0.07672318
148	0x3e975924	0.29560196
149	0x3eb8ae0a	0.3607028
150	0x3c1eadab	0.00968496
151	0x3e2823b7	0.16419874
152	0x3ed329aa	0.41242725
153	0x3ec8e41d	0.39236537
154	0xbdf4d594	-0.11954799
155	0x3d7fb012	0.062423773
156	0x3e04af64	0.12957531
157	0xbe1828c9	-0.14859308
158	0xbe8eca6c	-0.2788881
159	0xbe0b42f1	-0.13599755
160	0xbe0d98d7	-0.13827835
161	0xbe322597	-0.17397152
162	0xbe662df9	-0.22478475
163	0x3e4c6b69	0.19962849
164	0x3ea40da4	0.32041657
165	0xbe5fd759	-0.21859492
166	0x3e63997d	0.2222652
167	0x3e9dc750	0.30816126
168	0xbdbc86f4	-0.09205428
169	0x3de1a9b2	0.11018695
170	0x3e66e961	0.22549964
171	0xbf0ece2b	-0.5578334
172	0xbf19bcb6	-0.60053575
173	0xbd97b649	-0.07407815
174	0xbe84a737	-0.25908825
175	0xbf0263d3	-0.5093357
176	0xbf20d33b	-0.6282231
177	0xbf0d3424	-0.55157685
178	0xbf6d44f7	-0.92683357
179	0xbf1eb48a	-0.6199423
180	0xbd2281ef	-0.039674696
181	0xbd28bb3d	-0.04119419
182	0x3e67f5ee	0.22652408
183	0x3e235658	0.15950906
184	0xbeeeafbd	-0.46618453
185	0xbf20b4b2	-0.6277572
186	0x3d3ac683	0.04559947
187	0xbf27171b	-0.6526963
188	0xbf4bf7c6	-0.7967495
189	0x3dfb576f	0.12272536
190	0x3dfbd2b1	0.122960456
191	0x3e3adffe	0.18249509
192	0x3e8389c2	0.25691038
193	0x3e19abf4	0.15007001
194	0x3e1a1d4f	0.15050243
195	0x3ec54ba7	0.3853428
196	0x3e9ee59d	0.31034556
197	0x3d93138c	0.07181463
198	0xbdc9194f	-0.0981928
199	0xbcb6c7e3	-0.02231211
200	0x3e370dc8	0.17876351
201	0x3d866ddf	0.06563925
202	0x3e428d7e	0.18999287
203	0x3f0a7346	0.54082143
204	0xbc4964d7	-0.0122921085
205	0x3e795818	0.24350011
206	0x3efadb2f	0.4899535
207	0xbd1d7517	-0.038441744
208	0xbe286520	-0.16444826
209	0xbecf7d06	-0.40525073
210	0x3da2d1c0	0.07950163
211	0x3e0312ad	0.12800093
212	0x3d0b99d7	0.03408226
213	0xbd1bcb83	-0.03803588
214	0x3ee7b62c	0.45256174
215	0x3e5570f2	0.20843866
216	0x3e89a42f	0.26883075
217	0xbf0c6259	-0.54837567
218	0xbf28cfff	-0.65942377
219	0xbe155d03	-0.14586262
220	0xbf4f4b8c	-0.8097465
221	0xbf2dd65c	-0.6790521
222	0xbdba9705	-0.09110836
223	0xbe96cca1	-0.29452994
224	0xbe8ab7ce	-0.27093357
225	0x3e257aec	0.16160172
226	0x3e358250	0.17725492
227	0x3dee00b1	0.116212256
228	0x3d01d8e0	0.03170097
229	0xbe29651d	-0.16542478
230	0xbe706294	-0.23475105
231	0x3dd48540	0.10376978
232	0xbe8ab13a	-0.27088338
233	0xbeba529c	-0.3639115
234	0xbd528d5a	-0.051404335
235	0x3e3e808c	0.18603724
236	0x3e54939c	0.20759434
237	0xbe15849d	-0.14601369
238	0x3e8ec6fd	0.2788619
239	0x3e11e82e	0.14248726
240	0xbdd94324	-0.10608509
241	0x3d7a9eaa	0.06118647
242	0xbbff3c64	-0.0077891815
243	0x3e54999a	0.2076172
244	0x3d334800	0.043769836
245	0xbdf2dee4	-0.11858919
246	0x3df24294	0.11829105
247	0x3ca71c4b	0.020399233
248	0xbda0d8f6	-0.07853882
249	0xbd82afe5	-0.063812055
250	0xbe90b594	-0.28263533
251	0xbd10ba39	-0.035333846
252	0x3d42ff3a	0.047606684
253	0xbea58e90	-0.3233533
254	0x39b3f869	0.0003432662
255	0x3cfe2ff2	0.031028721

conv_block_2_1.0.bias f4 [16]
0	0x3d73d84e	0.059532456
1	0x3e1885a3	0.14894728
2	0x3c7a1301	0.01526332
3	0xbd131d9a	-0.035916902
4	0xbdb21b29	-0.08696587
5	0x3dfb096f	0.12257659
6	0xbd8f3062	-0.0699165
7	0xbe1ca57c	-0.15297502
8	0x3e4b4073	0.19848804
9	0xbc088546	-0.008332556
10	0x3c407d9c	0.011748698
11	0xbdae4961	-0.0851009
12	0xbc9ff60f	-0.01952651
13	0x3e0c38a7	0.13693486
14	0xbdb0a6d6	-0.086255714
15	0x3d94ca1f	0.07265114

conv_block_2_1.1.weight f4 [16]
0	0x3f74d0b0	0.9563093
1	0x3f75d154	0.96022534
2	0x3f7b3c7b	0.9813916
3	0x3f660788	0.8985524
4	0x3f63cd68	0.889853
5	0x3f5d6231	0.86477953
6	0x3f9200ab	1.1406454
7	0x3f9085e7	1.1290864
8	0x3f7b8ffb	0.9826657
9	0x3f755e1a	0.9584671
10	0x3f74ac6e	0.95575607
11	0x3f8dfb1e	1.109226
12	0x3f7358cd	0.95057374
13	0x3f903ff3	1.1269516
14	0x3f3e1a6f	0.74259084
15	0x3f543af4	0.82902455

conv_block_2_1.1.bias f4 [16]
0	0xbdd89103	-0.10574534
1	0xbf4ae9eb	-0.7926318
2	0xbdb75f15	-0.08953682
3	0xbe64745d	-0.22310014
4	0xbea8db16	-0.3297965
5	0xbe7916a4	-0.24325043
6	0xbf367771	-0.71276003
7	0xbe8c45d5	-0.27397028
8	0xbf60a7c4	-0.8775599
9	0xbee45d29	-0.44602326
10	0xbedaefac	-0.4276098
11	0xbf016ae3	-0.5055372
12	0xbedf3156	-0.43592328
13	0xbed09bb9	-0.40743807
14	0xbddc3337	-0.10751956
15	0xbea5a457	-0.32351944

conv_block_2_1.1.running_mean f4 [16]
0	0xbee67430	-0.4501052
1	0x40c11f44	6.0350666
2	0xbf0f5231	-0.5598479
3	0xc1243608	-10.263191
4	0x40849ec3	4.14438
5	0xc08edd83	-4.46454
6	0xc0efb543	-7.4908767
7	0xc1864db8	-16.787949
8	0x406ac8af	3.6684988
9	0xc16760e4	-14.461155
10	0xc012cc34	-2.2937136
11	0xc037fcbd	-2.874801
12	0xc0802302	-4.0042734
13	0x413bafbf	11.730407
14	0xc122fbea	-10.186502
15	0x40a05dd8	5.0114555

conv_block_2_1.1.running_var f4 [16]
0	0x41bac051	23.343904
1	0x41854903	16.66065
2	0x41cac154	25.344398
3	0x418b3722	17.40192
4	0x41b9258e	23.143337
5	0x41b38821	22.44147
6	0x41710788	15.064339
7	0x41b6c191	22.844515
8	0x41d94425	27.158274
9	0x4180b644	16.088997
10	0x41b8f5ad	23.119959
11	0x41a66666	20.8
12	0x416503ed	14.313458
13	0x41cb1ee6	25.390087
14	0x419f2a9f	19.895811
15	0x4184e4c4	16.611702

conv_block_2_2.0.weight f4 [16, 16, 3, 3]
0	0x3e319649	0.17342485
1	0x3e07b164	0.13251263
2	0xbe152971	-0.1456659
3	0x3e4a2b00	0.19742966
4	0x3ef62165	0.48072353
5	0x3e3b1de1	0.18273117
6	0xbd91fac4	-0.07127908
7	0x3d5a2774	0.05326028
8	0xbe371ffc	-0.17883295
9	0xbea0c95f	-0.31403634
10	0x3db89968	0.09013635
11	0xbe9db64b	-0.3080314
12	0xbf181dcb	-0.5942046
13	0x3eb12f27	0.34606287
14	0x3ed6c849	0.4194968
15	0xbe8cb9df	-0.27485558
16	0xbd006340	-0.031344652
17	0xbe0a34ef	-0.13496755
18	0x3e314449	0.17311205
19	0x3eb0e665	0.34550777
20	0xbd060a9e	-0.03272497
21	0x3ed2b775	0.41155592
22	0x3f3b61f9	0.7319637
23	0x3da5ad82	0.080897346
24	0x3dfc4c9a	0.12319298
25	0x3ec7fe09	0.39061
26	0xbe34f443	-0.17671303
27	0x3d19710d	0.03746133
28	0xbc777065	-0.015102481
29	0x3e8026e3	0.25029668
30	0xbf2caded	-0.6745289
31	0xbf4ab0e2	-0.7917615
32	0xbe8f3865	-0.27972713
33	0x3dce4c43	0.100731395
34	0xbefd4d08	-0.49472833
35	0xbdcb5ecb	-0.0993019
36	0xbddcfdd7	-0.107906036
37	0x3cd500b0	0.026001304
38	0x3caeecaf	0.021353094
39	0x3dba08c2	0.09083702
40	0x3e3fece3	0.18742709
41	0x3ea67907	0.32514212
42	0xbdeebf23	-0.1165755
43	0x3eb4d280	0.3531685
44	0x3ec7218d	0.38892785
45	0x3d9017a9	0.07035763
46	0x3e6b46b2	0.22976187
47	0x3e18fd40	0.14940357
48	0xbd03a6ae	-0.03214138
49	0xbe12a411	-0.14320399
50	0x3d12530e	0.03572374
51	0x3db32d4d	0.08748875
52	0xbe2cb904	-0.16867453
53	0xbe77dd58	-0.2420553
54	0x3e00d754	0.12582141
55	0x3e62c3c5	0.22144993
56	0x3d662e89	0.056196723
57	0x3e287318	0.16450155
58	0x3ea4cf41	0.32189372
59	0x3e9b6afe	0.30355066
60	0xbe7bfadc	-0.24607414
61	0x3e9d7e92	0.30760628
62	0x3dcc7f38	0.099852026
63	0x3d462688	0.04837659
64	0x3e86b551	0.26310208
65	0x3d664c2d	0.05622499
66	0xbc0b411b	-0.008499409
67	0x3efd0a25	0.49421802
68	0x3bf606a6	0.007508117
69	0x3d47161a	0.048605062
70	0x3dc2a89f	0.09504818
71	0xbe40d1ef	-0.18830083
72	0x3e9fc90f	0.31208083
73	0x3f07ca5f	0.5304317
74	0x3db1709e	0.08664058
75	0x3f68de82	0.9096452
76	0x3f57357a	0.84065974
77	0x3f1bcbbb	0.60857743
78	0x3ed5f7ff	0.41790769
79	0x3f50665b	0.8140618
80	0x3df7d1c0	0.121005535
81	0xbe410fc9	-0.18853678
82	0xbdaa83e1	-0.08325935
83	0xbef79855	-0.48358408
84	0x3e1452d1	0.14484717
85	0x3ec9a086	0.39380282
86	0x3e92d94f	0.28681418
87	0xbbec770a	-0.007216339
88	0xbe3f747f	-0.18696783
89	0x3e0c2f60	0.13689947
90	0x3de98753	0.11402764
91	0x3d9ca174	0.07647982
92	0xbe5eebc6	-0.21769628
93	0xbe0c0c2d	-0.1367652
94	0xbdaa5521	-0.08317018
95	0xbeeb0f76	-0.45910233
96	0xbeb291d9	-0.34876898
97	0xbe11b446	-0.14228925
98	0xbf54f405	-0.83184844
99	0xbe02c5bc	-0.12770742
100	0xbdb19276	-0.08670513
101	0xbf02151a	-0.5081345
102	0x3e1506bc	0.1455335
103	0x3f0d775c	0.5526025
104	0x3d42b1a2	0.047532685
105	0x3df7ed29	0.121057816
106	0x3e8221a5	0.25416294
107	0xbe39bc7e	-0.1813831
108	0x3eb41942	0.3517552
109	0x3ef94eef	0.48693034
110	0x3e8756b4	0.26433337
111	0x3eca372e	0.39495224
112	0x3f256d3a	0.6461979
113	0x3e9cb0b9	0.3060358
114	0x3e1bb2c7	0.15204917
115	0x3f11adba	0.5690571
116	0x3dd4c2d8	0.10388726
117	0xbe2ffaa2	-0.17185453
118	0xbf0971ac	-0.53689075
119	0xbd44e8cf	-0.048073586
120	0xbec10568	-0.37699437
121	0xbf52e142	-0.82374966
122	0xbe627c3f	-0.22117709
123	0x3d95fbb2	0.07323398
124	0xbe5f1cfd	-0.21788402
125	0x3e118ff2	0.14215067
126	0xbee00ac0	-0.43758202
127	0xbed243f1	-0.4106746
128	0xbe06278c	-0.13101023
129	0xbe642d2e	-0.2228286
130	0xbf1094a2	-0.56476796
131	0xbdda7c71	-0.106682666
132	0xbe2951b5	-0.16535075
133	0xbdcd4edc	-0.10024807
134	0xbdd84537	-0.10560077
135	0x3d888ae9	0.0666712
136	0x3d03e5fc	0.032201752
137	0xbddc5fac	-0.107604355
138	0x3d16c9ad	0.036813427
139	0xbe0adf21	-0.1356168
140	0xbd6d2bcc	-0.057903096
141	0x3e7d3bd3	0.24729852
142	0xbe9b1a70	-0.30293608
143	0xbe096df4	-0.1342085
144	0x3e2f7335	0.17133792
145	0xbd84d8c5	-0.06486658
146	0xbea16d66	-0.31528777
147	0xbd6ce13a	-0.05783198
148	0xbee0f3f6	-0.43936127
149	0xbe898357	-0.26858017
150	0x3e19aca4	0.15007263
151	0x3e6e0f38	0.23247993
152	0x3d886896	0.06660573
153	0xbd9c9b13	-0.076467656
154	0xbefc91bc	-0.49329937
155	0x3d708362	0.058719046
156	0xbdd96493	-0.10614886
157	0xbf2ee9a4	-0.6832526
158	0xbe396b48	-0.18107331
159	0x3e1424c0	0.14467144
160	0xbe4f5ff5	-0.20251448
161	0xbc7bb9d3	-0.015364128
162	0xbd8b4c9f	-0.06801724
163	0xbe0ff914	-0.1405986
164	0xbf02c444	-0.5108073
165	0xbe123165	-0.14276655
166	0xbd56a2d1	-0.052401368
167	0xbe8ba326	-0.2727291
168	0xbe026f37	-0.12737738
169	0xbe852e28	-0.26011777
170	0xbebf7668	-0.37395024
171	0xbe2df14f	-0.16986583
172	0x3e8a18ac	0.26971948
173	0x3e37c4e7	0.17946206
174	0x3dee4e56	0.11636035
175	0xbc602056	-0.0136795845
176	0xbe545724	-0.20736367
177	0x3e820022	0.25390726
178	0x3e761f24	0.24035317
179	0xbdf979ce	-0.121814355
180	0x3d9eb495	0.07749287
181	0xbebc40f2	-0.367683
182	0x3bac3c7a	0.005256233
183	0xbd78af99	-0.060714338
184	0xbdd8c1ce	-0.1058384
185	0xbe719818	-0.23593175
186	0x3d39419d	0.04522859
187	0xbe9b4e9e	-0.30333418
188	0xbed2df99	-0.41186216
189	0xbe6126c6	-0.21987447
190	0xbe97b5bc	-0.2963084
191	0x3d55078c	0.05200915
192	0xbd49dff4	-0.049285844
193	0xbd333f4d	-0.04376154
194	0x3d387b4f	0.04503947
195	0xbec11007	-0.3770754
196	0xbea482b5	-0.32130972
197	0xbd405ef9	-0.046965573
198	0x3e3a5ae9	0.18198742
199	0x3df24989	0.11830432
200	0x3e911929	0.28339508
201	0x3f035fac	0.5131786
202	0x3da20d02	0.07912637
203	0xbdd226f4	-0.10261336
204	0x3e8a5150	0.27015162
205	0x3e094bf0	0.13407874
206	0x3eb4c0b9	0.35303286
207	0xbf1c276f	-0.6099767
208	0xbd500b1d	-0.05079185
209	0x3f3cf8d0	0.7381716
210	0xbe5eced8	-0.21758592
211	0xbd811126	-0.06302099
212	0x3ebc1041	0.3673115
213	0x3e5f3ff4	0.2180174
214	0x3f31e8be	0.6949576
215	0x3f748c37	0.9552645
216	0x3f0dfcd6	0.5546392
217	0x3e5096c7	0.20370017
218	0x3de1bb77	0.11022084
219	0x3ec3543b	0.381502
220	0xbe6dc3cc	-0.23219222
221	0xbea77b47	-0.3271124
222	0xbd8560f4	-0.06512633
223	0xbf591026	-0.84790266
224	0xbeacd1db	-0.33753857
225	0x3e12d9fa	0.14340964
226	0xbea247ae	-0.31695312
227	0xbca87802	-0.020565037
228	0x3e168ae7	0.14701425
229	0xbf03a650	-0.5142565
230	0xbe5f5ae1	-0.21812011
231	0x3b2dc069	0.002651239
232	0xbea43eb4	-0.3207909
233	0xbd960c5e	-0.073265776
234	0x3daf1f9c	0.08550951
235	0x3ea866dd	0.32890978
236	0x3d090a5f	0.033457156
237	0x3e3b7efb	0.18310158
238	0x3eb2b4d5	0.3490359
239	0x3e9527e9	0.29132012
240	0x3e1de5f3	0.1541975
241	0xbd84e518	-0.06489009
242	0x3ea338d7	0.31879303
243	0x3de9fb0a	0.11424835
244	0x3ebeaf32	0.37243038
245	0x3dcc0dd1	0.09963573
246	0x3e31131c	0.17292446
247	0xbd31d889	-0.043419395
248	0x3e5ea48f	0.21742462
249	0xbe11d30a	-0.14240661
250	0xbf18b253	-0.596471
251	0x3d98191c	0.07426664
252	0x3e8bc7b6	0.27300805
253	0x3e4f7950	0.20261121
254	0x3d986bba	0.07442422
255	0x3e3a5adc	0.18198723

conv_block_2_2.0.bias f4 [16]
0	0x3e1981eb	0.14990966
1	0xbe19f5e0	-0.150352
2	0x3dda9e08	0.10674673
3	0x3cb8099c	0.02246552
4	0x3e7ce029	0.24694885
5	0xbe0c06af	-0.13674425
6	0x3cb50edd	0.022101814
7	0x3df11d58	0.11773175
8	0xbc8282c1	-0.015931489
9	0xbd6b29d2	-0.05741293
10	0x3d0fd05c	0.035110816
11	0xbe66daec	-0.2254445
12	0x3e87c1a3	0.2651492
13	0x3c927ac5	0.017880807
14	0x3e3e0c8b	0.18559472
15	0xbe25bfbf	-0.16186427

conv_block_2_2.1.weight f4 [16]
0	0x406ee49b	3.732703
1	0x406fd352	3.747273
2	0x407d8acb	3.9615963
3	0x403c0cef	2.9382894
4	0x40697a8f	3.6481054
5	0x406ff9f1	3.7496302
6	0x4078c7c2	3.8871922
7	0x408387ad	4.110312
8	0x4081ecf9	4.0601773
9	0x40520f9f	3.2822034
10	0x406907da	3.6411042
11	0x407c0f88	3.938448
12	0x40905c11	4.5112386
13	0x40759643	3.8372962
14	0x4081519e	4.041213
15	0x40613529	3.5188696

conv_block_2_2.1.bias f4 [16]
0	0x3e6922f3	0.22767238
1	0x3edba140	0.4289646
2	0xbe2f2058	-0.17102182
3	0x3e3c0538	0.18361366
4	0x3e7d73ee	0.24751255
5	0x3da582d4	0.08081594
6	0x3f6e0988	0.92983294
7	0xbe6f8044	-0.23388773
8	0x3ead6bdf	0.33871362
9	0x3e80e2c9	0.25173023
10	0xbdf01405	-0.117225684
11	0x3d8bb789	0.06822116
12	0x3f07c8f5	0.5304101
13	0x3c7aa07e	0.015297053
14	0x3e16b8c7	0.14718924
15	0xbf041c23	-0.51605433

conv_block_2_2.1.running_mean f4 [16]
0	0x3f1f35bf	0.62191385
1	0xbe299e42	-0.16564277
2	0xbb70f3a1	-0.0036766308
3	0xc0082597	-2.1272943
4	0xbfef1c2b	-1.8680471
5	0xbf88d972	-1.0691359
6	0x3f16dbbe	0.5892905
7	0xc04b93d8	-3.1808987
8	0x3f0cd93d	0.5501898
9	0xbf503f5c	-0.8134668
10	0x3e362fd7	0.17791687
11	0x3f5251aa	0.8215586
12	0xbfc60a3a	-1.5471871
13	0xc0201ac3	-2.5016334
14	0xbfcf19c2	-1.6179736
15	0xbf6f6c4b	-0.93524617

conv_block_2_2.1.running_var f4 [16]
0	0x400ee06d	2.2324479
1	0x4001877d	2.0238945
2	0x40435b75	3.052457
3	0x403050c2	2.754929
4	0x402f4446	2.738542
5	0x400b4d49	2.176592
6	0x4059ebe3	3.4050224
7	0x402f59c6	2.7398543
8	0x40183bcc	2.3786497
9	0x402c9ea4	2.6971827
10	0x4031484a	2.7700372
11	0x4040ebe9	3.0143988
12	0x4038b15a	2.8858247
13	0x402b53dd	2.6769936
14	0x3ff70dba	1.9301064
15	0x402c4f1c	2.6923285

concat_adjust.weight f4 [16, 8, 1, 1]
0	0x3dbcc9d0	0.0921818
1	0x3b909808	0.004412655
2	0x3f0c5214	0.5481274
3	0xbf3ee567	-0.7456879
4	0x3ef87047	0.4852316
5	0xbf6c64e0	-0.92341423
6	0xbc1bcbcc	-0.009509038
7	0xbf26aabb	-0.65104264
8	0x3c3bdf5a	0.011466825
9	0xbea9ab24	-0.33138382
10	0x3eb9453a	0.36185628
11	0xbf083b91	-0.5321589
12	0x3e9455f7	0.28971836
13	0xbf14bff4	-0.581054
14	0x3e912d2c	0.28354776
15	0xbd175688	-0.036947757
16	0xbf4a1a06	-0.7894596
17	0x3e170e7a	0.14751616
18	0x3f4a538b	0.79033726
19	0x3f351011	0.7072764
20	0xbf13d13e	-0.57741153
21	0xbe054fcd	-0.13018723
22	0x3e9f066e	0.31059593
23	0x3f7de300	0.991745
24	0xbf207028	-0.62671137
25	0x3dec0137	0.11523669
26	0xbea9d8a4	-0.33173096
27	0xbe2740a3	-0.1633325
28	0x3f5d2807	0.863892
29	0x3ee8c2bd	0.45461074
30	0x3d8d5ad4	0.0690209
31	0xbec97018	-0.39343333
32	0x3f3cd6d0	0.7376528
33	0x3da0538b	0.078284346
34	0xbec84246	-0.39113063
35	0xbdeeed45	-0.11666349
36	0xbd0318b1	-0.03200597
37	0xbce3e871	-0.027820798
38	0xbde4aa2a	-0.11165269
39	0xbd320bc4	-0.04346825
40	0xbf0ef7e8	-0.55847025
41	0xbe161488	-0.1465627
42	0x3e1cdc29	0.1531836
43	0x3db5027d	0.08838365
44	0x3f4382e5	0.76371604
45	0x3edae498	0.42752528
46	0x3ed27c99	0.41110685
47	0xbf806fc4	-1.0034108
48	0x3f6a5336	0.9153322
49	0x3f27f356	0.65605676
50	0xbf254c07	-0.64569134
51	0xbdc1f23f	-0.09470033
52	0xbf1bc5a6	-0.6084846
53	0xbf8a3852	-1.0798438
54	0x3df39223	0.11893108
55	0xbda01fd1	-0.078185685
56	0x3f0a3bc7	0.53997463
57	0xbf6a576a	-0.91539633
58	0x3df1f07c	0.11813447
59	0x3ef56e18	0.47935557
60	0xbe8ee134	-0.2790619
61	0x3f1c4cc8	0.6105466
62	0x3ed7cc30	0.4214797
63	0xbec615b9	-0.38688448
64	0xbe6b12d0	-0.22956395
65	0xbe1e38b6	-0.15451321
66	0x3e30700c	0.17230242
67	0xbedb5d7a	-0.42844754
68	0x3f69b8cd	0.9129761
69	0xbcfc7ea5	-0.030822108
70	0x3e423c25	0.18968256
71	0x3bd19d1b	0.0063969023
72	0xbedebd87	-0.43503973
73	0x3f1c62c1	0.61088187
74	0x3eda0f0c	0.42589605
75	0xbed9660e	-0.42460674
76	0x3e85181a	0.2599495
77	0x3f2de621	0.67929274
78	0xbe9f54e4	-0.31119454
79	0x3e7b673b	0.24551098
80	0xbe82f2cd	-0.25575867
81	0x3db70c7a	0.089379266
82	0x3f01bcb9	0.5067859
83	0xbf39e3a0	-0.72612953
84	0x3f0f1abb	0.5590016
85	0x3e5ec6c6	0.21755514
86	0xbda6f7cf	-0.081527345
87	0xbf2ed825	-0.6829856
88	0xbeaa77dc	-0.3329457
89	0x3e95c312	0.2925039
90	0x3f7c0baf	0.9845533
91	0x3f2bbf08	0.67088366
92	0xbda43411	-0.080177434
93	0xbe81a3b8	-0.2532022
94	0x3dac2e2e	0.084072456
95	0xbe6fa42f	-0.23402475
96	0xbdd81ddf	-0.105525725
97	0x3ec45cd6	0.38352078
98	0x3ebf448d	0.37356988
99	0xbfb278bd	-1.3943096
100	0x3f2b01e2	0.6679975
101	0xbe3cebb8	-0.18449295
102	0xbf52bcee	-0.82319534
103	0x3e92c4fc	0.28665912
104	0x3c076715	0.008264323
105	0x3f2c251b	0.6724412
106	0x3d390b2d	0.045176674
107	0xbd841d76	-0.06450932
108	0x3c12910f	0.0089457175
109	0x3dad4f98	0.08462447
110	0x3e9ee602	0.31034857
111	0xbebde632	-0.37089688
112	0xbee64694	-0.44975722
113	0x3e474310	0.19459176
114	0x3ea723fe	0.32644647
115	0x3e298add	0.16556878
116	0x3f804f06	1.0024116
117	0x3f0ed039	0.5578647
118	0x3e2b9c6e	0.16758892
119	0xbf20bf51	-0.62791926
120	0xbecf8004	-0.40527356
121	0xbe93b52b	-0.28849158
122	0x3ec5a683	0.386036
123	0x3ed059f3	0.40693626
124	0xbe8c03b0	-0.27346563
125	0x3f1e0d55	0.61739093
126	0x3f29000c	0.66015697
127	0x3f6b8c17	0.92010635

concat_adjust.bias f4 [16]
0	0x3e45868d	0.19289608
1	0x3e3aa367	0.18226396
2	0x3d89fd39	0.067377515
3	0x3e1e8108	0.15478909
4	0xbbbd6119	-0.005779397
5	0x3cb362f9	0.02189778
6	0x3f98509d	1.1899601
7	0xbecaf503	-0.39640054
8	0x3e9bf793	0.30462322
9	0x3ebdf40c	0.37100255
10	0x3e0c4baf	0.13700746
11	0x3c7ac975	0.01530682
12	0x3e8d8b56	0.27645367
13	0xbe07adb0	-0.1324985
14	0x3d076e4b	0.033064168
15	0xbef4793c	-0.47748744

classifier.0.weight f4 [9, 16]
0	0x3dadbb02	0.084829345
1	0x3f8bf590	1.0934315
2	0xbea72045	-0.32641807
3	0xbf869492	-1.051409
4	0x3f8fd915	1.1238123
5	0x3f60d416	0.8782362
6	0x3f890d3c	1.0707164
7	0xbe8a6478	-0.27029777
8	0x3e5a8d1e	0.21342894
9	0xc03d94f9	-2.9622176
10	0xbf9ee403	-1.2413334
11	0xbfab1682	-1.3366244
12	0xbf86999f	-1.0515631
13	0xbfe7ab71	-1.8099195
14	0x3e48bee9	0.19604076
15	0xbf6387b0	-0.8887892
16	0xbee76c4a	-0.45199805
17	0xbf4162ce	-0.7554139
18	0x3de5bab1	0.11217249
19	0x3c612ab2	0.0137430895
20	0x3e51f406	0.20503244
21	0xc0376b47	-2.8659227
22	0x3fba3bf9	1.4549552
23	0x3f1f0835	0.621219
24	0xbef57c73	-0.4794651
25	0xbe58bc89	-0.2116567
26	0x3e9a3473	0.3011814
27	0xbe65d8cf	-0.22445987
28	0x3f407a75	0.75186855
29	0x3f293a71	0.661048
30	0xc0296e9b	-2.6473758
31	0xc013a4ef	-2.3069417
32	0xbee894c4	-0.45426
33	0xbe98fa3d	-0.29878417
34	0xbe024173	-0.1272028
35	0xbf2a0e64	-0.6642821
36	0x3ec78aca	0.38973075
37	0xbeaf49cd	-0.34235993
38	0xbf206449	-0.62653023
39	0xbfbb5e93	-1.4638237
40	0x3f0e05f1	0.55477816
41	0x3f5d674d	0.8648575
42	0xbe64bedc	-0.22338432
43	0xbee96f3f	-0.45592687
44	0x3f05c3bd	0.522518
45	0x3ec01f56	0.37523907
46	0xbf1b4741	-0.606556
47	0x3f19d43b	0.60089463
48	0xc0984157	-4.757976
49	0xbe1b5d94	-0.15172416
50	0x3fb16f1a	1.386203
51	0xbe6df4ff	-0.2323799
52	0xbf222349	-0.6333509
53	0xbf27420c	-0.65335155
54	0xbfc549cd	-1.5413147
55	0x3f6fa1f6	0.9360651
56	0xbf1fe119	-0.62452847
57	0xbf07cfe2	-0.5305158
58	0xbfc66ff0	-1.5502911
59	0x3ea914d1	0.33023694
60	0xbf8bff3b	-1.0937265
61	0x3d96320d	0.07333765
62	0xbebaa8e9	-0.36456993
63	0x3f718d3c	0.9435613
64	0x3f22a59f	0.6353397
65	0x3e198614	0.14992553
66	0xbebc500b	-0.36779818
67	0xbf7a9c05	-0.97894317
68	0xbdff8ebd	-0.12478397
69	0x3ef57c39	0.47946337
70	0xbed34b5b	-0.4126843
71	0x3f7fef2c	0.9997432
72	0x3f4e487d	0.8057936
73	0xbf453052	-0.77026856
74	0x3e6c75b9	0.23091783
75	0x3f1c0cae	0.6095685
76	0xbf9ae549	-1.2101222
77	0xbea066a5	-0.31328312
78	0xbf5f36a3	-0.87192744
79	0xbf521a75	-0.8207162
80	0xbe8131e2	-0.2523337
81	0x3f5d37a6	0.8641304
82	0xbfc54480	-1.541153
83	0x3f928cb7	1.1449193
84	0xbf733f61	-0.95018584
85	0x3efdf623	0.4960185
86	0x3e000223	0.12500815
87	0xbf23d5cf	-0.6399812
88	0x3e2f1f5a	0.17101803
89	0xbe9ff1ca	-0.31239158
90	0x3f032f20	0.5124378
91	0xc0041a9b	-2.0641239
92	0x3d18eeb9	0.03733704
93	0x3eb8914d	0.36048356
94	0x3e82c3c1	0.25539973
95	0xbe32f702	-0.17477039
96	0x3f800688	1.0001993
97	0xbf24a012	-0.6430675
98	0xbe3c5d51	-0.18394972
99	0x3e85ecf5	0.26157346
100	0x3f048dea	0.51779044
101	0xbfa648cb	-1.2990965
102	0xbf0bf5a7	-0.5467171
103	0x3e01ce35	0.12676318
104	0xbfeba2ee	-1.8409097
105	0x3f18b708	0.59654284
106	0x3f5bcda0	0.85860634
107	0x3e5ed9c5	0.2176276
108	0xc0010ead	-2.0165207
109	0xbf0639eb	-0.52432126
110	0x3f53ff0a	0.82811034
111	0x3f071b28	0.5277581
112	0x3f108ece	0.564679
113	0xbfc35afc	-1.5262141
114	0xbf1ba0ba	-0.60792124
115	0xbe9a7e86	-0.30174655
116	0xbeb6b58e	-0.3568539
117	0x3f22900f	0.63501066
118	0xbf1901ea	-0.59768546
119	0xbe088aae	-0.13334152
120	0x3de77558	0.113016784
121	0xbeacace3	-0.33725652
122	0xbf1bffda	-0.60937274
123	0xbeb720be	-0.35767168
124	0x3ef01898	0.46893764
125	0x3f0390db	0.51392907
126	0x3edf9b3d	0.43673125
127	0xbce50991	-0.027958663
128	0xbfdf1fce	-1.7431581
129	0x3ebef9ba	0.372999
130	0x3ed97210	0.42469835
131	0xbf420175	-0.75783473
132	0xbf5abdbf	-0.8544578
133	0x3ec769d8	0.3894794
134	0xbf1e7db3	-0.6191055
135	0xbe92852b	-0.28617224
136	0xbf00d2ba	-0.50321543
137	0x3f05b716	0.5223249
138	0x3ea392cb	0.31947932
139	0x3f4c9a43	0.79922885
140	0x3eddf827	0.43353388
141	0xbf17ca75	-0.592933
142	0x3ea1efc3	0.31628236
143	0xbec0395f	-0.3754377

classifier.0.bias f4 [9]
0	0x3ebc2ec9	0.36754444
1	0x3f231ed0	0.6371889
2	0x3c9c5645	0.019084105
3	0xbe78c1c6	-0.24292669
4	0xbeb5bbeb	-0.35494933
5	0xbe43f8f7	-0.19137941
6	0xbe7fb9e5	-0.24973257
7	0x3c48e08d	0.012260568
8	0x3de6a9a2	0.11262824
