models/MiniResNet_pathMNIST.pth (torch, 36368 bytes, 34 tensors)

input_block.0.weight f4 [8, 3, 5, 5]
00000000: 79f4 933e 92ed 383e 6d83 f93d 6648 7f3e
00000010: 1847 c23e 8bda b0bd 97df 6bbe 0cfa 72be
00000020: b57e 033d e079 8b3e 6aa1 a6be 85bd e8be
00000030: 5d6c 02bf cec4 9abe 9aca e53d 4a12 cbbe
00000040: ca66 a8be 4251 bbbe c0aa e1be a00e 76bd
00000050: 4ee8 efbe 2821 e5be 19c7 0cbf fc18 9bbe
00000060: 2653 4abe 4dc6 9dbe eda9 78be 4f50 80be
00000070: 21ca bdbe 86c9 a5be ca7e ad3d ed80 523e
00000080: 2ab5 7f3e 7c65 6fbd 03d0 9fbe dac1 823e
00000090: 4051 923e 313b 823e 8064 993e 987c 7bbe
000000a0: 9652 4a3e eb1c 55bb b0c3 283e 27f6 c63e
000000b0: 7bdf 9c3d d419 1e3e 4360 633e 526b 443e
000000c0: e431 033f 85a6 463e b040 60be bb0c c0bd
000000d0: 5ead cdbd 08ba c7bd 7fc6 313d b372 d03c
000000e0: 1441 8e3e 00d8 f43d 0066 803d 80bd 1dbe
000000f0: 2419 733e 4c34 8a3e 51b7 513e cd02 613e
00000100: 60b7 29bc 269a b03e fa17 cd3e f96c 1f3e
00000110: 9be1 123e 2716 03bd 6e78 e73e 2654 a73e
00000120: 5857 533e 9c8f a13d 75f4 67bd 4f60 983e
00000130: 498d 123d fd49 86bd f207 dcbd 60d2 293e
00000140: 820c d5bb 5244 f1bd 6dae d5bd 8131 81be
00000150: c65c 1d3d c5f9 84be 2eb9 aabe e148 24be
00000160: 5f30 e6bd 66ad 17bb 01e2 a9be 013a 3fbf
00000170: e8d4 4cbf e5c1 74be d5f3 d3bd 5e68 3d3c
00000180: 370e b9be 3f7c 33bf dd54 dbbe 67d6 ce3d
00000190: d2e1 92be d7ba 8ebd 04f3 e73d f040 683c
000001a0: 0964 9ebd 7029 abbe 2d40 4abe 6c56 013e
000001b0: 6d9d 423e 3b1b 173d ec5a d0bc 38df 0a3d
000001c0: ac96 013e fa1d c03d 5031 9f3d 0680 02be
000001d0: c0e8 943e af7c 633e bb6f aa3c 4320 193c
000001e0: a25c b2be e861 51be e6bc f23d 26b1 49be
000001f0: 7d68 86be 9c5a 2b3e 5571 a13d b680 b2bd
00000200: 78ba 3f3e f595 bc3d eccb 713e e361 95bd
00000210: 681c 0fbf 707a b4bd ce04 c2bb 8bd2 7f3e
00000220: dca2 01be c705 84bf a62c 23bf 8b2f e9bd
00000230: 3211 fb3e ca1f 983e 3c93 4c3c 258e cfbe
00000240: 9a92 cbbd 9e03 fc3e 369a e13e bb16 053f
00000250: 5a8d ab3e a7b2 a63b c017 2b3e 66e1 ab3e
00000260: 6b0f 39be 07fd fc3d 4d62 a73e b2e6 7bbe
00000270: 9d07 603e 0f6d eabd 4a27 863d 96e6 8e3e
00000280: 13e8 3d3e e7e2 113d a25b 31be 0c99 2dbf
00000290: c128 ba3d 801e 573d 2f99 923e 1610 6f3f
000002a0: 4471 17bd 28b6 a4bd 50a2 93bc 101f f6bd
000002b0: 65ce 9a3e 1d02 b33c 45d5 a53d 6774 623d
000002c0: 5ae2 113e ebb8 08be abf5 fd3d ca4b d7bd
000002d0: ca57 293c bbb2 b13e f7b9 123e df1b c73e
000002e0: c9b8 963e 25f7 c23d 938f a83c ddee 98be
000002f0: cd28 94be d5c1 843e a281 fa3d 7c8b f03d
00000300: 0903 d53e e0e5 ddbd 45e2 8f3a 103a ed3d
00000310: 34a0 e7bc ef44 f13d 894a ac3c 9ebd 003e
00000320: 6cae 9abe 9f7b 25bd a5b2 f0be 7124 85be
00000330: b02c afbe dd1e f9be 90fe e2bd 463e 94be
00000340: 31a8 e13d 86a1 c63d 6c19 a7be 9d72 a8be
00000350: dd88 47bf 757e 37bf 3c51 583d ca10 13be
00000360: 772b bebd 1fd3 c13c 3a99 1fbf 5e44 88be
00000370: 7094 9ebd 68e5 6abc 485a ac3c 6476 7fbe
00000380: 9bcf 28be f1bf 0fbd 4200 4a3d 7cc1 8f3e
00000390: 45f6 d43d f5aa 533d fb60 843d 6bc5 e33e
000003a0: 3ad7 d93e 712f 7b3e 9a9c 8d3d 86ab a03e
000003b0: 442a ad3e 8c49 82be 364f c8be 78b2 27bc
000003c0: d7e7 843e 4efa 18be 67cf f9be 14c7 80bd
000003d0: 8e4d 8e3e 4dcd 343d f4a3 24be cec7 06be
000003e0: 2bfe 223d d34e f83c 747b 533d 9284 d6bc
000003f0: b7c5 613e 8f6b b7bc 2bbe 9bbd 318d d5bc
0.28897455 0.18059376 0.121832706 0.24929962 0.37944865 -0.08635434 -0.23034512 -0.23728198
0.03210326 0.2724142 -0.32545024 -0.45457092 -0.509466 -0.30228275 0.11220284 -0.3966239
-0.32890922 -0.36585432 -0.44075584 -0.06007254 -0.46856922 -0.4475186 -0.549913 -0.302925
-0.19758281 -0.30815354 -0.24283572 -0.2506127 -0.37068275 -0.32380313 0.08471449 0.20556994
0.24971452 -0.058446392 -0.31213388 0.25538522 0.28577614 0.25435784 0.29959488 -0.24559247
0.19758067 -0.0032518457 0.16480899 0.38859674 0.07659813 0.1543954 0.2220469 0.19181564
0.51248 0.1939946 -0.21899676 -0.09377428 -0.10042833 -0.097522795 0.04340219 0.025445318
0.27784026 0.11955261 0.06269455 -0.1540432 0.23740059 0.26993024 0.20480086 0.21973725
-0.010358661 0.34492606 0.40057355 0.15568914 0.14343874 -0.032003548 0.45209068 0.32681388
0.20638788 0.078887194 -0.056629617 0.29760978 0.03577927 -0.06557081 -0.10743703 0.16584158
-0.006501735 -0.11780609 -0.1043366 -0.2523308 0.038418554 -0.2597181 -0.33344406 -0.16043426
-0.11239695 -0.0023144125 -0.3318024 -0.7469788 -0.8001237 -0.2390209 -0.10349242 0.011560528
-0.36143658 -0.7011146 -0.42838183 0.10099488 -0.28687912 -0.069692306 0.113256484 0.014175639
-0.07733924 -0.33430052 -0.19751044 0.12630624 0.19005366 0.036891203 -0.02543398 0.033904284
0.12655133 0.093807176 0.077730775 -0.1274415 0.29083824 0.22215532 0.02080523 0.009346071
-0.34836298 -0.20447505 0.11852436 -0.19696483 -0.26251593 0.16733783 0.078829445 -0.08715956
0.18723476 0.092082895 0.23612946 -0.07294061 -0.5590272 -0.088124156 -0.005920983 0.2498266
-0.12659782 -1.0314263 -0.63740003 -0.11386021 0.49036556 0.29711753 0.012486275 -0.40538135
-0.099400714 0.4922151 0.44062966 0.5198781 0.3350628 0.005087215 0.16708279 0.33570403
-0.18072288 0.12352949 0.32692185 -0.24599722 0.21877904 -0.114465825 0.065504625 0.27910298
0.1854556 0.03561678 -0.17320111 -0.67811656 0.090898044 0.05251932 0.28632495 0.9338392
-0.036973253 -0.08042556 -0.018021733 -0.120176435 0.30235592 0.021851594 0.080973186 0.05528679
0.14246503 -0.1335179 0.12400373 -0.105125025 0.010335872 0.34706673 0.14328752 0.3888845
0.29437855 0.09519795 0.020576274 -0.29869738 -0.2893738 0.25929132 0.12231757 0.117453545
0.41603878 -0.10834861 0.0010977468 0.1158334 -0.028274633 0.11780726 0.021031635 0.12572333
-0.30211198 -0.040401097 -0.47011295 -0.26004365 -0.3421378 -0.4865636 -0.1108371 -0.2895376
0.11018408 0.09698777 -0.32636583 -0.32899943 -0.7794321 -0.71677333 0.052811846 -0.14361873
-0.09285634 0.02366024 -0.6234318 -0.2661466 -0.07743156 -0.014336921 0.021039143 -0.24947506
-0.16485445 -0.03509516 0.049316652 0.28077304 0.10398535 0.05167671 0.0646381 0.44486555
0.42547017 0.24529816 0.06914635 0.31380862 0.3382131 -0.25446737 -0.39122933 -0.010235421
0.2595813 -0.14939234 -0.48791048 -0.06287971 0.27793545 0.044141103 -0.16078168 -0.13162157
0.039793175 0.030311024 0.051631406 -0.026186261 0.22048078 -0.022390155 -0.07604631 -0.026068302

input_block.0.bias f4 [8]
00000000: 068b 0dbe a29b c03c 27e4 95be 0225 fabd
00000010: 94ab 9dbd 627b c43e 6347 c0be 1b68 21be
-0.13822564 0.023511712 -0.2927563 -0.1221409 -0.076987416 0.38375384 -0.37554464 -0.1576237

input_block.1.weight f4 [8]
00000000: d6d7 743f 7489 a03f dc46 9c3f 766c 833f
00000010: 3cee 863f b461 cf3f 5305 a83f 61a7 8a3f
0.9564184 1.2541947 1.2209125 1.0267475 1.0541453 1.6201692 1.3126625 1.083233

input_block.1.bias f4 [8]
00000000: d847 623f 018b 373f 7b0b 433f fb74 653e
00000010: 43d0 1f3f 38cf 36be 6816 633f f3c6 743e
0.88390875 0.7169648 0.7618939 0.22407906 0.6242716 -0.17852485 0.88706064 0.23904018

input_block.1.running_mean f4 [8]
00000000: 69e8 7cbe cf2f 5ec0 0800 01c0 375f e0bf
00000010: eec5 a53e 7862 9a40 8d8e 33bf 433c 233f
-0.24698032 -3.471668 -2.015627 -1.7529057 0.3237757 4.82452 -0.7013939 0.6376383

input_block.1.running_var f4 [8]
00000000: 4afd c63d 83aa c73e 547c a63d 0a8d e33d
00000010: 2cb8 5c3d 9922 043f 6359 3d3c 1114 413e
0.0971628 0.38997278 0.081291825 0.111108854 0.053886577 0.5161529 0.011556956 0.18855311

conv_block_1_1.0.weight f4 [8, 8, 3, 3]
00000000: ba59 a23d ff5c a93d b59b 643e 83fd 863c
00000010: 9729 1abe 16ed 28bc a40f df3d e78a 183e
00000020: eafa ec3d 80ae 31be b2ff 80be 5b0b 19be
00000030: 0f6e 59be 3313 5bbe 5a33 93be 699b e2bc
00000040: 34a1 b2be b17b dfbe a641 163e 17b5 083d
00000050: 8f37 9bbd 8af1 113d 904e ff3d 7f72 263e
00000060: 8d7c 993e 9d34 373f ef63 b63e bd3c e6bd
00000070: 8fd2 02be b648 ebbd 1c67 68be 5853 063d
00000080: c811 453e 418c 61bd 5e8f b23e 6559 d83e
00000090: 4ab8 aabe 258c b5bd 6ea8 6abe 438c a3be
000000a0: 000e 763d f565 1bbe 09bb 5bbe bb9c 0e3d
000000b0: b171 8b3d 0c7c 87be 8a98 dbbd d9e4 97be
000000c0: 9505 a8bc 7e89 d4bd 48be 69be 4184 3cbe
000000d0: 7b4f 92be 96a5 70be a6e1 183e 71ef 693e
000000e0: ce79 cb3e 0ae3 873e 2ae1 23bd c386 993e
000000f0: 26c6 c33e 0790 aebf 64a0 32bf 4064 9ebc
00000100: 5ec0 ab3c b052 f43d 802f 28be 1446 f8bd
00000110: cf0b 8d3c 6061 edbd d889 e6be 4b55 88be
00000120: 10f6 023f ba88 c3bc 1c35 1ebe 8284 6d3c
00000130: 865a 90be 59a4 03be f2f8 863d 607f b63d
00000140: 7105 07be b1c0 183d 1c9c 4bbe 14fc 18bc
00000150: 3a42 13bd d0ef 9ebe d783 55bd 930e cfbd
00000160: 88e8 2abe 7442 053f 8768 793b 2712 90bc
00000170: 08fd 23be 06c9 3f3d dc79 5a3e 18a7 193e
00000180: 0650 8fbe 5739 ed3d 8628 de3e e75e 71bd
00000190: 9200 44be 7000 ecbd c62f 42bc 11b5 953d
000001a0: 1da0 4cba 12d2 75be ad91 9d3d 027f 703e
000001b0: 866a 8e3e d3a0 6b3d b20e 933d 9b58 513d
000001c0: 6c1c bdbd 8130 00be b7cd a33d bee0 153d
000001d0: ef9e 57be 4f08 a53d d285 87be 4f2f 1dbf
000001e0: 1854 d9be 8f60 76bd 9c2c b23d a656 31bf
000001f0: 7d74 9ebd 943f 1f3e c8bc 9d3d a7fd a43d
00000200: 40a1 99be 8cb1 9b3c 2f88 36be 3b2b 763d
00000210: 447d 99be 5b3e ed3c 4ace e93f 91f7 833c
00000220: f817 28be 2eba 07be 2f55 36be 6871 babe
00000230: 2c26 0ebe e785 12be fcf6 e53d 7843 8f3e
00000240: 6b71 3c3c 2383 babb 5ec1 5ebb dc39 55bd
00000250: 1820 38bd bce9 b23d 0fdf 8dbc 6b4b 1f3c
00000260: 6af1 5cbd dab3 973d 0958 073e 25a6 f2bc
00000270: 4a1e 21bf 65e9 d83d 3869 d23e 3819 903a
00000280: d2e3 183e e79c 203f 3eef 193e e8e2 063d
00000290: bf0c 00be 2e81 da3e 0156 023f 42bb a53c
000002a0: 4e8a e73e 911e fd3e 0301 64bd c916 5bbe
000002b0: 5ff6 6cbe 8bec b9be 57e9 a4be cd5b 05bf
000002c0: ce24 f4be 36bf 4dbe 8a2b 6bbe 5be7 a0be
000002d0: cb12 7d3d 0917 503c 4815 cbbc ea64 823e
000002e0: 670d ba3c d1b0 10be c0f9 013c 9f3c 5fbe
000002f0: 8dd8 67be 8da7 593e 8f7f 62bd 3a10 253e
00000300: 8d72 083e 6ebc 71bd f169 6d3c 1f9f 13be
00000310: c9e2 c4be ba43 eb3c d7ec a5bd 15ec aa3e
00000320: e509 923c c31e 84bf c5d6 71be e045 df3c
00000330: e039 5dbe aaee 24bd c930 da3d 6405 c4bd
00000340: b726 933d 1ef5 6cbc c436 a4bd b45f 393e
00000350: d72a d13d d2ea 713e 4280 393e 5d68 2ebd
00000360: 18c5 0d3d 40fa f13e 5bb1 273e e5f0 09bd
00000370: ea3a 8e3e c2a2 f1bc e000 d3bc cbd7 3bbe
00000380: 1ab2 bfbd 6c19 87be 8668 21bf 0971 353e
00000390: 510f cfbd 7557 9bbe 672f da3b bba9 a13e
000003a0: 265d 3b3f b61f a83d 86c1 f9bd 7678 293e
000003b0: 5116 a83d 8b2f 933d 63cd 07bf 76fe 18bf
000003c0: 5820 9c3e bf1c f8bd 5459 c9be 8478 fa3e
000003d0: 1419 203d 0493 eebc b169 9abe 32df cb3e
000003e0: 638a 3e3f 9184 e9be 1408 833e dab2 aa3e
000003f0: f05a bd3d ef75 0cbe f8e9 2cbd bc62 153d
0.0792727 0.08269691 0.22325023 0.016478306 -0.15054928 -0.010310432 0.10891655 0.14896737
0.115712956 -0.17351723 -0.2519508 -0.14945738 -0.2123339 -0.21394043 -0.28750116 -0.027661996
-0.34888613 -0.43649057 0.1467348 0.033375826 -0.07578956 0.03563074 0.124661565 0.16254614
0.29977837 0.71564656 0.35623118 -0.11242054 -0.12775634 -0.11488478 -0.22695583 0.032794327
0.19245064 -0.055065397 0.34875005 0.42255703 -0.33343726 -0.08864621 -0.22915813 -0.3194295
0.060071945 -0.15175612 -0.21458067 0.03481744 0.06808794 -0.26461828 -0.10722454 -0.29666784
-0.020510474 -0.10377787 -0.22826493 -0.18409826 -0.28576264 -0.23500666 0.14929828 0.22845246
0.39741367 0.26540405 -0.040009655 0.29985628 0.38237113 -1.3637704 -0.69775987 -0.019334912
0.020965751 0.11929834 -0.1642437 -0.12122741 0.017217545 -0.115908384 -0.4502704 -0.26627573
0.5115671 -0.023868907 -0.15449947 0.014496924 -0.28194064 -0.12855662 0.06590451 0.089110136
-0.1318567 0.03729314 -0.1988377 -0.009337444 -0.03595183 -0.31042337 -0.052127685 -0.10110202
-0.16690266 0.52054524 0.0038056688 -0.01758678 -0.16014493 0.04682257 0.21335548 0.15005147
-0.2799074 0.11583202 0.43390292 -0.058928397 -0.19140843 -0.11523521 -0.01185221 0.07309926
-0.0007805841 -0.24005917 0.07693801 0.2348595 0.27815646 0.05752642 0.07180537 0.05110989
-0.09233937 -0.12518503 0.07998221 0.036591284 -0.21056722 0.08058225 -0.26469284 -0.6140031
-0.4244697 -0.06015068 0.08699915 -0.6927284 -0.07737062 0.15551597 0.07702023 0.08056193
-0.30005836 0.01900556 -0.17825387 0.06009982 -0.29978383 0.028960397 1.826608 0.01610926
-0.16415393 -0.13254616 -0.17805932 -0.36414647 -0.13881749 -0.14308892 0.11228749 0.27981162
0.01150165 -0.0056919022 -0.0033989768 -0.052057132 -0.044952482 0.087359875 -0.017318277 0.009722571
-0.053941168 0.07407351 0.13217176 -0.02962024 -0.6293684 0.105913915 0.410959 0.0010993844
0.14930657 0.62739414 0.1503267 0.03293124 -0.12504862 0.4267668 0.5091248 0.020230893
0.45222706 0.49437383 -0.055665027 -0.2139541 -0.23140858 -0.3631328 -0.32209274 -0.520932
-0.4768433 -0.20092472 -0.22965828 -0.3142651 0.0617855 0.0127008045 -0.024790421 0.25467616
0.022711469 -0.1412995 0.00793308 -0.21800469 -0.22641201 0.21255322 -0.05529743 0.16119471
0.13324948 -0.05901759 0.01449059 -0.14416169 -0.38454273 0.028718818 -0.08101814 0.3338324
0.017826984 -1.0321888 -0.23617084 0.027254999 -0.21604109 -0.04026667 0.10653836 -0.09571341
0.07185119 -0.014462737 -0.08018258 0.18102914 0.10213249 0.23624733 0.18115333 -0.042579997
0.03461179 0.47261238 0.1637625 -0.033677 0.27779323 -0.029496554 -0.025757253 -0.18344037
-0.09360142 -0.26386583 -0.63050115 0.177189 -0.10110343 -0.30340162 0.006658483 0.31574807
0.7318901 0.082091734 -0.12195115 0.16549858 0.082073815 0.071868025 -0.5304777 -0.59763277
0.30493426 -0.12114858 -0.39325964 0.4892007 0.039086416 -0.029122837 -0.3015876 0.39818722
0.7442991 -0.45608953 0.255921 0.33339578 0.092458606 -0.13716863 -0.042215317 0.036471114

conv_block_1_1.0.bias f4 [8]
00000000: 6bfe 83be efaa e7bd 21ab eabc b819 7cbe
00000010: 5a36 933d 5854 463e 8984 013d 731a b2bd
-0.25780043 -0.113119 -0.028646054 -0.24619186 0.07188101 0.19368112 0.031620536 -0.08696451

conv_block_1_1.1.weight f4 [8]
00000000: 6d87 803f b19f 983f d092 8b3f 0d59 9c3f
00000010: 8ff5 3e3f dbfe 893f 27b1 3e3f 570e 533f
1.0041329 1.1923734 1.0904179 1.2214676 0.7459344 1.0780901 0.74489063 0.82443756

conv_block_1_1.1.bias f4 [8]
00000000: 781d a4be c1d7 70bd bd14 ddbe 2e40 37bf
00000010: 5878 bd3d 59a1 cbbd 3f26 a33d f1ec 1a3e
-0.32053733 -0.05879951 -0.43179885 -0.71582305 0.092514694 -0.09942884 0.07966279 0.15129448

conv_block_1_1.1.running_mean f4 [8]
00000000: 0229 7fc0 8990 a23e 2995 b1bf ffca 12c0
00000010: 6a0e 39c0 cd18 d6c0 d112 d53f c1a0 6540
-3.986878 0.31750897 -1.3873645 -2.29364 -2.8915048 -6.6905274 1.6646367 3.5879366

conv_block_1_1.1.running_var f4 [8]
00000000: f223 b540 5c99 5e41 81f2 c940 72bb 7b40
00000010: b541 9a40 55d8 8541 a776 ea40 ac6a b840
5.660638 13.912441 6.3108525 3.9333158 4.820521 16.73063 7.326984 5.7630215

conv_block_1_2.0.weight f4 [8, 8, 3, 3]
00000000: 860f 9dbe 4d4f 213e c0be 87be 0146 ebbe
00000010: b386 79bd 1126 d9bd e75d 2cbe b406 ec3b
00000020: 81dc e03d 462b 8dbe bc62 8ebe 9cd6 423e
00000030: 7730 00bf c602 0cbf 5055 5e3d 6a18 2a3d
00000040: 46e2 213d 93ea 853e 1b63 9cbc b0cc 4cbe
00000050: 682b 03bf 40e9 65be c54e f23d 79a0 cb3e
00000060: a905 553c 9a09 833d 8117 863d 9ad5 e9be
00000070: 8ef7 04bf 611b f7bc 2b86 48be da82 ca3d
00000080: fcda 853e 3a92 3b3e 87b4 2e3f e837 aa3e
00000090: 79a3 e63e 112f d33e eb11 273d 294c 133f
000000a0: c28f 623f eb64 c93e 644b 01be 483e babd
000000b0: 399d 9f3d 24cf 4d3d f311 4e3e 003b 323e
000000c0: 2187 82be d1a8 1a3e 382c 803e 0beb 47be
000000d0: 8056 b03e fc97 e53e 3aed ea3c bf0b 023e
000000e0: 50a6 94bc 2fb3 fcbc 56d4 c03d d387 a63e
000000f0: f19d bfbd 3a3c 31bd ea4e 0e3e b8f1 e03b
00000100: f841 913d 8fcf 323d d475 543d 4d73 fbbd
00000110: baa5 3ebe 440c 173e b287 3cbe b87c 16be
00000120: 0963 dfbc daeb b53e 194d bb3e 4d55 a83d
00000130: 1932 273d 3f2d c73d 1ba7 403e 7cc7 84be
00000140: 2f08 30be fa65 223f 260b c0bb 5836 83be
00000150: 45bf f23e 770d 9f3d b4dd 01be 86de b0be
00000160: 7d47 3abe b5f4 2c3e b6d1 ad3e 7ea2 903e
00000170: de5d 1bbf db22 d03d 40fc 32bd ca7c 25be
00000180: b934 92be aedf b4be a77b 783b 78b2 1dbe
00000190: b9fa 883d 1382 84bd 607d 8b3e ec97 803e
000001a0: 519f c3be 86cb d43a 80f8 57be 853b 86be
000001b0: 657d 84bd e1d2 c33d dd2d edbd df60 76bc
000001c0: b78a a23b 449d 34be abfb 8b3e afe7 4e3d
000001d0: f532 d03c 80ac 873e 75a8 7c3e 1ea2 c43d
000001e0: ecf7 553e 4ed5 923e af26 823e 5982 9d3e
000001f0: cfc7 c83e a08e a03e b12d 16bf 72a4 063e
00000200: 00a9 46be ca5a a5be 1f61 813e f207 0dbf
00000210: 51c0 a6be 4c6b c93d 8cd2 8dbe ef63 9ebe
00000220: 0c21 b9be 7a86 08bb 25f3 79be 14db 34be
00000230: 669b ac3d 5e30 4b3e d649 013d 21b7 313f
00000240: fdca b9be 1152 c7be fb11 4fbe be2b 4abf
00000250: e8a7 09bf 18c2 acbe 8d9d e6bd e346 33be
00000260: 7f97 bfbc 62d4 2ebf 7994 bcbe 7527 71be
00000270: a697 fbbe 209a 28be cb44 b4bd c7d9 bbbe
00000280: fbc8 48be d0e3 1d3d b147 0cbe 6b7b 16be
00000290: ba78 9abd b3d5 5c3a 4fbf 6fbe e996 d0bd
000002a0: 5441 b8bc a9a9 79be 0003 e3be 6211 c2bd
000002b0: 19a9 763c 1461 7dbe 3c31 2e3e 89e9 0d3e
000002c0: a308 553e b221 823e 1311 3f3d ae47 db3d
000002d0: cb3d 49be b487 753d a88e 3cbe e0cc 353e
000002e0: 26df ed3e 236a febc 3154 91bd 423d e53c
000002f0: c5cd e6be 5ea0 80bd 275e 2abe a079 babe
00000300: 3710 343e e6d4 afbe 29a4 10bf aff7 053e
00000310: 94cb e2bd f67e a1be 1d69 e4bd e6c2 e6bc
00000320: 8cf7 f73d c911 91be a2f0 71be 2270 403c
00000330: 828d b33b 6681 94be 1309 c6be 4bab 43bd
00000340: fb0d 493d 87b0 443e 54fe 10be 7447 b5be
00000350: 67a5 16be 5cc8 f33c 1e08 02bf 067a 4fbe
00000360: 9ea0 623d 6a33 bf3e 387d 87be 7d36 a7bb
00000370: 87ac f8bd 27e4 63be 4a34 9fba 7be4 cdbd
00000380: c549 d7bd cd6e 943e 868d b03e ad50 42be
00000390: bcec 203e 8fa2 a13e cf9f 4a3e 45d2 edbd
000003a0: d4ca bebb 523c 65be 80ea b03d 3d78 493e
000003b0: 1535 f6bd 3904 2bbc 43e7 863e 9604 70be
000003c0: 2d46 f2be 861e 98bb 9606 fd3d 6c10 07bf
000003d0: 719c f13e 093c d53e 7161 cfbe 8521 ffbd
000003e0: 4327 2dbe 137e 70be c807 84be 9d5f 18bf
000003f0: 6b51 28be d511 fcbd 0db1 bb3d daf3 f0bc
-0.30675906 0.15752907 -0.26512718 -0.45951846 -0.060919475 -0.10602964 -0.16832696 0.0072029475
0.10979558 -0.27572078 -0.27809703 0.1902718 -0.5007395 -0.5469173 0.05428058 0.04152719
0.03952243 0.26155528 -0.019090226 -0.19999957 -0.5123811 -0.22452259 0.1183143 0.39770868
0.013001838 0.06398316 0.06547452 -0.45670778 -0.5194024 -0.030164422 -0.19582431 0.09888239
0.26143634 0.183175 0.6824421 0.33245778 0.45046595 0.41246846 0.040788572 0.57538086
0.88500607 0.39334807 -0.12626415 -0.090939105 0.0779366 0.050246373 0.20124035 0.17405319
-0.2549372 0.15103461 0.25033736 -0.19523256 0.34440994 0.44842517 0.028677572 0.12699793
-0.01814571 -0.03084716 0.094155 0.325255 -0.09356297 -0.043270327 0.13897291 0.0068647526
0.07092661 0.043654975 0.051870182 -0.12277851 -0.18617907 0.14750773 -0.18411139 -0.14696014
-0.027268903 0.35531503 0.36582258 0.08219395 0.04081926 0.09725427 0.18813746 -0.25933444
-0.17190622 0.63436854 -0.005860704 -0.25627398 0.47411552 0.0776624 -0.1268223 -0.34544772
-0.18191333 0.16890223 0.3394906 0.28248972 -0.60690105 0.10162898 -0.043697596 -0.16160884
-0.2855585 -0.35326904 0.00379155 -0.15400112 0.066884466 -0.06470122 0.2724409 0.25115907
-0.38207486 0.0016234971 -0.21090889 -0.26217285 -0.064692296 0.09561706 -0.11581013 -0.015037744
0.0049603838 -0.17638117 0.27340445 0.05051392 0.025414923 0.26498795 0.24673636 0.09601234
0.20895356 0.28678364 0.25420138 0.3076351 0.39214942 0.31358814 -0.5866347 0.13148668
-0.19400406 -0.3229583 0.2526941 -0.5509025 -0.325686 0.098349184 -0.27699697 -0.30935618
-0.36158025 -0.0020832107 -0.24409159 -0.17661697 0.084280774 0.1984267 0.031564556 0.6942006
-0.3628768 -0.389298 -0.20221703 -0.78972995 -0.5377183 -0.33741832 -0.11260519 -0.1750751
-0.023387669 -0.6829282 -0.36832026 -0.23550208 -0.49139136 -0.16465044 -0.08802184 -0.36689588
-0.19607918 0.038547337 -0.13699223 -0.14695518 -0.07542558 0.00084241776 -0.23412822 -0.10185034
-0.022492088 -0.24381126 -0.44338226 -0.09475972 0.015054964 -0.24744064 0.17010969 0.13858618
0.20804076 0.25416332 0.046647143 0.10707031 -0.19652478 0.05994387 -0.18413794 0.17753935
0.4645931 -0.03105647 -0.07096136 0.027983312 -0.45078865 -0.062805876 -0.16637479 -0.36420918
0.1758431 -0.34342116 -0.5650049 0.13082765 -0.11073986 -0.31542176 -0.11152861 -0.028169107
0.12107763 -0.28333881 -0.2362695 0.011745485 0.0054795155 -0.29004973 -0.38678798 -0.04777078
0.0490856 0.19207965 -0.14159518 -0.35406077 -0.14711533 0.029758625 -0.50793636 -0.20261392
0.055328958 0.37343913 -0.26462722 -0.005102931 -0.12142282 -0.22255002 -0.0012146321 -0.10053345
-0.10512117 0.28990784 0.34482974 -0.18976088 0.15715307 0.31569335 0.19787525 -0.11612371
-0.005822519 -0.22386292 0.08638477 0.19674774 -0.12021843 -0.0104380185 0.26348314 -0.2343925
-0.47319165 -0.0046423106 0.12354772 -0.5275943 0.47189668 0.41647366 -0.4050403 -0.12457565
-0.16909508 -0.23485593 -0.25787187 -0.59520894 -0.16437308 -0.12308089 0.09164629 -0.029413152

conv_block_1_2.0.bias f4 [8]
00000000: 2d52 32bc 6067 a43d 0822 28be 3cb5 39be
00000010: b4c9 9ebe 43cf 153e 02a6 bc3e b081 ee3e
-0.01088385 0.0802753 -0.16419232 -0.18135542 -0.31013262 0.14629845 0.36845404 0.4658332

conv_block_1_2.1.weight f4 [8]
00000000: a3fb 543f b705 763f 4355 a73f 2da1 ca3f
00000010: 9fad 6b3f 00cd 863f 26db a13f 0f81 9c3f
0.8319647 0.9610247 1.3072895 1.5830437 0.920618 1.0531311 1.2645004 1.2226886

conv_block_1_2.1.bias f4 [8]
00000000: 213a 513f b96a f4be 4a53 c33b a414 42bf
00000010: 5010 c53e 11d8 28be 484b 13bf e51e 33be
0.8172932 -0.47737673 0.0059608566 -0.75812745 0.38489008 -0.16488673 -0.57536745 -0.17492254

conv_block_1_2.1.running_mean f4 [8]
00000000: 262e 0b3f ef82 083f 4cbd 58c0 d05e aebe
00000010: a8bc 0dbf 2878 d2bd 828f 8b3f 853d 0f3f
0.5436729 0.5332479 -3.3865538 -0.3405671 -0.5536599 -0.10276824 1.090317 0.55953246

conv_block_1_2.1.running_var f4 [8]
00000000: 97da 1140 111a 0140 cf12 1e40 2964 ea3f
00000010: 7155 ba3f 6c03 1e40 ddf9 0d40 6fc0 1f40
2.2789667 2.017216 2.469898 1.8311816 1.4557325 2.4689589 2.2183754 2.4961202

conv_block_2_1.0.weight f4 [16, 8, 3, 3]
00000000: 1512 20bc 7fe9 2ebe 4aa1 4ebe 221a 563d
00000010: 6bd8 90bd 29ed 3dbe 24a3 09be 35fa 4ebe
00000020: 9f3e 93be 778d d83c 8c4f 8cbd 7034 2fbe
00000030: d989 c7bd e2d9 32be 5d73 78be 856f 8abc
00000040: 5d80 d4bd 94e2 72be 66d9 1dbe 3480 e63b
00000050: a1db 94bd c386 cd3d 7030 cd3e a7cd 4f3e
00000060: 891d 993e 0647 153f ae28 f33e b648 8abc
00000070: 28c2 1a3d ffd1 663e c866 9ebd efe1 31bd
00000080: 55b7 3f3e 5af1 1fbd 4250 043d cdec 1c3d
00000090: 9db5 8b3d 241e 5c3e f0c6 853d ca6f 493e
000000a0: cd08 383c 1628 7abd 9ec7 493e 289c 863e
000000b0: c24f ee3a 702e 46be db5e cdbe 8925 a8be
000000c0: 1176 c1be 2e77 69bf 851c 0dbf 245d 25bf
000000d0: b309 73bf c6e8 0cbf afb6 db3d 5e19 50be
000000e0: bca9 063d 3e22 82be 9299 4abe ec80 4abe
000000f0: ea6f f9be cbb6 a9be 9f31 a3bd 4493 36be
00000100: 7644 82bd 78d3 283e ac87 703e 7523 af3e
00000110: ab82 b63e 3483 bd3d 1914 a93e 1274 103f
00000120: b8d0 85be b1e7 1cbe ffb6 2d3e 1f36 92be
00000130: 5416 3d3e 9292 08bd cedb 22be c8b1 373e
00000140: d03d 3fbd 1b15 693e 7de4 f03c d88c e63c
00000150: 710e 98bd 4ced 0cbe d4a5 083e e505 02bd
00000160: aa58 d53c da31 19be e6dd 95be fba2 18be
00000170: 408c aabe 7899 833c 288f fa3b 8046 7bbe
00000180: 9e5b e23e 4bb4 be3e 5d7f 883e 9fd1 073d
00000190: 6ab1 b5bc ac83 cc3c a97f 743e ed41 ae3e
000001a0: c9fb c63e d2ae 6e3e 0b72 c23e 137f 733d
000001b0: f16b ad3e 70cd 023f 5d36 6cbd 5842 423f
000001c0: f930 703f 1042 383d 869e a43e 5fe1 b63e
000001d0: fb0d 00bf d501 85be d316 a5be b5a9 29bf
000001e0: 1d51 f03e 2cd4 d63d 2d1c d4bd 8ca5 193e
000001f0: 2d9f 9bbd 7bd2 16be 24d7 083e 4462 a83b
00000200: 9ec5 db3d 043e aabd 39ab 1bbe 2d1e a7bd
00000210: c81b af3d 2532 583d 4fc9 003e 5fcb 9c3e
00000220: 5d82 453e f064 233e 4fe1 8c3e 092a 76bd
00000230: e14a 59be 00c5 4bbe 5911 b9be e846 afbe
00000240: 6fc8 0fbd 65f4 a3ba d929 6dbe 7684 913c
00000250: a088 0d3f 9125 013f bb55 44bd 734c 913e
00000260: 1ee7 d13e 05c2 9f3e f91d cbbd fa64 543e
00000270: 72dc 033d 741e b1bd 1fca 5cbe 1175 24be
00000280: 070c eebd fc2d d6bd 77a7 a9bd e480 803e
00000290: 65ad 563e 5b79 abbd 6cc2 833e 8fcd 3e3e
000002a0: 9fcd 44bd 4e91 363d e9c9 883c fb9b a8be
000002b0: 0a1b a9be 7cc4 a2bc e069 c3bd 95e2 e3be
000002c0: 765a f6be e403 d5be 0eda 6fbf 2234 05bf
000002d0: 5993 cd3b 9e6e e53d d453 8a3e 12a1 b23d
000002e0: ce3f d3be f973 fabe 6703 143d 48ef 1fbf
000002f0: 74ca 27bf 04b8 d33c b9b0 a03d 99a8 603e
00000300: 52c2 ca3d 7027 1e3e eb1a 4e3e 1f13 9c3e
00000310: 2e42 a43e 4ed8 493e 1029 573d e642 8c3b
00000320: bf22 853e 7daf 0a3e a2dd 0c3e c257 e03e
00000330: 2686 28be 7686 1a3e 7d59 a63e 00ba 4e3d
00000340: e9ef eabd 4090 81be 56a1 0d3d 2a8a 093e
00000350: 3ee8 903d 9323 5bbd 6697 913e 7758 3f3e
00000360: 9749 f03d 90a4 09bf fc6d 0ebf f8ec 65be
00000370: f762 31bf 79f3 04bf 84cd 29be 8f80 b7be
00000380: 0cf5 b4be 9770 aa3d bbe6 0a3e e094 1f3d
00000390: 5264 6b3d 9575 bfbd 94f4 55be 919c 873d
000003a0: 19e5 62be 01d8 d3be 6f16 203e e447 803e
000003b0: 6ca6 6d3e f192 38be efdf 383e 9cd6 4a3d
000003c0: d2b0 08be 8ece fdbd f78d 28bd 5baa 013e
000003d0: 3e0d 0bbc 3f33 f8bd 3279 ef3d c1f6 8ebd
000003e0: 6971 b5bd 8169 c5bd 3567 a3be 3f72 1fbe
000003f0: 565a 63bd 8fa7 16bf dd35 36be 69df 913c
-0.009769936 -0.17081259 -0.20178714 0.052271016 -0.070725285 -0.185475 -0.1344114 -0.20212634
-0.28758714 0.026434643 -0.0685111 -0.17109847 -0.09743089 -0.17465928 -0.24262758 -0.01689888
-0.10376046 -0.23719245 -0.15414962 0.007034326 -0.072684534 0.100354694 0.40076017 0.20293294
0.29905346 0.583115 0.47491974 -0.016880374 0.037782818 0.22541045 -0.07734448 -0.043428358
0.1872228 -0.03904853 0.032303102 0.03831177 0.06821749 0.21495873 0.06532085 0.1967155
0.011232567 -0.061073385 0.19705054 0.26291013 0.0018181729 -0.19353652 -0.4011143 -0.32841137
-0.3778539 -0.9119748 -0.5512164 -0.64595246 -0.94936675 -0.55042684 0.107282035 -0.20322177
0.032876715 -0.2541675 -0.19785145 -0.19775742 -0.48718196 -0.33147272 -0.07968449 -0.17829615
-0.06360714 0.16486919 0.23489255 0.3420674 0.35646567 0.09253541 0.33023146 0.5642711
-0.26135802 -0.15322758 0.16964339 -0.28556916 0.18465549 -0.033342905 -0.15904161 0.17938912
-0.04668981 0.22761957 0.029405827 0.028143331 -0.074246295 -0.13762397 0.13344508 -0.031743903
0.026043255 -0.14960423 -0.29270858 -0.14905922 -0.33310127 0.01606439 0.00764646 -0.24538612
0.44210523 0.37246928 0.2665967 0.033158895 -0.022179324 0.02496513 0.23876823 0.34034672
0.38863972 0.23308876 0.37977633 0.05944736 0.33871415 0.5109472 -0.057669032 0.7588248
0.93824726 0.044984877 0.32152194 0.3571882 -0.5002133 -0.2597796 -0.32243976 -0.6627458
0.46936885 0.10489687 -0.103569366 0.15004557 -0.0759872 -0.1472873 0.1336332 0.0051386673
0.10731052 -0.0831261 -0.15202035 -0.081600524 0.08550221 0.052782197 0.12576793 0.3062391
0.19288011 0.15956473 0.27515647 -0.06009868 -0.2121997 -0.19899368 -0.36146048 -0.34233785
-0.035103258 -0.0012508748 -0.23160495 0.017763358 0.552866 0.50447947 -0.04793332 0.2837864
0.4099664 0.31202713 -0.09917826 0.20741645 0.032192655 -0.086483866 -0.21561478 -0.16060282
-0.11623388 -0.104579896 -0.082838945 0.25098336 0.20964582 -0.08372756 0.2573427 0.18633102
-0.048047658 0.044572167 0.01669784 -0.32931504 -0.33028442 -0.019869082 -0.095416784 -0.44508806
-0.4811589 -0.4160453 -0.936921 -0.52032673 0.0062736687 0.11202739 0.2701708 0.08722128
-0.41259617 -0.48916605 0.036136057 -0.6247449 -0.65543294 0.025844581 0.07846207 0.21939315
0.09900345 0.15444732 0.20127456 0.30483338 0.3208174 0.1971142 0.052529395 0.004280436
0.26003072 0.13543506 0.13756421 0.43816954 -0.16457424 0.15090355 0.3249015 0.050470352
-0.114715405 -0.25305367 0.03457769 0.13431612 0.07075547 -0.053500723 0.2843582 0.1868609
0.11732786 -0.5376673 -0.5563657 -0.22453678 -0.69291633 -0.5193401 -0.16582304 -0.3584027
-0.35343206 0.08322256 0.13564579 0.038960338 0.05746872 -0.09348599 -0.2089408 0.066216595
-0.22157706 -0.41375735 0.15633558 0.25054848 0.23208016 -0.18024804 0.18054174 0.049521074
-0.13348702 -0.12392913 -0.041151013 0.12662642 -0.008487044 -0.121191494 0.11693038 -0.06980658
-0.08859522 -0.09639264 -0.31914678 -0.15570925 -0.055506073 -0.58849424 -0.17793985 0.017806726

conv_block_2_1.0.bias f4 [16]
00000000: 395b 9a3d bf8f 193e fc65 8d3d 4fb3 d0bc
00000010: 36b3 59bc 6e48 a13d 582a 80be f945 80be
00000020: 13f1 873c dd0f b23d dd40 b4bd 6a49 f2bd
00000030: fb59 a03d db0e 163e 8181 21be 22a2 0a3e
0.075369306 0.14996241 0.069042176 -0.025476126 -0.013287356 0.07875143 -0.25032306 -0.25053385
0.016594445 0.08694432 -0.08801434 -0.11830409 0.078296624 0.14654104 -0.15772058 0.13538411

conv_block_2_1.1.weight f4 [16]
00000000: 9203 7c3f 30b0 6e3f ab2b 703f f5b5 5d3f
00000010: a682 5a3f a2a8 6a3f e583 903f c60e 8a3f
00000020: a44f 773f e9cd 6b3f d831 763f 3d1f 873f
00000030: 98f9 7e3f f747 8e3f 472e 323f aab6 483f
0.9844295 0.9323759 0.9381663 0.8660577 0.85355604 0.91663563 1.1290251 1.0785758
0.96605897 0.9211107 0.96169806 1.0556408 0.995996 1.1115712 0.69601864 0.78403723

conv_block_2_1.1.bias f4 [16]
00000000: 0a9e 35be f10a 3bbf a38b ab3d ed6a d7bd
00000010: abe7 88be 9da8 91be cba0 29bf ea37 a9be
00000020: 2b26 52bf c1ba c5be d99f abbe 8467 1cbf
00000030: 3788 c9be 3830 f4be f4c2 26bd 8813 ccbe
-0.17736068 -0.7306357 0.08376243 -0.10518441 -0.2673925 -0.28448954 -0.66260976 -0.33050472
-0.8208949 -0.38619044 -0.33520392 -0.6109545 -0.39361736 -0.47693038 -0.040713266 -0.3985865

conv_block_2_1.1.running_mean f4 [16]
00000000: 14e7 65c0 7a80 9e40 3fa5 0640 53e5 2bc1
00000010: c421 a840 d709 f6bf 195e d2c0 eb38 82c1
00000020: bde4 4e40 fd46 5ec1 dfe8 88c0 8a03 62c0
00000030: 3389 7ac0 c906 1a41 75f0 03c1 0a93 9a40
-3.592229 4.953183 2.1038358 -10.743487 5.254122 -1.9221753 -6.5739865 -16.277792
3.232711 -13.892331 -4.2784266 -3.531466 -3.914624 9.626657 -8.246205 4.830449

conv_block_2_1.1.running_var f4 [16]
00000000: 1f68 af41 0e48 6441 4bd3 9b41 eeaf 4c41
00000010: a954 c041 40fa 9741 6e66 1f41 84ae 8841
00000020: c1b1 a541 d464 5541 221f a241 d7e5 8741
00000030: 4d85 3b41 4463 8441 f9e9 d841 59a6 6641
21.92584 14.267591 19.47817 12.792952 24.041338 18.997192 9.962507 17.085213
20.711794 13.337116 20.265202 16.987226 11.720044 16.54847 27.114244 14.415612

conv_block_2_2.0.weight f4 [16, 16, 3, 3]
00000000: 782f 253d b781 273e 489b d8bd 5d9f 203e
00000010: 930b dc3e cff1 983e e0a6 f6bd a4b9 0c3d
00000020: 46bb f3bd 458f 37be 3a5d 67bd 9b93 3cbe
00000030: 3b50 b4be 8824 533e 91c6 ad3e d901 7ebe
00000040: 6c8a 8cbd e32e 45bd f607 173e 2c2b a73e
00000050: 4a10 8fbd b881 b43e 1498 1c3f 1c34 503d
00000060: 48f1 98bd 8382 7f3e 28ef 49be 8f28 d8bd
00000070: e5bf 03be 0918 c43c 8447 e8be 9248 1cbf
00000080: fd10 4bbe 8b74 0a3e 8e68 d1be 396e 0b3d
00000090: 8f0d 9cbd 531f 223e d891 2d3d 719e 1ebc
000000a0: 4ebd 2e3e e800 bc3e e207 6b3c 61b4 8d3e
000000b0: e19b a83e f808 143e 0454 1a3e 1c51 243e
000000c0: d9a1 683c 1866 32be e98a b03c c012 85bd
000000d0: eef4 1cbe 7e69 4bbd d441 773e cce5 9e3e
000000e0: f0eb 2f3e 429e 823e b85c 8c3e 6318 703e
000000f0: 2161 d9bd b847 533e e172 183e 48fa 5cbd
00000100: 8ea2 cc3d 724d eebb 890a 83bd 9ae1 713e
00000110: 94fe 9a3d d6e1 c1bb 8368 83bc 48c9 6dbe
00000120: 4d7b 453e ae84 bb3e d450 5dbe 131e 2c3f
00000130: ffcb 453f 0de3 fa3e f936 993e 02e0 2a3f
00000140: 828e b73d 6d51 0ebe b97c 183e 866f adbe
00000150: fade 513e 80db 543e af23 e53d e976 8e3d
00000160: e137 b0bd 7cac 0abd d0f5 c2bd 93df 44bd
00000170: ba75 a4be 389e 52be 6d86 3abe 8873 e8be
00000180: 6772 8ebe f440 02be a84c 04bf 34ed 123c
00000190: 1eba 053e 06cc 9ebe 5330 773e 95b2 f43e
000001a0: 1e99 073e ee06 663d a7ce 923e 5d23 42be
000001b0: 6e48 7d3e d0bd df3e 4666 563e 74d7 a23e
000001c0: 9d83 2c3f fe54 9d3e 008e 093e 16c3 233f
000001d0: 89a0 383e 9320 62be d2c7 e3be b2c3 91bd
000001e0: 5f81 dbbe 83c3 4fbf cc98 92be 62c9 6f3d
000001f0: 8738 96be 2066 413d e194 bdbd ada9 5fbd
00000200: 65d3 1bbe 39f0 b43d ba1c b9be 9fef 12be
00000210: ece0 4abe 2728 8fbe 5052 98be 32ea 39be
00000220: eb15 a83d c9fb cbbd 9d9a 893d fc61 4dbd
00000230: 14df 58be ca1d 9a3e 34e1 7dbd 172e 13bd
00000240: cb12 173e 4703 e2bd b20e 88be 2df1 60be
00000250: c309 a4be 3233 adbe 6180 8c3d 15c1 913e
00000260: e01d ce3c 2158 4dbe f34d e3be 5ec9 25be
00000270: 231c 0fbe 80d5 0bbf 22d7 16be eda9 cf3d
00000280: 1a9e 6ebe 2bf4 06be 9bb1 303b a46f c93d
00000290: 577b 7ebe 051d 32bd 3b7b ac3d 0fe7 43be
000002a0: b1bb 6dbe 80bc 85be 7a4e b6be dab1 a8be
000002b0: 8832 ea3d 3e1b 613e 6a26 bb3d 0c84 1dbe
000002c0: 2891 02bd 95f2 0b3e 095c 053e 0c15 8a3b
000002d0: e0a8 143e 5647 4abe 55e5 25be 781c c4ba
000002e0: 1f13 c0bd 3834 75be 4deb a83c 7687 b2be
000002f0: 287d a1be e8f6 81bd 20b6 52be 43ce d03d
00000300: 3910 4c3c fb0f 013e 6b1f 163d f00c 66be
00000310: 1de2 30be 930f 713c c1b9 353d 2213 0b3c
00000320: b7b1 8d3e 6da1 b33e 8ae0 43bd 34d0 f6bd
00000330: 93f3 ae3e eca0 5f3e 73f0 613e 8246 14bf
00000340: 3c56 693c 0025 de3e add4 52be 563f 52bd
00000350: a12f a23e 7cb8 023f 43fb 243f f923 3b3f
00000360: af78 043f 7e44 973e 04a1 393e 90e2 c23e
00000370: 84d3 2cbe 6373 cfbe 1293 963c bf55 24bf
00000380: ebcc a0be 7d83 d9bd 9cb0 68be 35ae f83d
00000390: 072f 963c e90f 60be 4573 d03d fa2f 1ebe
000003a0: 893f 4fbe 864b 3dbc 1c4d 523d 646c 373e
000003b0: f3df b03d 7b79 6a3e 7fb2 943e f4db 0e3e
000003c0: e47e 743e 4b89 273e 9f22 553e 55d6 333e
000003d0: f3a7 e33e 0118 b53c 2622 3a3e 942e d53e
000003e0: 7e0d 773e 4f9a 1c3e f9e9 77be 68c3 e3bd
000003f0: 11f0 8d3e 5cfc 623e 5929 3e3e 0d52 5d3e
0.040328473 0.16358076 -0.105764925 0.15685792 0.4297758 0.29871985 -0.12043548 0.03435673
-0.11900954 -0.17925747 -0.056485392 -0.18415682 -0.3521746 0.20619404 0.33940557 -0.24805392
-0.068623394 -0.048140418 0.1474913 0.32650125 -0.06985529 0.35255218 0.6116955 0.050830945
-0.07467896 0.2495213 -0.19720137 -0.10554611 -0.1286617 0.023937242 -0.45367062 -0.61048234
-0.198307 0.1352102 -0.4090008 0.034040663 -0.076197736 0.15832262 0.042375416 -0.00968133
0.17064402 0.3671944 0.014345141 0.2767668 0.32931426 0.14456546 0.15071112 0.16046566
0.014198744 -0.17421758 0.021550613 -0.06497717 -0.15327808 -0.049661152 0.24146205 0.31034696
0.17179847 0.25511366 0.2741449 0.23446803 -0.10614229 0.20632827 0.14887573 -0.053949624
0.09991942 -0.007272416 -0.06398494 0.23621216 0.07568088 -0.0059168143 -0.016041046 -0.23221314
0.19285317 0.36624664 -0.21612865 0.6723339 0.772644 0.4900135 0.29924753 0.6674806
0.08962728 -0.13898249 0.14891328 -0.33874148 0.20495215 0.20786858 0.11188447 0.06956274
-0.08604408 -0.0338559 -0.09519541 -0.04806478 -0.32121068 -0.20568168 -0.18215342 -0.45400643
-0.27821657 -0.1272009 -0.5167947 0.008967686 0.1305928 -0.31015033 0.24139528 0.47792497
0.13242003 0.056158952 0.28673288 -0.18958803 0.24734661 0.43699503 0.20937452 0.31805003
0.67388326 0.30728906 0.13433075 0.6396955 0.1802999 -0.22082739 -0.44488388 -0.07117404
-0.4287214 -0.811577 -0.286322 0.058541663 -0.29340002 0.047216535 -0.09256912 -0.054605175
-0.1521736 0.08834881 -0.3615473 -0.1434922 -0.19812363 -0.2796032 -0.297503 -0.18155745
0.082073055 -0.099601336 0.06718943 -0.050142273 -0.21178848 0.30100852 -0.06198235 -0.035932627
0.14753263 -0.11035781 -0.26573712 -0.21967001 -0.32038698 -0.3382812 0.06860424 0.28467622
0.02516073 -0.2005315 -0.44395408 -0.16190097 -0.13975577 -0.5462265 -0.14730504 0.10139833
-0.23302498 -0.1317908 0.002696133 0.09835747 -0.24851738 -0.043484706 0.08421942 -0.1913111
-0.2321613 -0.26120377 -0.35606748 -0.3294819 0.11435419 0.21983048 0.09138186 -0.15382403
-0.031876713 0.13666756 0.1302339 0.0042139348 0.14517546 -0.19753775 -0.16200764 -0.0014962098
-0.09378647 -0.23945701 0.020620013 -0.34868973 -0.315408 -0.06345922 -0.20577288 0.10195591
0.01245504 0.12603752 0.036651056 -0.22465873 -0.17273755 0.014713186 0.0443666 0.008488448
0.27674648 0.35084096 -0.04782156 -0.1205143 0.34170207 0.2183873 0.2206438 -0.57920086
0.014241751 0.43387604 -0.20588942 -0.051329933 0.31676963 0.5106275 0.64445895 0.73101765
0.5174665 0.29544443 0.18127829 0.38063478 -0.16877562 -0.4051772 0.018380675 -0.6419334
-0.3140634 -0.106207825 -0.22723621 0.12142602 0.018332971 -0.21881069 0.10178236 -0.15447989
-0.2023908 -0.011553651 0.05134307 0.17912441 0.08636465 0.22897904 0.29042432 0.13951093
0.2387653 0.16360967 0.20813988 0.1756223 0.44464073 0.022106173 0.18177089 0.416371
0.2412624 0.15293239 -0.24210347 -0.11121255 0.2772222 0.2216658 0.1857046 0.21613331

conv_block_2_2.0.bias f4 [16]
00000000: 42cd afbc 0151 54be 69f2 223e 1292 3fbd
00000010: 901a 053e c782 16bd 49b6 423e d9bd b53d
00000020: dad6 4c3d ec55 073e 2671 353d d16a abbb
00000030: e944 81bd 9aa5 26be 4e30 76be ad69 44be
-0.02146018 -0.20734026 0.15912785 -0.046770163 0.12998414 -0.036745813 0.19014849 0.08874101
0.050009586 0.1321637 0.04429736 -0.0052312394 -0.06311972 -0.1627411 -0.24041864 -0.19180937

conv_block_2_2.1.weight f4 [16]
00000000: d206 5e40 da1a 6840 ced5 7140 a53f 3240
00000010: 1921 4c40 1043 6d40 021b 6a40 801c 7040
00000020: 5651 7540 f3e4 4e40 57da 5540 63a8 5a40
00000030: ff46 8940 32f4 6140 d8a6 8140 2324 6040
3.4691663 3.626639 3.7786746 2.7851346 3.1895201 3.7072182 3.6578984 3.7517395
3.8330894 3.232724 3.3414514 3.4165275 4.2899165 3.5305295 4.0516167 3.5022056

conv_block_2_2.1.bias f4 [16]
00000000: 328b 513e 1de1 bf3e 4322 06be 0a06 1e3e
00000010: a5e7 b43e 025d 9e3d a533 4d3f 9020 0cbe
00000020: 3fd8 a83e 4e05 7d3e 1d42 45bd 1822 1c3e
00000030: 639e fd3e 3653 993d 515d ee3d ff01 b8be
0.20463255 0.37476435 -0.13099007 0.15431991 0.3533298 0.077325836 0.8015693 -0.13684297
0.32977483 0.24709055 -0.048158754 0.1524738 0.49534902 0.07486574 0.116388924 -0.35939023

conv_block_2_2.1.running_mean f4 [16]
00000000: 55a4 d63e 6d1f 2bbd 4058 7f3d 6fda fdbf
00000010: 10aa 73bf c702 f8be 6a3a 163f 0941 42c0
00000020: 6642 693f ba7e d2bc 6228 273e 613c 0140
00000030: 003d 05c0 7044 efbf 5723 e2bf 304a ffbf
0.4192225 -0.041778017 0.06234002 -1.9832286 -0.9518137 -0.4843962 0.5868288 -3.0352194
0.9111694 -0.025695194 0.16323999 2.0193102 -2.0818481 -1.869276 -1.7667035 -1.9944515

conv_block_2_2.1.running_var f4 [16]
00000000: a13b c23f 25d1 d03f 1260 1540 b0ce 2b40
00000010: 9415 2b40 7e54 0540 aa23 3040 0353 fa3f
00000020: b8db d03f db99 1040 0cbb e43f 6400 2840
00000030: 32d7 0d40 49c8 3f40 c335 cd3f 6fce ff3f
1.5174447 1.6313826 2.3339887 2.6844902 2.673192 2.083282 2.7521768 1.9556583
1.6317053 2.2593906 1.7869582 2.6250238 2.2162595 2.9965994 1.6032032 1.9984874

concat_adjust.weight f4 [16, 8, 1, 1]
00000000: c05b 0b3e d376 553d d569 eb3e 09dd 44bf
00000010: 8c9e dd3e 6ad9 66bf 1623 78bd 6d64 1cbf
00000020: 3267 913d 5ee3 e8be f6ad d13e 9b09 c2be
00000030: bf95 533e 69cf 04bf 5b31 383e becc fdbd
00000040: dad3 24bf 86aa e23d 0fb7 403f 2f0f 133f
00000050: 6839 1bbf 337c 34be 0273 813e 7d2c 613f
00000060: 298f 01bf d8cb 1d3d 69c2 a4be 030a 853c
00000070: 6ba5 4b3f 8ba2 a33e cd85 993d 7947 95be
00000080: 6bef 3d3f 6a35 4d3e b071 7abe 8da0 f4bd
00000090: d966 4a3d 9098 3f3e 58d9 8fbd 20bb 80bd
000000a0: b511 b6be 9197 843a e7a0 133e d260 143e
000000b0: 9faf 1c3f c067 ab3e 5847 c53e dcee 50bf
000000c0: 8f5a 4e3f 923c 073f ac67 bebe 7ea5 27be
000000d0: 15fb 8fbe 27da 7bbf 1d79 713e c5f5 66be
000000e0: 08be 0d3f f93d 57bf e508 313e d62d f63e
000000f0: 5a5c 45be 7247 f93e a949 043f 3c36 8abe
00000100: 0c44 66be e9a5 8cbd aec2 333e 0da4 8cbe
00000110: 87b2 403f 9c52 4f3d 1ef5 373e 2de0 283d
00000120: 6990 82be 923c 163f 8f58 e43e b8b0 81be
00000130: 12c8 ca3d 4936 403f 35d9 b9be f616 2d3e
00000140: be11 48be 0239 ed3d 9c48 093f 1071 0bbf
00000150: 764e 313f d761 ae3e 5639 34bd 647f 48bf
00000160: 6cf7 9dbe f6fc 9d3e e8ef 763f 2dd3 1a3f
00000170: cb68 c5bb eaa6 7ebe 2881 8bbd bccc 97be
00000180: dd3b 823d c319 db3e 39c8 b23e ba77 92bf
00000190: d74c 0c3f fda8 bc3d 3f03 58bf 20ab 7a3e
000001a0: 46ba 073d 1122 d73e e28e 86bc 0633 95be
000001b0: e6b7 7b3e 45ff 693e 066c b03e 56b7 d5be
000001c0: 2cd0 bbbe 9499 743e 0ad3 8d3e b0e3 513e
000001d0: c49e 6d3f b51f 053f 7852 fa3d feee 23bf
000001e0: 2946 a7be 1efe 22be 7b81 9d3e e755 aa3e
000001f0: f659 dcbd d06d 133f 36d4 e43e c2a2 5f3f
0.13609219 0.052115273 0.4597918 -0.7689977 0.43285024 -0.901755 -0.060580336 -0.6109074
0.07099761 -0.45485967 0.40953034 -0.37897953 0.20662592 -0.5187898 0.17987578 -0.12392567
-0.6438576 0.11067681 0.75279325 0.57445043 -0.6063447 -0.17625503 0.25283056 0.8795851
-0.5060907 0.03852448 -0.32179573 0.016240126 0.7954928 0.31959948 0.074962236 -0.29156092
0.7419345 0.20039907 -0.24457431 -0.11944685 0.04941449 0.18710542 -0.07023877 -0.06285691
-0.35560384 0.0010115971 0.14416848 0.14490059 0.61205477 0.33477592 0.38530993 -0.8161447
0.8060693 0.528268 -0.3718847 -0.16371724 -0.28121248 -0.9837975 0.23581357 -0.22554691
0.5536809 -0.8407894 0.17288549 0.48081845 -0.1927351 0.4868732 0.51674896 -0.26994503
-0.22486895 -0.06867582 0.17554733 -0.2746891 0.7527241 0.05061589 0.17964599 0.041229416
-0.255008 0.5868617 0.44598815 -0.25330138 0.09901442 0.7508283 -0.36298528 0.1690329
-0.19538018 0.11583139 0.5362642 -0.54469395 0.69260347 0.3405902 -0.043999992 -0.7831938
-0.3085283 0.30857056 0.9645982 0.6047848 -0.006024455 -0.2486836 -0.06811744 -0.29648387
0.06359074 0.42793092 0.34918383 -1.1442788 0.5480475 0.092119195 -0.84379953 0.24479342
0.03313663 0.42018178 -0.016425554 -0.2914049 0.2458187 0.22851284 0.34457415 -0.41741437
-0.3668226 0.2388671 0.27700073 0.20497012 0.9282038 0.52001506 0.12222761 -0.6403655
-0.32670715 -0.1591725 0.30762848 0.33268663 -0.10759346 0.57589436 0.44693154 0.87357724

concat_adjust.bias f4 [16]
00000000: dcee 2d3e 5b23 033e 85f9 db3d 1f82 003e
00000010: eae3 cc3d d9c2 963c 00e6 873f 4d45 99be
00000020: d763 973e 6293 bb3e e404 533e 74e5 cb3d
00000030: 9a30 773e b85c 95bd d233 143b 9842 a4be
0.16985649 0.12806456 0.107409514 0.12549637 0.10004409 0.018403457 1.0617065 -0.29935685
0.2956836 0.36635882 0.20607334 0.09955874 0.24139634 -0.07293075 0.0022613895 -0.32082057

classifier.0.weight f4 [9, 16]
00000000: ab92 9b3d b660 8d3f 09be a2be 865d cebe
00000010: c7c8 423f fac9 1c3f e038 613f e160 47be
00000020: 0612 a63e 834f 2ec0 d0e1 98bf 7207 70bf
00000030: 7778 75bf 2bbe debf 820f 873e cb84 4bbf
00000040: 281a 89bc a1ee ebbe cc44 b63d 9ace 8fbe
00000050: 0018 303e 3805 1ac0 50ac a13f 70bf a93e
00000060: 6451 eebe 1b24 d1be 994c 013d 5481 71bc
00000070: 7717 573f 1096 143f bb0d 2cc0 bee9 02c0
00000080: 2f8e d7be 7e6a e7be b58b 173d a980 17bf
00000090: 7e0a 8f3e 1acd 16be ef69 2ebf 8aab aebf
000000a0: 9d16 093f fa15 543f 7e57 69be ce96 ebbe
000000b0: 925c f53e 959d 9a3e 4173 ffbe d593 f03e
000000c0: f6e9 86c0 ce26 79be 8520 9d3f a436 563e
000000d0: a0f4 d4be 3c00 4bbf 795a c1bf d8de 6a3f
000000e0: c7d3 74be b645 c5be cb20 abbf a866 983d
000000f0: 919b 87bf 0762 a43d e003 d8be 2bd8 5d3f
00000100: a125 373f 6ee2 0abd a0cf f1be 0e87 25bf
00000110: b292 b63a a107 003f 4167 c1be b5fe 393f
00000120: 0e14 1b3f 6167 3fbf 04e9 b63e 8c68 103f
00000130: aa5b 85bf dacc 70bc ac3c 54bf 9e0d 51bf
00000140: ffce 85be cb27 543f eaf7 a4bf a820 823f
00000150: 9240 77bf 9223 c53e 44dd 4c3d c9d5 34bf
00000160: 3700 773e 67e7 43be 11d2 ee3e 4c0a ecbf
00000170: 7c5a 1dbc 80f0 d63e 88ad 9e3e 8caa 05be
00000180: 577e 623f c39c 05bf 0cd6 82be e958 d5be
00000190: 43ec fb3e c9d8 a3bf 12fb cdbe f766 cf3d
000001a0: 961e d0bf a133 203f 0551 373f 2ce2 9f3e
000001b0: 92a4 cabf 7b04 15bf 0ce6 453f 01ab cb3e
000001c0: 2cb8 e83e c0ec c2bf 48dc 11bf 1d7d 4dbe
000001d0: d770 a8be f646 113f 3ae9 b0be f1c1 05bb
000001e0: 1611 493d 9ee2 bfbe cb28 f4be 796f b6be
000001f0: 9938 ce3e cb0f c03e 2fbf c93e b6ce 253e
00000200: 11cd d6bf d13a e83e 7e40 d03e 3d25 56bf
00000210: f979 42bf 199b ed3e 3b24 2abf 202a 0dbe
00000220: 3617 1ebf f344 de3e d37c 8e3e 499d 333f
00000230: adf6 d43e c524 e7be 8821 813e 78da abbe
0.07596334 1.1045139 -0.3178561 -0.40305728 0.7608761 0.6124569 0.8797741 -0.1947055
0.32435626 -2.723603 -1.1943913 -0.9376136 -0.9588694 -1.7401785 0.2637902 -0.794995
-0.016736105 -0.46080497 0.08899841 -0.28087312 0.17196655 -2.4065685 1.2630711 0.33153868
-0.4654647 -0.4084786 0.03156719 -0.014740307 0.8402018 0.5804148 -2.688338 -2.0455165
-0.42100665 -0.45198435 0.03699847 -0.59180695 0.27937692 -0.14726678 -0.6813039 -1.36461
0.5355013 0.82846034 -0.22787282 -0.46013492 0.47922188 0.3019835 -0.4989262 0.46987787
-4.2160597 -0.24331209 1.2275549 0.20919281 -0.41592884 -0.7929723 -1.5105735 0.9174628
-0.23908912 -0.38529748 -1.3369383 0.07441455 -1.059435 0.0802651 -0.42190456 0.8665797
0.7154179 -0.033907346 -0.47228718 -0.646592 0.0013929217 0.5001164 -0.3777409 0.7265428
0.60577476 -0.7476712 0.35724652 0.56409526 -1.0418599 -0.014697278 -0.8290508 -0.81661403
-0.26134488 0.8287322 -1.2888157 1.0166216 -0.965829 0.385037 0.050015703 -0.7063871
0.24121176 -0.19131242 0.46644643 -1.8440642 -0.009604093 0.41980362 0.3099177 -0.1305334
0.8847403 -0.52192324 -0.2555393 -0.41669396 0.4920369 -1.2800533 -0.40230614 0.10127061
-1.6259334 0.6257878 0.71608 0.31227243 -1.5831473 -0.5820996 0.7730415 0.39778903
0.45453012 -1.52285 -0.5697675 -0.20067258 -0.3289859 0.567489 -0.34552938 -0.0020409788
0.04908856 -0.37477583 -0.47687373 -0.35631922 0.40277556 0.3751205 0.39403674 0.16192135
-1.6781331 0.45357373 0.40674204 -0.8365057 -0.75967366 0.46407393 -0.66461533 -0.137856
-0.6175417 0.4341198 0.27829608 0.70161873 0.4159445 -0.4514524 0.25220895 -0.33565116

classifier.0.bias f4 [9]
00000000: f5a2 5d3e 2f78 123f 204c 4fbd 56b1 30be
00000010: eaf7 c9be 81ea 1abe fd7d 15be 4e69 3c3d
00000020: 6c5d db3d
0.21644194 0.57214636 -0.050609708 -0.17255148 -0.39446956 -0.15128519 -0.14598842 0.045998864
0.10711178
