models/MiniResNet_pneumoniaMNIST.pth (torch, 34535 bytes, 33 tensors)

input_block.0.weight f4 [8, 1, 5, 5]
00000000: 58d6 3f3e b64c 7c3e 3b17 463e 1055 493e
00000010: b60a e2bd 6c6b 2abe ffe3 a0be 8c52 1b3e
00000020: 9cc6 453e e63f 76be 299f 19bd 62c6 72bd
00000030: b312 123e 0ce2 5ebd 9567 cd3d 00cd 6dbd
00000040: 0f00 543e 4f5c a93d 4e8c 25be dfe0 103e
00000050: d24c 47bd 0e18 51bd f97b 89bd 8bba 103e
00000060: 9046 babd d823 1ebe a588 62bd 7c1e b5bd
00000070: 732c b73c 198b 03be 2d3a 223e 8ab8 3dbe
00000080: 17f6 323e a46f 723d 9260 3abd 0672 a13e
00000090: b4a0 853e 655e f83e de15 4a3e 9e0b 0a3c
000000a0: 95a0 7b3d dc4f 023d 7e5d 1b3e 3e67 d33d
000000b0: 1af6 903d 7351 e2bd 175f 1f3e cb66 e73c
000000c0: bafd 19bd 9266 14be 8f99 5abe 984f 09be
000000d0: d7e9 1abe 5389 813e 6754 233e 8c2f 283e
000000e0: 7975 b73d 53be 80bb 95aa 3a3e 9686 20be
000000f0: 8add 733d 2f91 c5bd 7777 9c3c 56f6 08be
00000100: 8a27 263c 2bc4 143d ba9e 253e ebb5 1fbe
00000110: be99 04be 8228 62bd c531 8f3e ad58 353e
00000120: 8280 503e 28f4 3dbe 6e80 3abe e1de 11be
00000130: 4f10 50be 5bfc a53d 6e21 483e 4555 873e
00000140: 18bd b0bd 1219 26be a6cd 523d 4785 85bd
00000150: 232b cf3d 8d66 12bc 21a3 583e 87b2 3fbe
00000160: 4ab6 12be 951e 073e 07e1 d33d 632f 833d
00000170: a9c6 ab3d 8f0b 813d eff2 39bd ca54 34be
00000180: 3fab 053e 6e9c 04be 74b9 64be 78b7 6bbe
00000190: 08c8 d8bb 7ab7 0b3e 341d 1ebe 40e9 8bbe
000001a0: 8dda 813d 9ce9 1fbd de66 693c abfa e6bd
000001b0: 3677 a1be 88d6 14bd 64ca 5c3e f162 b53d
000001c0: 9776 2f3e dbc1 e9bd d6cc dcbd 19bb 3fbe
000001d0: 11db b1bd cc23 87be d110 02be 2277 87be
000001e0: 022b 0d3e 0bff b63c c437 e33d a5e8 0cbb
000001f0: 0eb5 7ebd 8f84 d1bd 3b34 cfbd 69e0 1fbe
00000200: f054 483e 3d04 c2bd 79cd 8a3e d63e 263e
00000210: 8000 d0bd 24b6 203e 920f 18be 582b f1bc
00000220: 00b5 53be c0e9 47be 4ddb 8f3d 04ab ccbd
00000230: 9f5c 89bc f273 82be f58a 083e 7999 25be
00000240: ef9f b4bc 9cd5 a73d 7beb 1f3e 54ec 423e
00000250: a04d 763e 1669 95bd da64 363c c390 e1bd
00000260: ef85 70bd 621f 39be eeef 393e 199d cdbd
00000270: cfb5 de3d 377a a53d fa72 993b 1cd5 18be
00000280: 0fcc 8e3e fe4d be3d e23c 993d 93d0 72be
00000290: d3d0 ec3d dfea 8cbd 8433 8fbd fc5c 663e
000002a0: 39ce 123d 3813 f1bd f4b3 1fbe 3386 5d3c
000002b0: 7eed 343e 4a83 98bc 9c2e 1cbe 29ee 5dbe
000002c0: b478 8fbe 5acd f5bb 4cb4 233e d7a8 2ebe
000002d0: b84e 0ebc 72b0 923d 1afa 293d e365 99bc
000002e0: d587 273e b6ab 593c 0e38 253d ea7b 063c
000002f0: 990a 47bd be9e d33c b3b0 03bd 6d8c 04bd
00000300: ae88 703e 1479 593e a58f 6c3b 73f8 fdbb
00000310: 81ca 4d3d 4d3a 2d3e d4ab 1c3e 51d2 153e
0.1873411 0.24638638 0.19344799 0.19661355 -0.11037199 -0.1664254 -0.31423947 0.15168208
0.19314045 -0.24047813 -0.037505303 -0.059271224 0.14264946 -0.054414794 0.10029522 -0.05805683
0.20703147 0.082695596 -0.16166803 0.14148282 -0.048657246 -0.05104833 -0.06713099 0.1413366
-0.0909549 -0.15443361 -0.055306096 -0.08843705 0.022360062 -0.1284603 0.15842505 -0.18527427
0.17476688 0.0591885 -0.045502253 0.31532305 0.2609917 0.48509517 0.19734904 0.008425621
0.06143244 0.03181444 0.15172383 0.10322426 0.0707819 -0.110506915 0.15563618 0.028247258
-0.037595488 -0.14492252 -0.2134764 -0.13409269 -0.15128265 0.25300083 0.15950166 0.16424388
0.08957953 -0.0039289384 0.18229134 -0.1567634 0.059537448 -0.09646832 0.019099934 -0.1337522
0.010141263 0.036319893 0.1617383 -0.1559674 -0.12949273 -0.055214413 0.2796766 0.17709608
0.20361522 -0.1855017 -0.18213055 -0.14245178 -0.20318721 0.081047736 0.19544002 0.26432243
-0.08629817 -0.16220501 0.051465653 -0.06519561 0.101156496 -0.008935583 0.21155979 -0.18720447
-0.1432735 0.1319526 0.10345655 0.06405523 0.08387501 0.06301033 -0.045397695 -0.1761047
0.13053606 -0.12950298 -0.2233637 -0.23019207 -0.0066156425 0.1364421 -0.15440828 -0.27326393
0.063405134 -0.039041147 0.014245717 -0.1127828 -0.31536263 -0.036337405 0.21561581 0.08856762
0.17135082 -0.11413928 -0.10781257 -0.18723716 -0.08684362 -0.26394498 -0.12701727 -0.2645808
0.13785937 0.02233841 0.11094621 -0.0021500972 -0.062184386 -0.10230362 -0.10117384 -0.1561295
0.19563651 -0.09473465 0.27109888 0.16234908 -0.10156345 0.15694481 -0.1484969 -0.029439613
-0.20674515 -0.19522762 0.0702425 -0.09993556 -0.016767798 -0.25479084 0.13334258 -0.16171826
-0.022048919 0.0819504 0.15617172 0.19035465 0.24053049 -0.07295434 0.011132443 -0.11013939
-0.05872148 -0.18078378 0.18157932 -0.100397296 0.10874521 0.08079951 0.0046828957 -0.14925045
0.2789006 0.092922196 0.074823156 -0.23712377 0.115632676 -0.068807356 -0.06992248 0.22496408
0.0358412 -0.11771244 -0.1559599 0.013520765 0.17668721 -0.018617291 -0.15252155 -0.21672882
-0.28021777 -0.0075012865 0.15986747 -0.17056595 -0.00868576 0.071625605 0.04149828 -0.018725341
0.1636041 0.013285568 0.04033666 0.008208254 -0.04859409 0.02583253 -0.032150935 -0.032360483
0.23489639 0.21237594 0.003609636 -0.0077505647 0.05024195 0.16916771 0.15299922 0.1463101

input_block.0.bias f4 [8]
00000000: 2fb0 09be f9b3 ebbd ceb0 e93d af55 4c3e
00000010: 0d64 05be a5bc 78bc dbf2 a8be a17b 39be
-0.13446115 -0.115089364 0.11410676 0.1995456 -0.13026448 -0.015181695 -0.32997784 -0.18113567

input_block.1.weight f4 [8]
00000000: 79f9 863f 21e0 763f 4a3c 813f 9f35 713f
00000010: 3918 753f a011 8c3f 7cce 733f 1d60 7b3f
1.0544883 0.96435744 1.0096524 0.94222444 0.95740086 1.0942879 0.95236945 0.9819353

input_block.1.bias f4 [8]
00000000: 897d 243d 34e9 42be c7ef 463e 2e42 7f3d
00000010: 5cbe 4c3c 142a c4bd 30e2 933d 0bc4 183d
0.040158782 -0.19034272 0.19427405 0.062318973 0.012496557 -0.09578338 0.07220876 0.037296336

input_block.1.running_mean f4 [8]
00000000: 4128 2b3e 1e94 293f 6adc 553e 2933 133d
00000010: 09ca 4ebf f505 aabd 9272 adbe 322d 5b3e
0.16714574 0.66241634 0.20884863 0.035937462 -0.8077703 -0.083019175 -0.33876473 0.2140396

input_block.1.running_var f4 [8]
00000000: 3ce0 333c 15ab 753d ea8a ed3b 60b7 293c
00000010: 357d 543d 45db 103c 5993 e23a 445d a63c
0.010978755 0.05997761 0.007249226 0.010358661 0.05187722 0.00884134 0.0017286345 0.020308144

conv_block_1_1.0.weight f4 [8, 8, 3, 3]
00000000: 0ec3 cabd 8b66 8c3d 6dba d83d 1702 153e
00000010: 063d 0cbe f239 2ebe 2223 38bd 9069 56bc
00000020: 0767 40bd f026 323d 7561 ea3c c4e0 27bd
00000030: 0ded f13c 10a3 183e dadd 59bd 4495 b6bd
00000040: 7e88 7abe 66b6 a2b9 f2ad 4c3d 5808 cebd
00000050: 3d65 883d 9e15 65bd 7e8c 27be 4b6a c03d
00000060: ef85 51bd d0f1 383e 8973 3d3e 590c 873c
00000070: df2d 803d 382b 8abc c0df 05bd 50d3 5cbd
00000080: 8120 753e 2326 fbbd f41e 70bd 4ede 453d
00000090: 79bb 513d c339 c0bc eae8 32bd a94d 333e
000000a0: 677e eabb 57d4 173e 16dd e53c 7471 c7bd
000000b0: 1fba b93d 1ab1 a7bc 4561 1fbd b273 49be
000000c0: 19c4 523a 1d17 f5bd 4e77 293e e2fa 8abd
000000d0: b8d9 03bd 473b 2ebe c859 d63c e9aa dbbd
000000e0: 2278 9a3d 09c0 6c3e 70c7 3fbd a62c 983d
000000f0: f7e7 44be fdeb 3cbd 8887 523e 2593 01be
00000100: f1f8 013d 65c2 01bd d771 583e 2a60 d0bb
00000110: dbbb febd f053 583e 6f77 463c 9995 73be
00000120: 7185 dabc 6685 d0bd 4355 72bd 4837 0c3e
00000130: 3364 653d 3c8a aebd 3529 b1bd 024b c13d
00000140: 3476 b23d 49f5 9c3b 24b5 bfbc 761d 18bd
00000150: 01a7 c7bd d33a 9bbd 73e0 b83d 8754 9a3d
00000160: c426 c53d 014d 143e cfb3 7dbe 04c2 03bd
00000170: 6e3b 8a3d a0bc 92bd eef4 19be 11b3 f4bc
00000180: a62e 00bd b5fd 573e efc2 6dbd e355 bebd
00000190: 409f 113c fb5a 3f3c 4047 4a3e 5f12 bc3d
000001a0: 0e1a 50bd f65f f93d bd66 b53c 0b77 6dbe
000001b0: c415 223d b2bb 083e 1d1a 3ebc 120c 8c3b
000001c0: 68ef 0bbe c74d f7bd 59a6 573e 3f07 203e
000001d0: 8d44 03bd fbca 7dbe d586 54be f454 93be
000001e0: 9fad a3bd 5e0b 02bd ae28 d1bc 6477 283e
000001f0: 62da 0f3e 167a 92bc 787c 80bc 1e29 9bbd
00000200: a8c8 03bd 3333 2d3e 4b95 383c 99d9 a7bd
00000210: 8d53 e13d 4229 e63c 9d28 59be e98d e5bd
00000220: 82c4 a8bd e659 a3bd b93c 923d 768c e4bd
00000230: bf53 2cbd b894 0b3d c4df 853d 1e7f 253e
00000240: 1623 f73d 44a2 fd3d 97a8 dfbd 8eb9 1abd
00000250: ba7f 0d3d d3fb 74bc 9595 b5bc c4d4 e83d
00000260: 77e5 f9bc 8188 8abc 03b1 73bd bcfc 813d
00000270: 05ad 8f3d 67df 9cbb ea74 933c d893 72be
00000280: dc13 ddbd ceec 51bd 424a 253e 825f 463d
00000290: ca12 65bd 8335 183c d5cb bcbd 43aa d93c
000002a0: aa81 fb3d 5d5d 123e 42bb a93e 06ab 0bbe
000002b0: 6227 9a3c 3c0d 31be 8369 043e aa50 373e
000002c0: 9d99 42bd 9b87 7e3e d1a4 153d 026d 2f3d
000002d0: 3013 353b 5d0b 29bd 674c 8abd a29c 5838
000002e0: db88 eb3d 5136 263c a1a7 553e 1060 83bd
000002f0: 4344 35be 323c f8bd fa0e bcbd aca1 3abe
00000300: 4f98 f6bb c8c0 323e d15f 6bbc 49bc 3d3d
00000310: f2ee f9bd f978 4ebe 137b f4bd e712 c7bc
00000320: 71d4 8ebc 65da d93d 64f8 febc 6fac 9bbd
00000330: 2686 963e dfa4 093e 04f3 403e 95a0 acbc
00000340: 9b7b 713c 9fe7 893d fb73 37bd 5607 b9bd
00000350: 30fd 8fbd 2225 db3b 950a a0ba da7f 903d
00000360: 63f2 23bd 8e6c b2bc 2200 debd 9a2b 4cbe
00000370: 48d6 17be e1b5 b8bc 3519 e6bd 0fcb 26be
00000380: bc80 febd 9bb6 073d d6f2 e1bd 6ea5 1d3e
00000390: 7a48 3ebe 3c45 79bd 4ee3 aabc 24f8 633d
000003a0: 93b7 92bc 7bea 0e3e f10d c7bd 36a5 3cbd
000003b0: db78 283e 1563 3abc 1e4e 19be ce1f 3c3e
000003c0: ec01 583e 1561 1cbe e705 933d 9fa8 30bc
000003d0: f12e e9bd f64b 86bd 3e20 843c 2823 fdbc
000003e0: 1ecf bd3d 004d fc3d f0a1 60bd d295 06be
000003f0: 2ddd c3bd e6f2 b23c f433 1c3d 3929 b6bd
-0.09900485 0.06855496 0.10582433 0.14551578 -0.13695154 -0.17014292 -0.04495538 -0.0130866915
-0.046973255 0.043494165 0.028610924 -0.040985838 0.02953198 0.14905953 -0.05319009 -0.08915189
-0.2446613 -0.00031034945 0.049970575 -0.10060185 0.06659935 -0.05592882 -0.16362187 0.09395274
-0.05115312 0.18060994 0.18501104 0.01648538 0.06258749 -0.016866311 -0.032684088 -0.05391246
0.2393818 -0.122631334 -0.05862327 0.04830771 0.05120418 -0.023465043 -0.043679155 0.17510094
-0.0071561816 0.14827095 0.028059524 -0.09738436 0.09068703 -0.02047019 -0.038911123 -0.1967304
0.0008040085 -0.11967299 0.16549417 -0.06786133 -0.032190055 -0.170148 0.026165858 -0.10725958
0.07542445 0.2312013 -0.046821058 0.07430391 -0.19229113 -0.046123493 0.20559514 -0.12653787
0.03173155 -0.03167953 0.21137176 -0.00635912 -0.12438174 0.2112577 0.012113436 -0.23787536
-0.026674958 -0.10181694 -0.059163343 0.13692963 0.05600376 -0.0852246 -0.08650438 0.09438135
0.08713952 0.0047899825 -0.023401804 -0.03713747 -0.0974865 -0.07579579 0.09027185 0.075356536
0.096265346 0.144825 -0.24775623 -0.03216745 0.067496166 -0.071648836 -0.1503484 -0.029870542
-0.031294487 0.21092875 -0.05804723 -0.09293725 0.008888066 0.011679406 0.19753742 0.091831915
-0.050806098 0.12176506 0.022143716 -0.23189943 0.03957154 0.1335285 -0.011602906 0.0042739
-0.13665545 -0.12075382 0.2105955 0.15627764 -0.032047797 -0.24784462 -0.2075456 -0.28775752
-0.079921 -0.03174912 -0.025532093 0.16451794 0.1404815 -0.01788048 -0.015684351 -0.07576202
-0.032173783 0.16914062 0.011266063 -0.081958 0.11002264 0.028095845 -0.21206899 -0.11208708
-0.08240606 -0.07976131 0.07140488 -0.11159603 -0.042072054 0.034077376 0.065368205 0.16161773
0.12067239 0.12384465 -0.10920828 -0.037774615 0.034545638 -0.014952618 -0.022166053 0.11368707
-0.030504925 -0.016910793 -0.059494983 0.063470334 0.07015423 -0.004787374 0.018000085 -0.2368921
-0.107948035 -0.051251225 0.16141608 0.048430927 -0.05592612 0.009290102 -0.092185654 0.026570445
0.12280591 0.14293428 0.3315068 -0.13639459 0.018817607 -0.17290205 0.12930875 0.17901865
-0.04750978 0.24856417 0.036534134 0.042828567 0.0027629845 -0.041270602 -0.06752854 5.164429e-05
0.115007125 0.010144786 0.20864727 -0.06414807 -0.17701821 -0.12120856 -0.09182544 -0.18225735
-0.007525481 0.17456353 -0.014366106 0.04632214 -0.12203778 -0.20163335 -0.11937537 -0.024301006
-0.017435284 0.106373586 -0.031124301 -0.076012485 0.29399222 0.134418 0.18842703 -0.021072665
0.0147389425 0.06733631 -0.044788342 -0.09034602 -0.070307136 0.006687776 -0.0012210185 0.07055636
-0.04002608 -0.021780279 -0.10839869 -0.19938508 -0.14827836 -0.022547664 -0.112352766 -0.16288398
-0.12426898 0.03313313 -0.110326454 0.15395138 -0.18582335 -0.060857043 -0.02086034 0.055656567
-0.0179098 0.13956635 -0.09719456 -0.046055995 0.16452353 -0.011376162 -0.14971206 0.18371508
0.21094483 -0.15271409 0.0717886 -0.01078239 -0.113859065 -0.06557457 0.016128656 -0.030900553
0.0926802 0.12319374 -0.054841936 -0.1314309 -0.0956367 0.021844339 0.038135484 -0.08894581

conv_block_1_1.0.bias f4 [8]
00000000: 643f 64bd def5 febd 38cd c43d 0ecb 75bc
00000010: f381 bfbc 5ea8 4c3d 1cb0 ecbd a0b3 2d3e
-0.055724517 -0.12449239 0.09609455 -0.015002025 -0.023377394 0.049965255 -0.11557028 0.16963053

conv_block_1_1.1.weight f4 [8]
00000000: a46e 7d3f 8b67 893f 0d46 893f 6c04 823f
00000010: 602d 723f b0f7 643f 2a24 843f f4d0 843f
0.9899695 1.0734724 1.0724503 1.01576 0.94600487 0.8944044 1.0323536 1.0376267

conv_block_1_1.1.bias f4 [8]
00000000: d63b 1fbe 9321 f8bd 2140 663c 2c73 993d
00000010: 1c73 80be bde8 edbd db2a 41be 03f1 bbbd
-0.1555017 -0.12115779 0.014053375 0.074926704 -0.2508782 -0.11616657 -0.18864004 -0.09176829

conv_block_1_1.1.running_mean f4 [8]
00000000: e554 803d fde8 10bf fddf 7e3f 43bc 28bf
00000010: 2617 413e b824 90be 550e 69bf a6db 433e
0.06266192 -0.5660551 0.9956053 -0.65912265 0.18856487 -0.28153014 -0.91037494 0.19126758

conv_block_1_1.1.running_var f4 [8]
00000000: 7a26 0c3f ddfd 0d3f 068d 1c3f 6cee 343f
00000010: 5974 003f fe5c ad3e 9ce6 d53e c58a a53e
0.5474621 0.5546549 0.61152685 0.706763 0.5017753 0.3386001 0.41777503 0.32332435

conv_block_1_2.0.weight f4 [8, 8, 3, 3]
00000000: 804b 8e3d 61f5 49be b18f bb3d a039 2dbe
00000010: 6ffb 3ebc 43ef a4bd e881 47bd ac8a 373d
00000020: 542c 083e 4edd c93d eca0 3ebe 90f4 ec3d
00000030: a438 a43d 8f83 f0bd 908c 85bd 091f 01be
00000040: 151a 0d3c 7bb6 b0bd d52e bebd 5a32 9fbd
00000050: 7a2f 32bd c589 8c3d 15ab 793d b39b 8cbc
00000060: 67e8 013e 537c 863c 75fb 92bd 2450 e43d
00000070: 60a0 4e3e ab9f 283e 1f79 753c 6a48 babd
00000080: 73e5 85be d66c 913e 15fe 1d3e 9c0b c3bd
00000090: 1c6d c03d 0d31 b5bd dd86 7a3e 37fa d03d
000000a0: 9257 52be 1541 cdbd 7ee5 eabc 7ffe 59bd
000000b0: 3aad 49be 8c60 bf3c 9f1b debd bb51 9ebc
000000c0: cd15 343e 732f 72bd 066b 583d b719 883b
000000d0: 7396 57bb 9daf e0bd bf82 86bd 1e07 3b3d
000000e0: c2bc f6bd 12a3 e0bb 7316 d4bc 97c6 7bbd
000000f0: f7bf 983d 876d 683e efad d43c 09d1 083e
00000100: 1c09 cabc ed4e 083d a160 e03d 11ca 9d3d
00000110: ca36 993d f337 6fbd c853 ce3d 3dee 03bd
00000120: 179d 9f3d a28b 203e 8c58 503e 7718 aabc
00000130: 11a4 e1bc eec3 05be e225 2b3d f590 f03d
00000140: db47 95bb e75a 343d 6e79 e7bd 453c 3a3c
00000150: 08c5 bc3d 30eb 663c 99a8 443e db5f c9bd
00000160: cfaf c93d 6579 7a3e 6012 4e3c cf05 093e
00000170: f945 373e 9129 673d 7b81 d93d f75a 8e3d
00000180: 33e3 60be cb5a 043d 3a67 143d 7b08 0cbd
00000190: 5f80 0b3d 7e38 19bd 098d 7cbd 6b80 8e3d
000001a0: 565f 033d 59f0 37be adef bdbd ccd0 30bc
000001b0: 8c58 043e dad2 2b3e 82c4 b03d e178 203e
000001c0: d4b1 b43d c683 b33d 2651 33bd 1aef ae3c
000001d0: de4f 14be 699f ac3d 3c2b 35bd 71e6 763d
000001e0: eead 083e 795c e93d 7edb 003e b0c7 c0bd
000001f0: 6838 ecbc a511 b03d 4b27 45bb b624 333e
00000200: 3a4e e8bd 3b46 25be fa3b a93d d594 453d
00000210: d454 c6bd f0d4 c5bd 1944 49bd 76c5 973d
00000220: da1a 1cbe 75d3 a83d 68d5 653d d619 f3bc
00000230: 4696 6b3d 4873 e13c 370f e6bd aacb 3ebd
00000240: 8e83 b23b 27b7 0b3e c739 c63d 00d1 363e
00000250: 2b8c 41be 2cbd 3d3e 477e cbbd c7e4 f6bd
00000260: c7a5 2cbe 5196 4d3c 51c2 6f3c d899 80be
00000270: d588 b8bc 7a9b 4e3e c421 0ebd b162 d2bd
00000280: 8489 313e d1ae bf3d 06d7 0f3e df00 69be
00000290: 0d89 87bd 929c 24be bdc4 56bd bc0b 55bc
000002a0: e9bc ddbd 8391 df3c 70c9 3fbe b861 45bd
000002b0: 3021 893d f4e2 bb3d 3dfd c3bb 7259 26bd
000002c0: b73b ef3c b591 82be 7d83 e33d 036e d03d
000002d0: 45ae 193c a83b 383d 29f5 603d 47f7 9ebd
000002e0: b15e 7bbd 2b49 693d d587 6d3e 609d 513e
000002f0: 61c8 843c 286d f63d 6ff6 cc3d 9fc0 213e
00000300: 7033 10be bf15 2fbd 6118 fb3b 2975 00be
00000310: aa01 403d e541 c33d 6d09 c2bc 7b3c 5abe
00000320: 8dfe 4cbd 7720 75be 7d95 68bd a76e 733d
00000330: 01af 283e 713f 833d 71c5 583d 1922 563d
00000340: 33b3 733d fb5b 33bd 2a73 05be fe36 cfba
00000350: f792 0abe 216f 30be 4966 783c 02fb a8bd
00000360: c2b6 9fbd 8e8f 1dbd 790a 8d3d 4d0b fe3d
00000370: 0bc1 9cbd a7f4 76bd b50d 6fbd 9322 dfbc
00000380: 436d 8bbd a22e 413e 05b0 4a3e 1e88 873c
00000390: 90c1 c5bd 7568 d4bd 6bc7 cbbd f273 453d
000003a0: cc6d 84bd 3356 303c 50ed 4d3d 3bfa 3bbe
000003b0: 919e e23c 9fbe 73bd ce21 cbbc a85b 33bd
000003c0: 3ab6 f7bc d037 9fbe c8c2 b43d c6db c93d
000003d0: b13f aa3c 8a6d 64be 6c01 3a3d 71e5 213d
000003e0: 86e6 68be 0b01 0c3e 6eaa d43d afc1 953c
000003f0: 44e3 15be 179b 20be 070a 673c aab7 b43d
0.06947994 -0.19722511 0.09158266 -0.16916513 -0.011656626 -0.08053448 -0.048707873 0.044809982
0.1329816 0.09856664 -0.18616074 0.11570084 0.08018616 -0.11743843 -0.06520951 -0.12609495
0.0086121755 -0.086285554 -0.09286276 -0.07773276 -0.04350231 0.06862215 0.060954172 -0.017164087
0.1268631 0.016416704 -0.07176868 0.11148098 0.20178366 0.16467158 0.014982491 -0.09095843
-0.26151618 0.28403348 0.15428956 -0.09523699 0.09395811 -0.08847246 0.24465509 0.10203975
-0.20541218 -0.10022179 -0.028673884 -0.053221222 -0.19694987 0.023361467 -0.10845112 -0.019326081
0.17586441 -0.059127282 0.05283644 0.004153456 -0.0032896071 -0.109709956 -0.065679066 0.045661084
-0.120477214 -0.006855377 -0.02588961 -0.061468687 0.074584894 0.22698031 0.025961844 0.1336099
-0.024662547 0.033278394 0.109559305 0.07704557 0.07481153 -0.058402967 0.10074574 -0.032209624
0.077936344 0.15678266 0.20346278 -0.020763619 -0.027544053 -0.13063022 0.041784175 0.11746398
-0.004555685 0.044032004 -0.11302458 0.011366908 0.09217268 0.014094159 0.1920494 -0.09832736
0.09847986 0.24460371 0.012577623 0.13381122 0.17897786 0.056436125 0.106203996 0.06950944
-0.2196167 0.03231315 0.036231257 -0.034187775 0.03405797 -0.03740739 -0.06165794 0.069580875
0.03207334 -0.17962779 -0.0927423 -0.010791969 0.12924403 0.16779652 0.08631231 0.15671112
0.088229805 0.08765368 -0.04377856 0.021354247 -0.14483592 0.084288426 -0.044230685 0.06027836
0.13347599 0.11394591 0.1258373 -0.09413087 -0.02883549 0.085971154 -0.0030083235 0.17494473
-0.113430455 -0.16140072 0.08263393 0.04823764 -0.096841484 -0.09659755 -0.04913721 0.074107096
-0.15244618 0.08243457 0.056111723 -0.029675405 0.05751636 0.02752079 -0.11233371 -0.046580948
0.0054478114 0.13644086 0.09678989 0.17853165 -0.18901126 0.18529195 -0.09936195 -0.120553546
-0.16860114 0.012548045 0.014633731 -0.25117373 -0.022526184 0.20176497 -0.03470017 -0.1027273
0.17337614 0.093595155 0.14046869 -0.22754239 -0.06617937 -0.16075352 -0.052433718 -0.013003286
-0.108270474 0.027291065 -0.18729186 -0.048188895 0.06695783 0.09174147 -0.005981116 -0.040612645
0.029203279 -0.2550179 0.11109064 0.10177233 0.009379928 0.044978768 0.054921303 -0.07762008
-0.0613696 0.056954544 0.23196347 0.2047019 0.01620883 0.12032539 0.10007941 0.15796135
-0.14082122 -0.042745348 0.0076628183 -0.12544693 0.046876587 0.09534053 -0.023686135 -0.21312134
-0.050047446 -0.23938166 -0.056783188 0.0594317 0.16473009 0.06408585 0.05292267 0.05227861
0.05949707 -0.04378889 -0.13032213 -0.0015809236 -0.13532625 -0.17229892 0.015161105 -0.08251001
-0.0779853 -0.038466983 0.06886763 0.12404499 -0.076540075 -0.060291912 -0.05836268 -0.027238166
-0.068079494 0.18865445 0.19793709 0.016544398 -0.0965606 -0.10371486 -0.09950145 0.048206277
-0.064662546 0.010762739 0.050275147 -0.18357174 0.027663501 -0.059507962 -0.024796393 -0.043788582
-0.03023826 -0.3109727 0.08826214 0.098563716 0.020782324 -0.22307411 0.045411512 0.039525453
-0.22744188 0.13672273 0.103840694 0.018280832 -0.14637476 -0.15684162 0.014101512 0.08824094

conv_block_1_2.0.bias f4 [8]
00000000: a4da 303e 6fdd ac3d 7179 17bd d99d c63d
00000010: 4e1c b8bc faa3 cbbd 6d8a ba3b 8b88 a43c
0.17270905 0.084406726 -0.03698105 0.09698076 -0.022474434 -0.099433854 0.005692771 0.02008464

conv_block_1_2.1.weight f4 [8]
00000000: e98b bf3f 5e3b 873f 61aa aa3f 27ab 9f3f
00000010: 079c a83f 7ece 8d3f cf46 933f 0767 bf3f
1.4964572 1.0564992 1.3333246 1.2474107 1.3172616 1.1078641 1.1505984 1.4953316

conv_block_1_2.1.bias f4 [8]
00000000: b1c6 843e e25f 23be 2917 f73c 6492 a43d
00000010: 638e 8b3c ad06 babc 0640 d53c 3367 753d
0.2593284 -0.15954545 0.03016241 0.08035734 0.017035669 -0.022708261 0.026031505 0.05991287

conv_block_1_2.1.running_mean f4 [8]
00000000: 1726 843e 2583 133f 89f0 70be 1314 e5bd
00000010: 093c d8be 61db c6bc ab1e 5a3d 9e8d b3be
0.2581031 0.57621986 -0.23529257 -0.111854695 -0.42233303 -0.02427453 0.053251904 -0.35068983

conv_block_1_2.1.running_var f4 [8]
00000000: b6f3 883e 52bf bc3e 4fdf 8d3e 3051 823e
00000010: 2955 823e 0b4d 813e 9efd 963e e501 bf3e
0.26748437 0.36864716 0.27709433 0.25452566 0.25455597 0.25254092 0.2949037 0.37306133

conv_block_2_1.0.weight f4 [16, 8, 3, 3]
00000000: 8c5c 673e 83a1 173c 8426 953e 95e7 e83d
00000010: 5df6 d63d 9a3c fbbd 3b95 9f3d ca40 10be
00000020: 54fc 6a3e a265 edbc 63de 70be 4ae2 06bd
00000030: 7eed 9d3c a832 84be e72f 75bd d1c9 9ebd
00000040: c0e4 66bd 4627 4fbd c047 983d 49b0 1f3e
00000050: fe4a 8c3b def4 a93d abfb be3c 2087 a53d
00000060: 44e8 d0bd c4c0 9fbd 4bcc 3cbd 00c8 c43d
00000070: 551e 0bbe 81e6 a93c 906b acbc fa3d 2c3d
00000080: da83 1dbe 425f 21bd 57ed 473d 1396 0d3e
00000090: d0fe 703d be91 afbd 4701 d2bd bf4b 813d
000000a0: d0dd 24be 20ba fd3d f715 4e3c 164f e23b
000000b0: a8f7 b73c a258 013e 59f3 21bd 3919 01bd
000000c0: b6ca 063e d867 c0bd e6ed 793d 6300 a6bd
000000d0: 7eed 8cbd 556e 8a3c f180 b63d 8952 ae3c
000000e0: ae92 193e 79d1 013e bbb3 1abc 4c2a 083e
000000f0: 6185 fa3d d6ef a13d ee4c 783d bc23 f13b
00000100: d2a0 3bbb 1bc7 8bbd 8b4f 2abe c2fd 25be
00000110: 332d 38be 0793 a13c 1a21 043d 52c0 45bd
00000120: ba70 04bd 648a 86bb 759c c2bc 86ed 36bd
00000130: e26b 273e f052 203e 17e4 e83c 41e4 a23c
00000140: 2711 c8bd 78fd 053d 09c9 593d ca43 33bc
00000150: 9847 57be b5a2 4a3d b895 0d3c 7e7f 26be
00000160: 8064 b2bd 09da 7d3d 13b0 803d 049d f23d
00000170: 9630 643e df97 45be 5ca1 0c3d 8e82 77bd
00000180: c5c1 bdbd 3aac ee3d f1cf 78bd b607 153c
00000190: fc4a cebd 7a69 d33d 1484 86bd de29 45bd
000001a0: 05da 683c ff3c 673d 5eff 433d 68c2 a4bd
000001b0: d55b 10be c0c3 acbe e8ab 34bd 7154 d13d
000001c0: 62cb fe3d 8d8f 0d3e ffa6 243d c757 d4ba
000001d0: 7d1e 523d 3b57 53be 783d 8ebe 3732 08be
000001e0: 0fce 18bd a15b 633d 238e 4e3e 71c6 783e
000001f0: 4a38 893e f3c2 193e 240a 54bd 6596 e2bd
00000200: dde5 593d 969c 8cbe 4bc0 023e 63bd 51bd
00000210: 609b 82bb 41da 8b3d 0604 25be bc9f 173d
00000220: 136b f03b e9f7 9cbd ef3a 293d 4d71 233c
00000230: 23c2 e83b 793d 6f3c 0445 24bc da79 5ebe
00000240: a307 b03d c1e8 cfbc fa6a 2f3e 60b6 77bd
00000250: a7e5 773c 66b5 f8bd fb5e 42bc 7fa5 9dbc
00000260: b013 be3d feba adbd 434a a13c 4292 963c
00000270: 7cd4 94bd c4d6 6fbe 0fa9 c1bd 55da d6bd
00000280: 2eff 18be e7c9 3ebe cd41 3dbe b88d 72bd
00000290: 4f7d b9bd 4117 f83d 8088 0b3e 835e 303e
000002a0: b2d4 c53c 2226 883e 6989 27bc 2ccc 223d
000002b0: 5f5c 353c 95d3 efbd 0e89 54bb 8d0e 4c3d
000002c0: b44a ff3c 1dbf 9a3c 49c3 d53d 063c 983b
000002d0: b81b 88bd bcf8 18bd 57ba 51bd 2636 24bd
000002e0: f33c 043e cbbe 0f3e 9e02 533d 3453 efbd
000002f0: d382 ae3c ff21 4b3d 9c2b c8bb f104 21bd
00000300: a3e7 cd3d 7454 983d 8579 f63d 4f2f a13d
00000310: a9c2 85bd 919c b7bd 51c3 453d b7bb 7f3d
00000320: 80eb 4cba a951 b43b 6aa4 923b 82ca 4fbd
00000330: 618e 16be 8ce3 57bd f8fc dcbd 2f61 da3d
00000340: d735 123e 2d99 243e 8647 77be 6522 8f3d
00000350: b5b4 51bd fcc8 12be cfd1 9fbd 7e51 ff3d
00000360: 6416 8f3d cf20 07be 3046 7b3c ae1f 73b9
00000370: c0e3 64be eb2e 6bbd ba1b 39bd 2dc9 bd3d
00000380: a9ba 71be d9b7 b23d 6c5a 7ebe aee7 08be
00000390: dc9d 12bd 63b7 b5bd 11fe 50be 4445 cc3d
000003a0: bafc e8bc e30f 133e e449 12bd 8f74 a13d
000003b0: 1353 243e d18b 88bd 8d27 e23d 4063 b9bd
000003c0: bf7c 31bd 3768 ad3d 4f4e 233e 5921 c6bd
000003d0: 2e27 4bbe 8281 1abe c5e8 b5bd b048 63bc
000003e0: 7c46 37bd 3c50 95bd 5108 833d 456c 18be
000003f0: 0946 5e3c 61ba 333d 54cc 37bd e4df ffbb
0.22593898 0.009254816 0.29130948 0.11372296 0.10496209 -0.12267418 0.07792135 -0.14087215
0.22947818 -0.028979126 -0.23522334 -0.03293065 0.019278284 -0.25819898 -0.059860136 -0.07753337
-0.056370497 -0.050574563 0.0743556 0.15594591 0.0042814007 0.08298658 0.023313364 0.08082414
-0.10200551 -0.07800439 -0.046093266 0.096084595 -0.1358579 0.020739796 -0.021047384 0.042051293
-0.15382329 -0.039397486 0.04881033 0.1382678 0.058836758 -0.0857272 -0.1025415 0.063132755
-0.1610024 0.12389016 0.012578479 0.0069064004 0.022456959 0.12631467 -0.039538715 -0.031518195
0.13163266 -0.093948066 0.061017893 -0.081055425 -0.068812355 0.016898314 0.08911312 0.02127959
0.1499736 0.12677564 -0.009442265 0.13297385 0.12232471 0.07907073 0.06062024 0.007358996
-0.0028629792 -0.06825086 -0.16631906 -0.16210082 -0.17985992 0.019723428 0.03225813 -0.048279114
-0.032334067 -0.004105853 -0.023756245 -0.044660114 0.16349748 0.15656638 0.028429074 0.01988423
-0.097688965 0.03271243 0.053170238 -0.010941455 -0.21023405 0.049471576 0.008641653 -0.16259572
-0.08710575 0.061975513 0.062835835 0.118463546 0.22284159 -0.19296215 0.03433357 -0.06042724
-0.09265474 0.11653943 -0.060745183 0.009096077 -0.10072896 0.103228524 -0.06568161 -0.04813563
0.014212136 0.056454655 0.04785096 -0.080448925 -0.14097531 -0.33743095 -0.044109255 0.10221184
0.12441136 0.13824292 0.040198322 -0.0016200476 0.051298607 -0.20638745 -0.27781272 -0.13300405
-0.037305888 0.055507306 0.20171408 0.2429445 0.26800758 0.15015773 -0.051767483 -0.11063842
0.05319773 -0.27463216 0.12768666 -0.051206004 -0.0039858073 0.06828738 -0.16114816 0.03701757
0.007336983 -0.076644726 0.04131597 0.0099757435 0.007103221 0.014602059 -0.01002622 -0.2172617
0.085952066 -0.02537954 0.17130652 -0.06047666 0.015130437 -0.12143974 -0.011863465 -0.019243954
0.09281099 -0.084829316 0.019688731 0.018380288 -0.07267091 -0.2342177 -0.094560735 -0.10490862
-0.14941093 -0.18631707 -0.18482132 -0.059217185 -0.09057104 0.1211381 0.1362629 0.17223553
0.024149273 0.26591593 -0.010225632 0.039745495 0.011069386 -0.11710278 -0.0032430324 0.049818564
0.03116355 0.018889958 0.10437638 0.004645827 -0.06645912 -0.037346587 -0.0512031 -0.040090702
0.12913875 0.14037625 0.051516168 -0.116857916 0.021302616 0.049592968 -0.0061087143 -0.039311353
0.10053947 0.07437983 0.12034897 0.078703515 -0.06531269 -0.089654095 0.04828197 0.06243488
-0.00078170747 0.0055028987 0.004475166 -0.050730236 -0.1470275 -0.05270724 -0.107904375 0.106630675
0.14278351 0.16074057 -0.24148378 0.06988982 -0.051197726 -0.14334482 -0.0780369 0.12466715
0.069866925 -0.13196109 0.015336558 -0.00023186087 -0.22352505 -0.05741779 -0.045192458 0.09266887
-0.23606361 0.087264724 -0.2483918 -0.13369629 -0.035795078 -0.08872869 -0.20409419 0.09974149
-0.028440822 0.14361529 -0.035715 0.0788356 0.16047315 -0.06667293 0.110427 -0.090521336
-0.043331858 0.08467143 0.15947841 -0.09674329 -0.19839165 -0.15088466 -0.08882288 -0.0138723105
-0.044744954 -0.07290694 0.063980706 -0.14885052 0.013566502 0.043878917 -0.044872597 -0.0078086723

conv_block_2_1.0.bias f4 [16]
00000000: 1cb5 0b3e 7b47 d03d 8eba d83c a03c 73bd
00000010: 34e4 98bd e523 90bd 8e70 c43d 3947 06b9
00000020: 3167 483c 292b a63d fc77 123d f531 e13c
00000030: 9b79 963d 008f 783d 421c cebd 4e48 a83d
0.13643306 0.10169884 0.026456144 -0.05938399 -0.07465401 -0.07038096 0.095917806 -0.00012805768
0.012231634 0.08113701 0.035758957 0.027489642 0.07347413 0.06068325 -0.100639835 0.08216916

conv_block_2_1.1.weight f4 [16]
00000000: cb22 693f 7e42 733f 1562 693f c401 693f
00000010: 4db7 843f a10a 7b3f 6cac 653f cb83 653f
00000020: 727b 7e3f 4dd1 643f 44c4 443f 06fd 833f
00000030: 3dc1 7d3f f00c 863f 8ba1 723f 18cb 873f
0.91068715 0.95023334 0.91165286 0.9101832 1.0368439 0.98063093 0.8971622 0.89654225
0.9940711 0.8938187 0.7686198 1.0311592 0.99122983 1.0472698 0.94777745 1.0608854

conv_block_2_1.1.bias f4 [16]
00000000: 8713 8abe 10d9 9bbd f46f 9abe cea5 febd
00000010: 8489 c1be cab6 443c 566b 87be 179a b7be
00000020: 8c02 a5be 9d53 aebe b588 3ebe aba3 cebe
00000030: 2418 16be 84f0 84be 0c67 09be 0435 46be
-0.26968023 -0.07609761 -0.30163538 -0.124339685 -0.3780023 0.012006471 -0.26449078 -0.3585975
-0.32228506 -0.34048167 -0.18606837 -0.40359244 -0.14657646 -0.2596475 -0.13418216 -0.19356161

conv_block_2_1.1.running_mean f4 [16]
00000000: bbc5 573f ce60 2e3e e20c 7a3e 5947 28c0
00000010: f53c 11bf e211 31be d499 383e a94a c8bf
00000020: 58e5 09c0 4e13 11bf e313 a3bf 11f8 81bf
00000030: 1f10 0fc0 af80 84bf 422e 36bf 9ee0 87bd
0.8428609 0.17029116 0.24418977 -2.6293547 -0.5673364 -0.17291978 0.18027431 -1.5647784
-2.154623 -0.5667008 -1.2740444 -1.0153829 -2.235359 -1.0351771 -0.71164334 -0.06634639

conv_block_2_1.1.running_var f4 [16]
00000000: 6eee d63f 292c b93f 5d6a a83f 10ea d43f
00000010: 00ab a03f e15d cd3f d9b2 853f 6456 b43f
00000020: b911 be3f 893e b33f 7975 843f 6ea0 983f
00000030: e4dd ef3f a10f b53f 5f9a be3f 1048 0240
1.6791513 1.4466602 1.315746 1.663393 1.2552185 1.6044275 1.0445205 1.4088864
1.4849159 1.4003459 1.034835 1.1923959 1.8739591 1.4145395 1.489086 2.0356483

conv_block_2_2.0.weight f4 [16, 16, 3, 3]
00000000: 3f25 e53d cbea 803d f627 d73d 3f88 5b3d
00000010: c60b 28bd 40a7 fd3d bd9c ea3d 2368 ab3b
00000020: bba5 473e b78a fbbd 3e12 79bd e648 a3bd
00000030: 8fd9 cbbd 7492 d6bd 293b bebd c5ba fdbd
00000040: 538d b2bd e6e8 b8bd f1e9 a83d 880a 87bc
00000050: e6cb 6bbd a345 f43d 59ab fe3c 3376 dabd
00000060: ec34 343e 7741 b13d 8615 1a3d 8878 98bd
00000070: 970a 70bd ef8c 513d 310e c6bc b7a9 28bd
00000080: 4ec8 763d d976 dcbd e103 10be f0d7 353d
00000090: b9a3 9f3d 59d6 c93d 6c2a 3a3e c0d5 c23c
000000a0: 4331 943d 0785 f53d 2056 9a3d e63b 033e
000000b0: 4e16 333e bf21 cfbd 7b65 fb3c e35f 073d
000000c0: 0751 ddbc dd7a a03d 573d 8e3d 3a4b e3bd
000000d0: 8b94 083c 7eeb a2ba fa08 163e f677 c5bc
000000e0: fc19 03bd fc55 fb3d b222 653c 1cbf d23d
000000f0: 93e8 493d 0f3c 03be 4a41 11bd 7989 323e
00000100: 3d48 fa3d bc1b a23d ef63 243e b21e dc3d
00000110: abfb 643d ad0f 763d fa87 cc3d 2ccd 373d
00000120: 9798 2fbd c478 abbd 6ff5 02be ef99 8ebd
00000130: a537 d13b 32b2 94bd 9d91 0ebd 3db8 d63c
00000140: 83f4 82bd 6dc7 663e 6607 973d 7dbc a73d
00000150: bad3 1a3e f878 033d c3ac 873c a2c3 c43d
00000160: 85e3 823d f58c 6f3d 3b87 48bd 3ba2 c2bd
00000170: 8ee9 19bc 9be9 a23a f49d 71bd 00c5 323d
00000180: c25e a23d c244 223c 877b 533e 4933 1a3e
00000190: 7cd8 f03d fa17 ca3d 5022 e13d 3a62 343e
000001a0: 94d5 0b3e 2bf7 0a3d 8d22 9a3d 7c40 ba3d
000001b0: 5fa2 823d 67ef cb3d f373 f43d bcfa 913d
000001c0: 570d 153e 3b95 113e cbd1 e0bc 2f8c 8f3d
000001d0: 15fc 333d 5b1b 97b8 15ed 993d 1aa6 ea3d
000001e0: ffe6 943d 339f 003e 0643 de3d 4bb9 f13d
000001f0: 632a 863e 4f78 913e 7472 c6bd 4eb0 87bd
00000200: 6e44 d7bd 9d78 55bd 0fd6 c2bd f1b4 babc
00000210: e20f 9a3c 8ed7 8abd bcf2 15bc 7729 af3d
00000220: 51c8 e43d 8c6b a83d 277b 1b3e 5699 0b3e
00000230: d0e1 f03d a14e 9f3d 241f 273d fcba c73d
00000240: 6926 a63d af79 ab3d 3918 013e a45c bd3d
00000250: f141 803c f104 a83d fd4c ae3d e664 c53c
00000260: 895d 4d3e 8538 fbbd 8eef a3bd 3cea 53bd
00000270: 1820 0abe 3a4e bcbd 393a c4bd f2b8 22be
00000280: 527d afbd 267e 97bd 4cb4 e63d e09b 34bd
00000290: 54ac 76bd efc3 a63d 72e9 043d b541 e6bd
000002a0: d8fb 503e a039 e73d d08c 753d bb52 cdbd
000002b0: 8af6 05bd 5465 823d 2c85 91bd 64b7 87bc
000002c0: b13d 613d 8296 89bd 6f73 b0bd 0ef0 333d
000002d0: 21dd 8e3d 244b bf3d a29a 393e f580 063d
000002e0: 84d5 b23d e125 d03d b8e2 993d 9729 143e
000002f0: 016c 383e 448e b6bd 4bf4 973d 4b24 2a3c
00000300: c790 9ebc 2e4b ec3d 9372 c93d a5f8 dcbd
00000310: af68 093d 4813 1bbc 58d5 0f3e aeb3 06bd
00000320: 679d c23b 4ada 1a3e d44b 29bd 57b8 af3d
00000330: 0168 723c 418f 14be acd1 593c 6df7 253e
00000340: c1cf e43d 4888 663d d650 093e 16e2 bc3d
00000350: 0013 573d 85c4 c03d a045 d33d d83e 513d
00000360: 6737 5abd 50a3 fbbc f66d 2ebe 0c01 28bd
00000370: 4aa2 a3bd a658 e1bd f1c3 88bd c55b 0abc
00000380: 8362 57bd 7c9d 3d3e 848a 8d3d b1b0 d33d
00000390: 9398 093e def1 cf3c e834 6e3c e5d2 273e
000003a0: 55dc b73c bf19 c63d 40cb 9fbc b039 e0bd
000003b0: e63b cc3c 2d15 3ebd 0957 bcbc 11db 0d3d
000003c0: 6c18 8d3d bc7a 853c 00ff 2a3e a1eb 1f3e
000003d0: 69fa b63d 8459 063e 8604 023e 309e fd3d
000003e0: 7dc7 053e 4da6 843d 7c29 ab3d 0978 123e
000003f0: 3907 7f3d 1875 903d 5332 063e 48f1 413d
0.11188745 0.06294783 0.10505669 0.05359673 -0.041026853 0.12385416 0.11455677 0.00523092
0.19496815 -0.12282317 -0.060808413 -0.07972889 -0.099536054 -0.104771525 -0.09288628 -0.12389139
-0.08718362 -0.09028797 0.08247746 -0.016484514 -0.0575675 0.11927345 0.031087564 -0.10667076
0.17598313 0.086550646 0.037618183 -0.074448645 -0.05860385 0.051159795 -0.024176689 -0.041177478
0.06024962 -0.10764856 -0.1406398 0.044395387 0.077948995 0.09855337 0.18180245 0.023783565
0.072359584 0.119882636 0.07535958 0.12815818 0.17488977 -0.101138584 0.030688038 0.03305043
-0.027016176 0.07835934 0.069452934 -0.11098333 0.008336197 -0.0012429801 0.14651862 -0.024105053
-0.032007203 0.122722596 0.013985323 0.102903575 0.049294066 -0.1281588 -0.035462655 0.17435254
0.122208096 0.07915446 0.16053747 0.10748042 0.05590407 0.060073543 0.09986873 0.0448734
-0.04287013 -0.083726436 -0.12788938 -0.06962954 0.006384807 -0.072605506 -0.034806836 0.026210899
-0.06394293 0.22537012 0.07374458 0.08190248 0.1511983 0.032097787 0.016561871 0.096076265
0.06391052 0.058484036 -0.04895709 -0.09503599 -0.009394063 0.0012429239 -0.058988526 0.043644905
0.0792823 0.009904088 0.2065259 0.15058626 0.11760041 0.098678544 0.10992873 0.17615595
0.13655692 0.033927124 0.07526121 0.09094331 0.06378626 0.09957772 0.11936178 0.07127902
0.1455587 0.14217083 -0.027443787 0.0700916 0.043941576 -7.2053364e-05 0.07515923 0.114574626
0.072706215 0.1256073 0.108526275 0.1180292 0.26204214 0.284121 -0.09689799 -0.06625424
-0.10511099 -0.05211698 -0.09513485 -0.022791358 0.018806402 -0.06779395 -0.009152111 0.08552831
0.1117102 0.08223638 0.15183698 0.13632712 0.1176182 0.07778669 0.040801182 0.09752461
0.08112795 0.08372819 0.12606896 0.092461854 0.015656443 0.082040675 0.08510778 0.024095964
0.20055212 -0.122666396 -0.08004676 -0.051737055 -0.13488805 -0.09194608 -0.095814176 -0.15890864
-0.08568825 -0.07397108 0.11264858 -0.044093966 -0.06022294 0.0814284 0.032449193 -0.11243001
0.20408571 0.11290288 0.059948742 -0.10025545 -0.03270582 0.06366983 -0.07105479 -0.01656694
0.054990474 -0.0671816 -0.08615767 0.043930106 0.06975771 0.09340504 0.18125394 0.032837827
0.08732131 0.10163475 0.07513946 0.1446899 0.1800995 -0.08913854 0.07419642 0.0103846295
-0.019356145 0.11537777 0.098363064 -0.10789613 0.0335471 -0.009465046 0.14046228 -0.0328862
0.005939174 0.15122333 -0.04133208 0.08580082 0.014795304 -0.14507772 0.013294619 0.16207667
0.111724384 0.05628231 0.13409743 0.0922281 0.052508354 0.09412483 0.10316014 0.051085323
-0.053275492 -0.030717522 -0.17034134 -0.041016623 -0.079899386 -0.110032365 -0.06677998 -0.008444731
-0.052584182 0.18517107 0.069111854 0.103364356 0.13437109 0.025383886 0.014538981 0.16389044
0.02244393 0.096728794 -0.019506097 -0.10948503 0.024930906 -0.046406914 -0.02299072 0.034632746
0.06889424 0.016293876 0.16698837 0.15617229 0.08934481 0.13120085 0.12697038 0.123836875
0.1306438 0.06477032 0.08357522 0.14303602 0.062262747 0.07053584 0.13105135 0.047349244

conv_block_2_2.0.bias f4 [16]
00000000: 9e98 41bd fc2a 843c 8d2a 413c 54b8 5a3d
00000010: 25ea f33c d7ca 8e3d a962 f03c daf2 9d3d
00000020: 164b fdbb b051 18bd f758 cbbc 518e 0c3d
00000030: d1e8 f33b 2816 983a 0389 1a3d faea 823b
-0.047264688 0.016133778 0.01178993 0.053398445 0.029774735 0.069722824 0.02934392 0.07712336
-0.007729898 -0.03718728 -0.024822695 0.03431541 0.0074435254 0.0011603283 0.03772832 0.0039952965

conv_block_2_2.1.weight f4 [16]
00000000: 770e ec3f 1d43 d93f c3c9 3040 b66c e03f
00000010: cbb1 3d40 55fd 2a40 c053 e33f d83f 3040
00000020: 7782 2f40 3bbf e93f fdad 3040 0dd9 3940
00000030: a029 2840 d2e7 2f40 0da2 da3f bd35 4040
1.8441914 1.6973606 2.7623146 1.7533176 2.9639766 2.6717122 1.7759933 2.7538967
2.742338 1.8261484 2.7606194 2.9038727 2.6275406 2.7485242 1.7080704 3.00328

conv_block_2_2.1.bias f4 [16]
00000000: 6f2f bb3d b013 343e 9581 6d3e e04d 133e
00000010: 9390 753e 047d 0e3e 8275 813e 84b3 383e
00000020: 9e1d 613e cc41 3b3e 6942 0e3e 4186 4f3e
00000030: ee42 233e 2e1a 5d3e 8b15 6a3e d6ff 613e
0.091399066 0.17585635 0.23193963 0.14385176 0.23980932 0.13914877 0.25284964 0.1803723
0.21983954 0.18286818 0.13892521 0.20266058 0.159435 0.21592018 0.2285978 0.2207025

conv_block_2_2.1.running_mean f4 [16]
00000000: a096 7e3f 26e4 883f 1a03 48bf b16e 8c3f
00000010: a680 61bf 4134 52bf 6f86 8f3f 23a3 47bf
00000020: cd39 6fbf 72fc 863f 5767 66bf 7299 43bf
00000030: ce8a 50bf 0642 5cbf 6ee9 8e3f df72 6cbf
0.99448586 1.0694625 -0.7812973 1.097128 -0.88086927 -0.82110983 1.1212901 -0.779833
-0.9344757 1.054579 -0.90001434 -0.76406014 -0.814618 -0.86038244 1.1164987 -0.9236278

conv_block_2_2.1.running_var f4 [16]
00000000: a00c 783e 04b8 6f3e bcb3 6c3e 3411 713e
00000010: 723c 8a3e d17b 733e 4fd0 8b3e 8f93 663e
00000020: b635 8a3e 674f 803e 0402 7b3e b6f5 873e
00000030: 718c 5f3e 4bd3 6d3e 5db0 773e c079 8d3e
0.24223566 0.2341004 0.23115438 0.23541719 0.2699924 0.23777701 0.27307364 0.22517227
0.26994103 0.2506058 0.24512488 0.2655465 0.21830918 0.23225133 0.24188371 0.2763195

concat_adjust.weight f4 [16, 8, 1, 1]
00000000: 7b29 dc3e cfda 8a3e 6b9d a83e 4d6d c73c
00000010: 5ad7 66be 2014 003f 8760 c93e 9e2c 953e
00000020: 5cc6 b43e 8f57 833e 9551 0abd f421 f1bd
00000030: c835 493e cc0c 123f 856e 7a3e d41c 203d
00000040: 50b8 ae3e cab4 98bd 53af a33e f3c8 883b
00000050: 9ec1 bd3c cbfc 14be b1af 67bc 5991 b03e
00000060: bf46 be3e d0d1 c93c cf99 a93d 0de2 813e
00000070: 655c 2f3c 9f8f 953e 60c9 f23e b2f1 0bbc
00000080: b11b ac3e d1ac aa3e f743 a63e 8f8c 393e
00000090: da6a 803d 68ad 48be 0a6c 74bd 0c24 ba3e
000000a0: 8fe4 873e 0b1a 99bc 52db c23e ea9f 2bbb
000000b0: bb7e 6e3e fbca 51be 86e8 5b3d 6ca5 ec3e
000000c0: 3a18 cf3e b995 b43e dc8f 193e 0c2d 83bc
000000d0: 75db 34bd a8a4 bf3d d707 143f 0269 4a3d
000000e0: 4c0b b73d b184 82be 35e9 4e3d 09a3 d83e
000000f0: 1576 623e 7150 82bd 975b 383e 8f86 ef3e
00000100: f771 d43e 9556 23be 3d67 763e 45ff cebc
00000110: b3c1 b73d 3f8f 7a3e 6de2 5bbe 051b d33d
00000120: fc6d c53e 1db5 183f 260f febd f92c 22bd
00000130: 4b70 ccbb 9309 143f 5b69 fc3e 3b57 ad3e
00000140: c66c 903e 8dd2 b7bd cd60 b63e f95c cf3d
00000150: 94c3 413e 630f 15be 08fb c23d 4aaa a83e
00000160: b0ec fa3d e65f 9e3e fe55 c53d 1e42 503e
00000170: afd3 eb3e 6fcd 263e 606f d5bd fe07 043e
00000180: e648 433e 08eb 253c 81c4 203e 6293 ad3e
00000190: 985d 8c3e 12c9 57be 0361 81be e04a 033f
000001a0: c94b 3b3e b79b 97bd fb7d 3dbd 14bb f93e
000001b0: 0b61 b43e 3c6a 35be a7b0 59be 2a69 083f
000001c0: 3502 d13e 2f16 823e 68e3 0abd b7d4 d73e
000001d0: c00b 84bd f6ca ff3e 8e5e 203b f1d9 e7bd
000001e0: 24f2 a9bd e640 b23e ae1c fc3e 5b07 e7bd
000001f0: dca0 e53e 7267 24be bd0f 72be 7ed0 d93e
0.43000397 0.27120063 0.329326 0.02434411 -0.22543088 0.5003071 0.39331457 0.29135603
0.35307586 0.2565274 -0.03376921 -0.11774054 0.19649422 0.57050776 0.24456222 0.039089993
0.34124994 -0.07456358 0.319697 0.0041743456 0.023163613 -0.14549558 -0.014141009 0.3448589
0.3716335 0.02463618 0.0828129 0.25367776 0.010703181 0.29211137 0.47419262 -0.008541511
0.33614877 0.33334973 0.32473728 0.18120025 0.0627038 -0.19597399 -0.059673347 0.36355627
0.26541564 -0.018689176 0.38057953 -0.0026187846 0.23290531 -0.20487587 0.05368855 0.46219957
0.4044817 0.3527048 0.14996284 -0.016012691 -0.044154603 0.093575776 0.5782446 0.04941655
0.089377016 -0.2549186 0.050515372 0.42311886 0.22115357 -0.06362999 0.18003689 0.46782348
0.41493198 -0.15950997 0.2406282 -0.025268206 0.08972492 0.24468707 -0.21473093 0.10307888
0.38560474 0.59651357 -0.12405233 -0.03959367 -0.0062389723 0.5782711 0.4929913 0.33855614
0.28207988 -0.08975706 0.35620728 0.10125155 0.18922263 -0.14556651 0.09520537 0.3294242
0.12252176 0.3093254 0.09635542 0.20337722 0.4605994 0.16289304 -0.10421634 0.12893674
0.19070777 0.010126837 0.1569996 0.33901507 0.27415156 -0.21072796 -0.25269327 0.51286125
0.18290628 -0.07402747 -0.046262722 0.48775542 0.35230288 -0.17716306 -0.21258794 0.5328547
0.40821996 0.2540755 -0.033908278 0.42154476 -0.06447554 0.49959534 0.0024470421 -0.11320866
-0.08298138 0.3481514 0.4924063 -0.112807 0.44849288 -0.16055086 -0.23638816 0.4254188

concat_adjust.bias f4 [16]
00000000: b868 953e 43a5 c03e 7285 963e aa60 f73e
00000010: ada1 84bd 10c4 9a3e c331 103e e594 4a3e
00000020: 8667 ed3e 2000 90bd 4575 963e 0536 073e
00000030: cdb7 c63e 6298 533e 5cda ce3e ad57 0f3f
0.29181457 0.37626085 0.29398686 0.48315936 -0.0647615 0.3022771 0.14081483 0.19783361
0.46368045 -0.07031274 0.29386345 0.132042 0.38812104 0.20663598 0.4040097 0.5599316

classifier.0.weight f4 [1, 16]
00000000: 4cf7 e7be c214 27bf 125c 493f 66ee 07bf
00000010: a177 1c3f 1d54 103f ee60 0abf 9b1d 2a3f
00000020: afa5 373f 6783 f3be e3fd f83e 490d fd3e
00000030: 6f49 313f cea7 313f 8d9e 20bf adf9 f93e
-0.4530586 -0.6526605 0.78656113 -0.5309814 0.6112004 0.56378347 -0.5405415 0.66451424
0.7173719 -0.4756119 0.486312 0.49424198 0.69252676 0.69396675 -0.6274193 0.488233
