models/MiniResNet_pneumoniaMNIST.pth (torch, 34535 bytes, 33 tensors)

input_block.0.weight f4 [8, 1, 5, 5]
0.16421968 0.22136138 0.13584179 0.2184501 -0.065812185 -0.09996272 -0.25894558 0.13295075
0.15469581 -0.21152881 0.03270026 -0.0448859 0.13117564 -0.07658578 0.09422679 -0.061701983
0.17694692 0.061127067 -0.14877996 0.102087855 -0.08424573 -0.022585394 -0.046352085 0.15071192
-0.103281215 -0.11763248 -0.056528807 -0.08826814 0.039096918 -0.16277303 0.19013506 -0.14760473
0.19972134 0.067803696 -0.033599574 0.2237865 0.15015402 0.29250568 0.062524214 -0.022640644
0.11159747 0.000904155 0.115878746 0.11515315 0.1223651 -0.07576651 0.12858146 0.016883954
0.03830892 -0.107862234 -0.18015534 -0.09660442 -0.13087498 0.22221866 0.12456786 0.1328666
0.05165289 -0.009257174 0.16407089 -0.12683837 0.06928419 -0.11760308 0.040503282 -0.116631776
0.051875822 0.011972327 0.18807465 -0.14207892 -0.13181615 -0.062802464 0.22490571 0.12165298
0.19556466 -0.1576196 -0.16127104 -0.14329606 -0.15958849 0.0712732 0.09284615 0.19946161
-0.07772863 -0.120689705 0.11832119 -0.04750572 0.15625645 0.011311406 0.16805793 -0.13120492
-0.09201844 0.10545585 0.07808172 -0.022638401 0.10729531 0.10971014 -0.11962328 -0.17711826
0.10643647 -0.13958135 -0.14886652 -0.2423071 -0.0023615593 0.09812301 -0.1305472 -0.20477027
0.09872163 -0.08251436 -0.08755126 -0.17606963 -0.29556575 -0.0832636 0.20474277 0.04792963
0.047473535 -0.23226428 -0.16219534 -0.1057327 -0.0055995574 -0.17865688 -0.092922345 -0.17819183
0.08783375 0.005739391 0.08244406 -0.021687292 -0.06636008 -0.07769037 -0.06685349 -0.13589834
0.18202795 -0.07558553 0.24229223 0.12253949 -0.12366849 0.15141709 -0.09450845 -0.08142041
-0.19810176 -0.21169865 0.05831064 -0.061265793 0.023261636 -0.21462329 0.14250457 -0.14308059
-0.01475118 0.05197103 0.10890264 0.16823073 0.21232662 -0.10024214 0.051134363 -0.085480556
-0.046214294 -0.16267592 0.1781673 -0.14190704 0.10049816 0.047029495 0.024141725 -0.11932314
0.2261948 0.09772633 0.06315975 -0.18133903 0.1027872 -0.042975325 -0.08090985 0.18879293
0.047367055 -0.118579715 -0.11618978 0.0025782436 0.1488514 -0.01729196 -0.10854207 -0.14241114
-0.23280296 -0.0050918 0.10296791 -0.18682866 0.014272932 0.067318164 0.03150827 -0.058480103
0.14680892 0.063427575 0.03430198 -0.039700404 -0.07454052 0.01933873 -0.03570091 -0.061069913
0.16014993 0.15974782 0.026537448 -0.032758903 0.020930095 0.09252626 0.10205046 0.1508637
00000000: 3429 283e 8fac 623e 1c1a 0b3e 62b1 5f3e
00000010: 8ac8 86bd 41b9 ccbd 8494 84be 3e24 083e
00000020: 9468 1e3e 029b 58be b5f0 053d 47da 37bd
00000030: e852 063e 01d9 9cbd faf9 c03d 38bb 7cbd
00000040: 9331 353e 6060 7a3d c659 18be 7013 d13d
00000050: 0689 acbd 0105 b9bc afdb 3dbd 3a54 1a3e
00000060: 1a85 d3bd 4ce9 f0bd c08a 67bd edc5 b4bd
00000070: 1724 203d f9ad 26be c4b2 423e b225 17be
00000080: c083 4c3e aadc 8a3d b59f 09bd 4a28 653e
00000090: fac1 193e 4ec3 953e b20c 803d df78 b9bc
000000a0: 378d e43d d104 6d3a d651 ed3d 6ad5 eb3d
000000b0: 8e9a fa3d 792b 9bbd dcaa 033e 3850 8a3c
000000c0: d0e9 1c3d e0e6 dcbd a47a 38be 8ad8 c5bd
000000d0: 1704 06be 4a8d 633e 6f1d ff3d 2f0e 083e
000000e0: fb91 533d 67ab 17bc 3302 283e ebe1 01be
000000f0: dfe4 8d3d e2d9 f0bd c5e6 253d a4dc eebd
00000100: be7b 543d 9427 443c a496 403e 237d 11be
00000110: d0fa 06be 949e 80bd af4d 663e 3325 f93d
00000120: 1a42 483e 0867 21be 3c24 25be 34bc 12be
00000130: 2a6b 23be aff7 913d 1f26 be3d aa3f 4c3e
00000140: 3030 9fbd 2a2c f7bd 6152 f23d 5c95 42bd
00000150: b101 203e 7a53 393c 6117 2c3e 955a 06be
00000160: 2a74 bcbd 3df9 d73d 4fe9 9f3d 2b74 b9bc
00000170: a5bd db3d b6af e03d 0dfd f4bd 7d5e 35be
00000180: 5dfb d93d 6aee 0ebe 7770 18be 5a1f 78be
00000190: 64c4 1abb b7f4 c83d 2aae 05be 4caf 51be
000001a0: 912e ca3d 4afd a8bd 134e b3bd 994b 34be
000001b0: 6554 97be 1b86 aabd 17a8 513e dc51 443d
000001c0: 9c73 423d b0d6 6dbe 8916 26be 638a d8bd
000001d0: 7e7c b7bb d4f1 36be 124e bebd eb77 36be
000001e0: 2ee2 b33d 8011 bc3b 6ed8 a83d 8ca9 b1bc
000001f0: cbe7 87bd 211c 9fbd 7cea 88bd ef28 0bbe
00000200: 8965 3a3e 96cc 9abd 741b 783e fcf5 fa3d
00000210: e845 fdbd 150d 1b3e a58d c1bd bebf a6bd
00000220: 30db 4abe 88c7 58be 23d7 6e3d d7f1 7abd
00000230: 308f be3c 35c6 5bbe b8ec 113e b883 12be
00000240: efae 71bc 93df 543d 5908 df3d ad44 2c3e
00000250: 266c 593e c04b cdbd 4472 513d 6e10 afbd
00000260: 334b 3dbd 8494 26be 7d71 363e 1450 11be
00000270: fbd1 cd3d 00a2 403d dec4 c53c b15f f4bd
00000280: 9c9f 673e be24 c83d e659 813d f0b0 39be
00000290: 1882 d23d e506 30bd 10b4 a5bd ef52 413e
000002a0: f503 423d ecd9 f2bd e8f4 edbd c0f7 283b
000002b0: 806c 183e dea7 8dbc 4e4b debd 3ad4 11be
000002c0: e663 6ebe 1dd9 a6bb d7e0 d23d 0350 3fbe
000002d0: 04d9 693c 1bde 893d d10e 013d d588 6fbd
000002e0: 1455 163e 51e6 813d 3c80 0c3d e49c 22bd
000002f0: b3a8 98bd 426c 9e3c 1e3b 12bd 7224 7abd
00000300: 58fe 233e ef94 233e 1065 d93c 332e 06bd
00000310: 9775 ab3c 687e bd3d d5ff d03d 047c 1a3e

input_block.0.bias f4 [8]
-0.16978852 -0.14547692 0.16834103 0.051745143 -0.040992398 -0.084636115 -0.12624773 -0.16814366
00000000: 0bdd 2dbe e7f7 14be 9761 2c3e b7f2 533d
00000010: a5e7 27bd b355 adbd 1647 01be da2d 2cbe

input_block.1.weight f4 [8]
1.096683 0.93741214 1.0128487 0.9689955 1.0197797 1.0555619 1.0225469 1.0096166
00000000: 1c60 8c3f 3efa 6f3f 07a5 813f 1710 783f
00000010: 2488 823f a71c 873f d1e2 823f 1e3b 813f

input_block.1.bias f4 [8]
0.12866814 -0.12952812 0.06482325 0.07640724 0.009396707 0.0040760795 -0.008321855 0.048066545
00000000: 95c1 033e 05a3 04be 0dc2 843d 667b 9c3d
00000010: a5f4 193c a290 853b 6458 08bc 6de1 443d

input_block.1.running_mean f4 [8]
0.121135585 0.45297426 0.23616594 -0.10869472 -0.84489095 -0.1592193 -0.097264 0.042942047
00000000: ef15 f83d 3eec e73e 7cd5 713e 569b debd
00000010: c64a 58bf 620a 23be 5932 c7bd 00e4 2f3d

input_block.1.running_var f4 [8]
0.010543282 0.0350921 0.0042247227 0.009032433 0.06953969 0.005514461 0.000964526 0.0076725828
00000000: bbbd 2c3c bcbc 0f3d 8b6f 8a3b c5fc 133c
00000010: d36a 8e3d a7b2 b43b 3fd8 7c3a 4a6a fb3b

conv_block_1_1.0.weight f4 [8, 8, 3, 3]
-0.08718655 -0.024351755 0.06520192 0.10160202 -0.12003211 -0.13402487 -0.010283955 0.09967885
0.0062756934 -0.023456011 0.03222525 -0.0550719 -0.044382628 0.11509453 -0.06778401 -0.004364741
-0.124193005 0.047112912 0.06200267 0.017036801 0.0027405706 -0.10399903 -0.13205236 0.16092578
0.014601843 0.06983902 0.06176148 0.043486644 0.054853052 -0.04028721 -0.01333909 -0.03933184
0.22343722 -0.08651075 -0.013973361 -0.011023036 0.071729146 -0.022835206 -0.017864395 0.14621478
0.021874277 0.13917252 0.043544915 -0.08176686 0.053120807 -0.06436515 -0.06925394 -0.17269304
0.029346569 -0.07875255 0.079685256 0.010844698 0.043477092 -0.098087326 -0.025959974 -0.06663978
0.055387277 0.118584596 -0.030186513 0.08792355 -0.17544591 -0.09923356 0.16330065 -0.07555924
0.03470793 0.030386742 0.16315098 0.009511431 -0.109720714 0.095086426 0.064641826 -0.17421395
-0.012954485 -0.056906816 0.02631923 0.06537271 0.034201153 0.0021791505 -0.07364608 0.12140836
0.1138471 0.0010048447 0.011564442 -0.006757653 -0.077023424 -0.052317698 0.096532516 0.0011714346
-0.006947516 0.03148565 -0.14934072 -0.058022402 0.058995545 0.01825105 -0.030331457 -0.0842388
0.049279198 0.13107567 -0.081058875 -0.061648797 -0.07232501 -0.03788665 0.16465455 0.04597267
-0.07469281 0.062315255 0.049379386 -0.13586584 0.08283963 0.08251751 -0.008277202 0.015106778
-0.14623247 -0.111976154 0.1629395 0.081918515 -0.0750978 -0.19422972 -0.14787689 -0.21467184
-0.039316747 0.0016191041 -0.0029317592 0.15108241 0.06074969 -0.03470495 0.028555673 -0.05397997
-0.029551428 0.119420685 -0.0039051962 -0.0764666 0.055651385 0.029226769 -0.17673706 -0.16081396
-0.10227245 -0.035015766 0.084365115 -0.08511338 -0.056411184 0.057897497 0.073279515 0.10003351
0.1258001 0.100548536 -0.13744825 0.0013050198 0.051505666 -0.04040837 -0.032060243 0.13691862
-0.05521725 -0.03148956 -0.076083176 0.048773237 0.041247446 -0.0032772252 -0.03040253 -0.13548638
-0.12460639 -0.02424735 0.09094402 0.054628402 -0.048996408 0.007154599 -0.08092265 0.010875694
0.09506169 0.15477514 0.24395731 -0.123691164 0.039024383 -0.097940825 0.07858791 0.10840121
0.006001388 0.20181186 -0.03871326 0.043701522 0.043852046 -0.026039591 -0.03736489 -0.013620211
0.092028536 0.026257027 0.09959905 -0.06746498 -0.13087931 -0.0630817 -0.03235588 -0.094189644
-0.0015806889 0.12521808 0.02037217 0.005604868 -0.1266605 -0.18859644 -0.092824996 -0.018509496
-0.018425906 0.061841484 -0.018540932 -0.0489366 0.2134252 0.10549486 0.15498428 -0.008844982
0.0074123093 0.07837907 -0.052225105 -0.06676492 -0.061135635 0.017258141 -0.023496762 0.07888114
0.022667654 -0.023905197 -0.014812261 -0.17930615 -0.09729697 0.0067119393 -0.036603324 -0.09585888
-0.08190358 0.014445453 -0.12471087 0.07489698 -0.12840162 -0.033939954 -0.04322578 0.035949755
-0.054402407 0.06875066 -0.12709826 -0.06969926 0.08599869 -0.06192616 -0.12092445 0.14110525
0.15033756 -0.07578162 0.06634224 -0.01476104 -0.103765 0.024014452 0.07457583 0.0065811817
0.048114985 0.06514092 -0.074193284 -0.10488431 -0.03569731 -0.027563022 -0.00090486876 -0.063838676
00000000: dd8e b2bd 557d c7bc 9688 853d b814 d03d
00000010: 65d3 f5bd d13d 09be 097e 28bc 6d24 cc3d
00000020: 55a4 cd3b d226 c0bc a0fe 033d 1393 61bd
00000030: 8fca 35bd aeb6 eb3d 58d2 8abd 1a06 8fbb
00000040: e758 febd 78f9 403d 83f6 7d3d c390 8b3c
00000050: 259b 333b 72fd d4bd bc38 07be bac9 243e
00000060: 923c 6f3c c307 8f3d 9bf9 7c3d 0d1f 323d
00000070: 98ad 603d 3404 25bd 338c 5abc 6c1a 21bd
00000080: bacc 643e 8c2c b1bd 86f0 64bc f799 34bc
00000090: bbe6 923d e610 bbbc 5a58 92bc 54b9 153e
000000a0: af31 b33c 3e83 0e3e 275c 323d 6275 a7bd
000000b0: 3495 593d e0d1 83bd 02d5 8dbd 72d6 30be
000000c0: 3768 f03c 0449 a1bd 0632 a33d f6ad 313c
000000d0: 0915 323d 02e2 c8bd 03aa d4bc 707a 88bd
000000e0: c5dd 623d 7bdc f23d b549 f7bc 4311 b43d
000000f0: 18a8 33be f73a cbbd 4938 273e cebe 9abd
00000100: e729 0e3d 9eed f83c 0d11 273e d5d5 1b3c
00000110: 41b5 e0bd acbc c23d ef62 843d 2465 32be
00000120: 0c3f 54bc 1f17 69bd 6d9b d73c 21e2 853d
00000130: 8216 0c3d 14d0 0e3b c2d3 96bd f2a4 f83d
00000140: ab28 e93d feb4 833a c978 3d3c 4d6f ddbb
00000150: 75be 9dbd 154b 56bd d7b2 c53d d38a 993a
00000160: fda7 e3bb 19f7 003d c6ec 18be e6a8 6dbd
00000170: 50a5 713d 3a83 953c ad79 f8bc 6485 acbd
00000180: fcd8 493d b338 063e 3202 a6bd 7383 7cbd
00000190: 231f 94bd 082f 1bbd 349b 283e d74d 3c3d
000001a0: 8bf8 98bd 483e 7f3d 0a42 4a3d 6a20 0bbe
000001b0: d3a7 a93d f1fe a83d 1a9d 07bc 6b82 773c
000001c0: f7bd 15be c153 e5bd 9dd9 263e e5c4 a73d
000001d0: e0cc 99bd 28e4 46be 0a6d 17be efd2 5bbe
000001e0: 990a 21bd 1e38 d43a c222 40bb 59b5 1a3e
000001f0: abd4 783d c726 0ebd 96ed e93c 1a1a 5dbd
00000200: d615 f2bc d592 f43d 52ee 7fbb 859a 9cbd
00000210: b5f2 633d fa6c ef3c 8ffa 34be 6aac 24be
00000220: 3874 d1bd b16c 0fbd 9ec7 ac3d ec4f aebd
00000230: 6a0f 67bd ed25 6d3d 9213 963d 5ede cc3d
00000240: bed1 003e 64ec cd3d 3cbf 0cbe 330d ab3a
00000250: 9bf7 523d 3f83 25bd 9a51 03bd 6534 0c3e
00000260: 7c2b 62bd 32fb 00bd 7fd1 9bbd 72c6 473d
00000270: 15f3 283d b7c6 56bb ba0e f9bc f1bc 0abe
00000280: a331 ffbd 61a2 c6bc dc40 ba3d 08c2 5f3d
00000290: 75b0 48bd 2071 ea3b c6ba a5bd f82f 323c
000002a0: b4af c23d 607d 1e3e f2cf 793e cb51 fdbd
000002b0: 08d8 1f3d 3395 c8bd b3f2 a03d 7401 de3d
000002c0: 4ba7 c43b c5a7 4e3e cc91 1ebd 5e00 333d
000002d0: 349e 333d fb50 d5bc ed0b 19bd 4e27 5fbc
000002e0: 7579 bc3d fa18 d73c 96fa cb3d 142b 8abd
000002f0: 3a05 06be fa30 81bd 9987 04bd 80e6 c0bd
00000300: 1e2f cfba 2b39 003e 89e3 a63c 0aa9 b73b
00000310: 4ab3 01be 6d1f 41be 081b bebd 3aa1 97bc
00000320: edf1 96bc 7f4d 7d3d 27e3 97bc bf71 48bd
00000330: 238c 5a3e b00d d83d 33b4 1e3e 8bea 10bc
00000340: f5e2 f23b 3585 a03d fee9 55bd 0cbc 88bd
00000350: 5c69 7abd f260 8d3c 487c c0bc 6f8c a13d
00000360: 84b1 b93c d5d4 c3bc 20af 72bc 089c 37be
00000370: a243 c7bd d4ef db3b 5eed 15bd a951 c4bd
00000380: 10bd a7bd 9fac 6c3c 6a68 ffbd 9663 993d
00000390: b77b 03be 9f04 0bbd 840d 31bd 0d40 133d
000003a0: 0fd5 5ebd 25cd 8c3d 0c26 02be 7cbe 8ebd
000003b0: 1520 b03d 49a6 7dbd 3da7 f7bd e57d 103e
000003c0: 17f2 193e 6533 9bbd 71de 873d 4ad8 71bc
000003d0: bf82 d4bd f5b9 c43c 36bb 983d f4a6 d73b
000003e0: 3814 453d 9a68 853d a6f2 97bd 96cd d6bd
000003f0: 5837 12bd d9cb e1bc b734 6dba dabd 82bd

conv_block_1_1.0.bias f4 [8]
-0.061500743 -0.08983762 0.04192201 0.06781715 -0.06991659 0.11435496 -0.00665913 0.09986469
00000000: 34e8 7bbd c9fc b7bd 6ab6 2b3d b8e3 8a3d
00000010: 6e30 8fbd ef32 ea3d d534 dabb dc85 cc3d

conv_block_1_1.1.weight f4 [8]
0.97033745 1.0803164 1.0570168 1.0238751 0.943387 0.953275 1.0085421 1.0110278
00000000: 0968 783f cf47 8a3f 544c 873f 570e 833f
00000010: cf81 713f d509 743f e817 813f 5c69 813f

conv_block_1_1.1.bias f4 [8]
-0.09735368 -0.009074557 0.018542062 0.03244627 -0.16376951 -0.06714463 -0.20572193 -0.032978795
00000000: 5e61 c7bd 73ad 14bc 86e5 973c 61e6 043d
00000010: 32b3 27be 2083 89bd c5a8 52be c614 07bd

conv_block_1_1.1.running_mean f4 [8]
0.13966894 -0.41980356 0.6189237 -0.34936687 0.36954716 -0.18518159 -0.49530312 0.17837755
00000000: 6005 0f3e 7ef0 d6be c971 1e3f 37e0 b2be
00000010: 4935 bd3e 3ea0 3dbe 5f98 fdbe 9ba8 363e

conv_block_1_1.1.running_var f4 [8]
0.27590895 0.3503056 0.29647377 0.4015463 0.38342634 0.28787315 0.27659282 0.16139446
00000000: f043 8d3e 415b b33e 69cb 973e 7a97 cd3e
00000010: 7550 c43e 1c64 933e 939d 8d3e 9744 253e

conv_block_1_2.0.weight f4 [8, 8, 3, 3]
0.06516423 -0.15662654 0.09997095 -0.11267653 -0.05959015 -0.04440561 -0.07296552 0.07624988
0.040088497 0.06636915 -0.14946938 0.08612064 0.029084563 -0.12004538 -0.040850155 0.059257194
0.050641373 -0.12923236 -0.056489922 -0.05874615 -0.025985746 0.08088227 0.042284008 -0.016099822
0.08423422 0.027945675 -0.04772516 0.16192928 0.094400756 0.14632131 0.025616886 -0.05233485
-0.12143231 0.22889698 0.20280199 -0.007400815 0.08376489 -0.05110081 0.1168474 0.05396645
-0.11302265 -0.076396786 -0.06448044 -0.008706433 -0.10441815 0.06855947 -0.06805255 -0.07561613
0.13567473 -0.09065106 -0.023739992 0.007525283 -0.031422246 -0.015074762 0.0069701853 -0.05294768
-0.013489341 0.120328955 0.07919336 0.016860517 -0.01812227 0.12210059 0.078986526 0.06444427
0.081918046 -0.019591745 0.10270066 0.032663647 0.06096293 -0.05075457 0.14044839 -0.030294463
0.030696271 0.14717437 0.14548099 0.023416592 -0.0140975155 -0.10322674 -0.0034454812 0.0912888
0.013913949 0.026275273 -0.0252794 0.021529596 0.057191916 0.017178709 0.116768435 -0.05572402
0.09604522 0.14668685 0.051542655 0.13518195 0.13990049 0.09276727 0.09131857 -0.015066479
-0.13930048 0.009473106 -0.011010745 -0.045892607 -0.015961071 -0.07978119 0.03291205 0.051259298
0.023562806 -0.10413695 -0.10387977 0.0084797 0.17858405 0.10960474 0.11917976 0.13860646
0.07666569 0.058987867 -0.02304981 0.0236228 -0.09112518 -0.018230435 -0.061925635 0.13112313
0.09561416 0.078517705 0.11091636 -0.040365454 0.048027046 0.10626893 -0.0020728933 0.10878683
-0.058389366 -0.095960364 -0.031577982 -0.022987954 -0.04019672 -0.072814845 -0.03628608 0.04924449
-0.09837998 0.05314161 0.09779353 -0.020402499 -0.01725484 0.039639004 -0.07331972 0.0024626611
0.025985204 0.07331709 0.073659 0.11397547 -0.09955425 0.121469334 -0.032721784 -0.11324593
-0.19599533 0.032409705 -0.052930415 -0.14774762 -0.042477403 0.17273983 -0.063886985 -0.10824093
0.19110198 0.14080963 0.104820356 -0.18487145 -0.07955191 -0.1264894 -0.01716461 -0.017543565
-0.118277095 -0.037867576 -0.10308153 0.006011544 0.05535961 0.09344745 -0.00966866 0.017243253
0.056769874 -0.15553221 0.06707828 0.07276562 0.03039865 0.040745314 0.054486085 -0.033576503
-0.03017765 0.043253884 0.14598557 0.15096308 0.0005963472 0.051690336 0.07403704 0.1442151
-0.041306563 -0.009861899 0.0051976126 -0.059020307 0.057907127 0.069936916 -0.007341788 -0.0850723
0.046873696 -0.19752157 -0.020219369 0.002513974 0.109207265 0.03244455 -0.044713557 -0.04163312
0.046768602 -0.009663531 -0.14533679 0.016256602 -0.1325862 -0.17682344 0.004587173 -0.054185797
0.021696536 -0.032989725 0.016759587 0.03461069 -0.056591287 -0.011471042 0.017976016 0.068073556
-0.05613773 0.20276207 0.14073813 0.0811271 -0.0278482 -0.023840144 -0.08423096 -0.034028817
0.069672495 0.035536736 0.023835905 -0.12740733 0.024005782 -0.1126451 0.006019283 0.015708385
-0.11071383 -0.21581149 0.06384596 0.12946276 0.0040911697 -0.15951055 0.014699359 -0.05436653
-0.17135493 0.13087986 0.08043006 0.07113864 -0.09416967 -0.11246741 0.023680823 0.048607912
00000000: d374 853d b562 20be 92bd cc3d f4c2 e6bd
00000010: cd14 74bd a8e2 35bd f26e 95bd e628 9c3d
00000020: d633 243d 8dec 873d 800e 19be 0560 b03d
00000030: c042 ee3c 5ada f5bd 7e52 27bd acb7 723d
00000040: 546d 4f3d 7d55 04be fa61 67bd ce9f 70bd
00000050: 0fe0 d4bc 9ba5 a53d ff31 2d3d c6e3 83bc
00000060: fe82 ac3d 54ee e43c 757b 43bd cad0 253e
00000070: 2f55 c13d 41d5 153e 81da d13c 115d 56bd
00000080: 81b1 f8bd f863 6a3e 53ab 4f3e 8982 f2bb
00000090: ed8c ab3d 154f 51bd b14d ef3d ed0b 5d3d
000000a0: 6b78 e7bd eb75 9cbd 520e 84bd 6da5 0ebc
000000b0: 2fd9 d5bd e868 8c3d 235f 8bbd a1dc 9abd
000000c0: 51ee 0a3e 43a7 b9bd 5f7a c2bc a696 f63b
000000d0: 9db4 00bd 22fc 76bc 2766 e43b abdf 58bd
000000e0: 6602 5dbc 076f f63d 2130 a23d 111f 8a3c
000000f0: 2875 94bc e00f fa3d b0c3 a13d 5cfb 833d
00000100: a6c4 a73d de7e a0bc b954 d23d 51ca 053d
00000110: 44b4 793d 06e4 4fbd b4d1 0f3e 182c f8bc
00000120: bf76 fb3c e1b4 163e f8f8 143e 27d4 bf3c
00000130: 44f9 66bc 8b68 d3bd 95cd 61bb 9ff5 ba3d
00000140: 55f7 633c 3e3f d73c bf16 cfbc d65e b03c
00000150: 1242 6a3d 5dba 8c3c 4a24 ef3d df3e 64bd
00000160: 5bb3 c43d 1435 163e 641e 533d 236d 0a3e
00000170: 1342 0f3e c4fc bd3d 3b05 bb3d 65d9 76bc
00000180: c9a4 0ebe 1635 1b3c 6966 34bc e3f9 3bbd
00000190: cbc0 82bc 5264 a3bd c9ce 063d 45f5 513d
000001a0: c906 c13c c145 d5bd ebbe d4bd 71ee 0a3c
000001b0: bdde 363e 7378 e03d 8514 f43d daee 0d3e
000001c0: e702 9d3d 439d 713d f5d2 bcbc 9a84 c13c
000001d0: d79f babd fe57 95bc bca5 7dbd 2445 063e
000001e0: 5bd1 c33d e4cd a03d 1e28 e33d 3f56 25bd
000001f0: 02b8 443d 86a3 d93d 61d9 07bb a1cb de3d
00000200: b029 6fbd de86 c4bd ea57 01bd 3c51 bcbc
00000210: 51a5 24bd f31f 95bd b6a0 14bd 97b4 493d
00000220: 717b c9bd 04ab 593d f947 c83d 2423 a7bc
00000230: 065a 8dbc 825c 223d a628 96bd 9964 213b
00000240: ecde d43c 4527 963d 88da 963d f96b e93d
00000250: 19e3 cbbd eac4 f83d 4707 06bd 7bed e7bd
00000260: 00b3 48be 0ac0 043d 90cd 58bd 274b 17be
00000270: c9fc 2dbd b6e2 303e 2ed7 82bd 6cad ddbd
00000280: 3db0 433e 6630 103e 0eac d63d f14e 3dbe
00000290: 1dec a2bd 7086 01be cc9c 8cbc 86b7 8fbc
000002a0: 433b f2bd 081b 1bbd 691c d3bd 7cfc c43b
000002b0: c2c0 623d 6061 bf3d 4d69 1ebc b941 8d3c
000002c0: 8787 683d d643 1fbe 5660 893d 2406 953d
000002d0: 9706 f93c 8fe4 263d cd2c 5f3d 8487 09bd
000002e0: 1e37 f7bc fc2a 313d 3e7d 153e 1196 1a3e
000002f0: 2f54 1c3a 3fb9 533d bba0 973d 20ad 133e
00000300: 1231 29bd cd93 21bc bc50 aa3b 47bf 71bd
00000310: 0630 6d3d 163b 8f3d 6293 f0bb 633a aebd
00000320: a2fe 3f3d 1843 4abe 17a3 a5bc 7cc1 243b
00000330: 0fa8 df3d 94e4 043d 9025 37bd 7e87 2abd
00000340: 6f90 3f3d c953 1ebc 2bd3 14be 912c 853c
00000350: adc4 07be 3411 35be ff4f 963b edf1 5dbd
00000360: efbc b13c 3c20 07bd 674b 893c f0c3 0d3d
00000370: 44cc 67bd 0af1 3bbc 7042 933c 266a 8b3d
00000380: adf0 65bd dca0 4f3e a81d 103e f725 a63d
00000390: e921 e4bc 684c c3bc 4881 acbd cd61 0bbd
000003a0: 74b0 8e3d f88e 113d 8443 c33c 1177 02be
000003b0: c6a7 c43c 79b2 e6bd 683d c53b dfae 803c
000003c0: efbd e2bd b0fd 5cbe acc1 823d e391 043e
000003d0: 380f 863b bc56 23be 95d5 703c 70af 5ebd
000003e0: ab77 2fbe 5f05 063e 84b8 a43d 23b1 913d
000003f0: 07dc c0bd 5055 e6bd 49fe c13c 1719 473d

conv_block_1_2.0.bias f4 [8]
0.08728548 0.089030445 0.043836877 0.085372664 -0.06522734 -0.11461504 0.052287605 0.04946498
00000000: bbc2 b23d 9855 b63d 4c8e 333d ddd7 ae3d
00000010: e995 85bd 4abb eabd 872b 563d ca9b 4a3d

conv_block_1_2.1.weight f4 [8]
1.311469 1.0345911 1.2451104 1.103554 1.1562419 1.0611603 1.0782176 1.3015773
00000000: 37de a73f 7b6d 843f c75f 9f3f 4241 8d3f
00000010: bcff 933f 1ad4 873f 0903 8a3f 169a a63f

conv_block_1_2.1.bias f4 [8]
0.3242709 -0.09685107 0.04936493 0.05904478 0.04077254 -0.013689922 -1.6534391e-06 0.11607478
00000000: d606 a63e db59 c6bd e132 4a3d f0d8 713d
00000010: 1b01 273d b24b 60bc bceb ddb5 9db8 ed3d

conv_block_1_2.1.running_mean f4 [8]
0.32277846 0.61491126 -0.018142445 0.0032254388 -0.46956939 0.11105195 0.17354375 -0.40561733
00000000: 3843 a53e d36a 1d3f 779f 94bc e261 533b
00000010: 666b f0be 346f e33d 74b5 313e 13ad cfbe

conv_block_1_2.1.running_var f4 [8]
0.17968577 0.27873853 0.24869561 0.16260995 0.19106781 0.12687519 0.16969362 0.28397977
00000000: 8cff 373e d1b6 8e3e 10aa 7e3e 3983 263e
00000010: 48a7 433e 92eb 013e 2ac4 2d3e cc65 913e

conv_block_2_1.0.weight f4 [16, 8, 3, 3]
0.15789525 0.0360545 0.20617591 0.037276085 0.0821481 -0.124785215 0.090514444 -0.05371854
0.20827569 -0.033996202 -0.18907152 -0.0410216 -0.037256304 -0.17811832 -0.089424595 -0.060974434
-0.0029783573 -0.09200233 0.05805562 0.021126386 -0.029853595 0.09462929 0.0230054 -0.017865794
-0.014032937 -0.115345694 -0.03796087 0.0183746 -0.13747957 -0.017174773 0.017081516 0.036118563
-0.05918397 0.028102258 0.046195637 0.09689064 0.027624639 -0.10244721 -0.049543772 0.0167885
-0.09110439 -0.0082934955 0.011037627 -0.00021739003 -0.0007500397 0.0894739 -0.0046063336 -0.016289582
0.0769886 -0.06461717 0.056476776 -0.040082823 -0.05177113 0.007963 0.14922264 0.058786914
0.08901475 0.09775251 -0.057046182 0.052727293 0.111220114 0.11725955 0.011487201 0.061785955
-0.08231321 -0.08010466 -0.029491257 -0.117888525 -0.17411634 -0.06370467 0.021791914 -0.029163191
-0.026265549 0.017350003 0.03129921 -0.028666561 0.13300581 0.14021696 0.018398255 -0.06118631
-0.07365125 0.0081398375 0.11014357 -0.025170058 -0.135913 0.054163728 0.029122563 -0.088812456
-0.039040606 -0.009724359 -0.009554727 0.0052926466 0.08341137 -0.08804388 -0.061947685 0.0019719924
-0.08412434 0.0674856 -0.12528539 -0.017549926 -0.03226899 0.029178344 -0.017092831 0.048377126
0.024071556 0.046270277 -0.013238159 -0.03355922 -0.12077567 -0.2362089 -0.08115079 0.090293355
0.089776866 0.16855046 -0.08376421 -0.020018 0.027887685 -0.14123675 -0.18996766 -0.13273959
-0.025644058 0.05825985 0.13672963 0.19593441 0.19370678 0.091190286 -0.05468315 -0.10134202
0.014648211 -0.20412956 0.085264176 -0.041390657 0.00059060997 0.085700035 -0.092529185 0.08676523
-0.02367212 0.026553724 -0.005721502 -0.047676068 -0.034313254 0.046615716 0.005776099 -0.12901138
0.120662 0.032174394 0.15923324 0.0066249487 -0.025977423 -0.09173522 -0.003029048 -0.009767909
0.076260045 -0.02452049 -0.003153638 -0.003020795 -0.075630255 -0.13050194 -0.063780345 -0.10362299
-0.10347669 -0.11859234 -0.08347554 -0.07301718 -0.0629795 0.09852955 0.13145445 0.18509226
0.00079950044 0.08562361 0.048748728 0.040346917 -0.07020686 -0.0714075 0.025127625 0.06448772
0.10553513 0.07727054 0.17085752 0.087316446 -0.0011328497 -0.03875868 -0.028488107 -0.05416104
0.07903672 0.088757515 0.08786163 -0.04998864 0.012591685 0.058955252 0.044089586 0.038493622
0.0968436 0.0557148 0.049882278 0.10897258 -0.021064645 -0.056584477 0.05455596 0.031322688
-0.007835021 0.03275227 0.039063778 0.006956113 -0.062362954 0.00058925216 -0.03656856 0.044521846
0.026797596 0.09368311 -0.15267922 -0.008285363 -0.02121923 -0.045868564 -0.106616996 0.047260527
0.06372585 -0.0798903 0.060243096 -0.03006509 -0.087134786 -0.021126352 -0.04894934 0.07069019
-0.12240812 0.06281305 -0.14521758 -0.03822973 -0.016515043 0.013836606 -0.09478337 0.07164317
0.030657722 0.11862405 -0.0546901 0.04954941 -0.020799238 -0.13991569 0.08662921 -0.09685271
-0.07154653 0.005908877 0.09870265 -0.1275943 -0.15641575 -0.11766751 -0.018478485 -0.0020456153
0.045979608 -0.07939414 0.03584141 -0.14604032 0.0058774496 0.011488805 0.02832985 -0.053471617
00000000: 4baf 213e e2ad 133d c71f 533e cfae 183d
00000010: 433d a83d 648f ffbd a35f b93d f907 5cbd
00000020: 3946 553e 9a3f 0bbd f79b 41be 4406 28bd
00000030: 119a 18bd a664 36be 3e24 b7bd 54c0 79bd
00000040: 8b30 43bb b86b bcbd bbcb 6d3d 3e11 ad3c
00000050: 878f f4bc 00cd c13d d275 bc3c 495b 92bc
00000060: 67ea 65bc 5d3a ecbd db7c 1bbd 5486 963c
00000070: 72c7 0cbe 1cb2 8cbc 89ee 8b3c 0ff1 133d
00000080: e46a 72bd b536 e63c a337 3d3d 9a6e c63d
00000090: 114d e23c d8cf d1bd 69ee 4abd 0988 893c
000000a0: f094 babd 71e1 07bc 2ad7 343c 31f3 63b9
000000b0: 509e 44ba 183e b73d baf0 96bb bb71 85bc
000000c0: 33ac 9d3d 0256 84bd 3154 673d e32d 24bd
000000d0: f70d 54bd 3e77 023c d2cd 183e 8cca 703d
000000e0: 5e4d b63d 7832 c83d 42a9 69bd 93f8 573d
000000f0: 5fc7 e33d c625 f03d d034 3c3c 4513 7d3d
00000100: d493 a8bd e90d a4bd a697 f1bc 8a6f f1bd
00000110: 8e4b 32be 9877 82bd f584 b23c a5e7 eebc
00000120: d92a d7bc 9821 8e3c 9a33 003d 23d6 eabc
00000130: ad32 083e 0995 0f3e f0b7 963c 7f9e 7abd
00000140: 77d6 96bd f45c 053c f492 e13d 7031 cebc
00000150: c72c 0bbe c9da 5d3d 7192 ee3c 4ee3 b5bd
00000160: 0be9 1fbd eb52 1fbc 6e8b 1cbc f06d ad3b
00000170: 95d3 aa3d 5a50 b4bd dbbc 7dbd 8b3c 013b
00000180: 6249 acbd e435 8a3d d04a 00be ddc4 8fbc
00000190: 7d2c 04bd 6c07 ef3c 4406 8cbc 1827 463d
000001a0: b631 c53c e785 3d3d dde4 58bc 6575 09bd
000001b0: 3c59 f7bd bfe0 71be 6332 a6bd b9eb b83d
000001c0: efdc b73d 7e98 2c3e 928c abbd cafc a3bc
000001d0: b774 e43c 5ea0 10be e286 42be e3ec 07be
000001e0: 7d13 d2bc e1a1 6e3d da02 0c3e 08a3 483e
000001f0: 125b 463e f9c1 ba3d 70fb 5fbd 688c cfbd
00000200: 0dff 6f3c 5707 51be fc9e ae3d 4089 29bd
00000210: 2ad3 1a3a 8083 af3d f17f bdbd f8b1 b13d
00000220: 09ec c1bc 3287 d93c 707b bbbb fb47 43bd
00000230: 0e8c 0cbd 1ff0 3e3d 6e45 bd3b 8f1b 04be
00000240: a31d f73d 4cc9 033d 0a0e 233e 1916 d93b
00000250: 9bce d4bc addf bbbd fe82 46bb 9409 20bc
00000260: 3a2e 9c3d 32df c8bc 44ad 4ebb 88f8 45bb
00000270: 09e4 9abd 4da2 05be 459f 82bd 4a38 d4bd
00000280: 96eb d3bd 8ae0 f2bd 39f5 aabd 088a 95bd
00000290: 65fb 80bd dcc9 c93d ff9b 063e d388 3d3e
000002a0: 9195 513a 6e5b af3d bfac 473d cf42 253d
000002b0: 9dc8 8fbd 183e 92bd 73d8 cd3c 2312 843d
000002c0: cd22 d83d 0440 9e3d 46f5 2e3e f7d2 b23d
000002d0: 217c 94ba 6cc1 1ebd e45f e9bc f7d7 5dbd
000002e0: 01de a13d 80c6 b53d ccf0 b33d e3c0 4cbd
000002f0: 5b4d 4e3c 107b 713d 4897 343d 7dab 1d3d
00000300: f055 c63d 3435 643d 5c51 4c3d 042d df3d
00000310: c38f acbc 20c5 67bd 1276 5f3d 384c 003d
00000320: 765e 00bc 3f27 063d 5701 203d 1bf0 e33b
00000330: 4c70 7fbd 0b78 1a3a eac8 15bd 8a5c 363d
00000340: a286 db3c eedc bf3d f157 1cbe 55bf 07bc
00000350: f3d3 adbc ade0 3bbd 035a dabd 4194 413d
00000360: b382 823d 879d a3bd 77c1 763d 104b f6bc
00000370: b973 b2bd 2c11 adbc 1a7f 48bd 05c6 903d
00000380: 1cb1 fabd 21a4 803d ebb3 14be c796 1cbd
00000390: 8e4a 87bc efb2 623c c91d c2bd a8b9 923d
000003a0: e725 fb3c 2af1 f23d ba02 60bd 52f4 4a3d
000003b0: 2a63 aabc 0f46 0fbe a86a b13d b75a c6bd
000003c0: fd86 92bd 419f c13b 9d24 ca3d 15a8 02be
000003d0: 732b 20be aafb f0bd 3160 97bc bb0f 06bb
000003e0: 1d55 3c3d 6599 a2bd 71ce 123d 988b 15be
000003f0: 9f97 c03b 8a3b 3c3c 0014 e83c 0e05 5bbd

conv_block_2_1.0.bias f4 [16]
0.10954137 0.09936725 0.011890527 -0.06589827 0.017002117 -0.05639773 0.08622354 0.005237947
0.033756908 0.07011791 0.038554735 -0.070266515 0.087763235 0.07501448 -0.07883792 0.123699404
00000000: 3a57 e03d 0f81 cb3d 7cd0 423c acf5 86bd
00000010: 0648 8b3c 4e01 67bd f895 b03d 16a3 ab3b
00000020: af44 0a3d fb99 8f3d 92eb 1d3d e4e7 8fbd
00000030: 36bd b33d 31a1 993d c775 a1bd 1d56 fd3d

conv_block_2_1.1.weight f4 [16]
0.94235486 0.9395578 0.99102634 0.9045273 1.0681502 0.9470087 0.9499055 0.9039225
1.0045176 0.92710316 0.79018503 1.0158352 1.0232744 0.99271 1.0137492 1.0952706
00000000: 2b3e 713f dc86 703f e7b3 7d3f 1a8f 673f
00000010: 25b9 883f 2a6f 723f 022d 733f 7767 673f
00000020: 0894 803f a256 6d3f 9149 4a3f e306 823f
00000030: a8fa 823f 3e22 7e3f 89c2 813f d431 8c3f

conv_block_2_1.1.bias f4 [16]
-0.14903723 -0.034801614 -0.20049621 -0.040652838 -0.27864814 0.010362447 -0.16404058 -0.26114896
-0.14353809 -0.2348913 -0.17319025 -0.31245875 -0.08942244 -0.1924307 -0.036577865 -0.09020493
00000000: 379d 18be 238c 0ebd e14e 4dbe 9783 26bd
00000010: f8aa 8ebe 41c7 293c 41fa 27be 51b5 85be
00000020: a6fb 12be 5887 70be c958 31be 98fa 9fbe
00000030: 1d23 b7bd 8e0c 45be acd2 15bd 5dbd b8bd

conv_block_2_1.1.running_mean f4 [16]
0.21316451 -0.042999506 0.9143718 -1.9365287 -0.6250519 -0.8759851 0.2540025 -1.225435
-2.1392872 -0.44974077 -0.09175844 -0.75520384 -2.0291226 -1.1301252 -1.497913 0.025868274
00000000: cc47 5a3e 4020 30bd 4514 6a3f 2ce0 f7bf
00000010: 6703 20bf 8f40 60bf 9e0c 823e 0edb 9cbf
00000020: 15ea 08c0 6c44 e6be d9eb bbbd 0a55 41bf
00000030: 25dd 01c0 f1a7 90bf 9dbb bfbf b4e9 d33c

conv_block_2_1.1.running_var f4 [16]
1.1859175 0.6267559 0.4044914 0.8250136 0.85099334 0.5769105 0.6956293 0.9255865
0.839036 0.6927004 0.70974374 0.7128039 1.2943342 0.8199582 1.2176266 1.3790903
00000000: 25cc 973f 1373 203f 7f19 cf3e 1734 533f
00000010: b3da 593f 68b0 133f c314 323f 3df3 6c3f
00000020: 10cb 563f d054 313f c4b1 353f 517a 363f
00000030: beac a53f c8e8 513f 30db 9b3f 0886 b03f

conv_block_2_2.0.weight f4 [16, 16, 3, 3]
0.08453803 0.052065317 0.064770095 0.030376429 -0.06525608 0.05729967 0.08454331 -0.015005335
0.11578204 -0.10613743 -0.041925505 -0.08933727 -0.03556077 0.012031094 0.015838312 -0.05927344
-0.0130970795 0.02835942 0.10985209 0.019650536 -0.023736043 0.098048806 0.016048292 -0.03291821
0.12326597 0.04782447 0.048546057 -0.027693471 -0.042158227 0.040666316 0.016255453 -0.014248788
0.05312398 -0.06356311 -0.06091026 0.0016872204 0.08056358 0.08963305 0.14141905 0.018202098
0.084883414 0.08254873 0.0756928 0.10366846 0.13891374 -0.064028144 -0.027657697 0.003039072
0.02586691 0.0403989 0.03620493 -0.017628325 0.057009306 0.042157207 0.10155888 -0.018719573
-0.017542044 0.035772566 -0.029787093 0.057874605 -0.021578897 -0.07956337 -0.0111704245 0.12347339
0.08724281 0.048208717 0.12441825 0.04091966 0.012463882 0.035244092 0.05563178 0.009108605
0.010335545 -0.042101745 -0.080879316 -0.06966263 0.024626186 -0.064185545 -0.0151991425 0.04834888
-0.11266978 0.14100663 0.026710005 0.05428097 0.09106228 0.0068341573 0.007477227 0.040570255
0.082962714 0.041413993 -0.026837664 -0.035055846 0.04361019 0.018150104 -0.024702445 0.03274589
0.016807327 -0.01640397 0.097268194 0.12464566 0.09032599 0.10234015 0.041539162 0.12465954
0.12679723 0.043466866 0.06281585 0.06888276 0.04967916 0.06543977 0.101660684 0.011395355
0.11342224 0.10840943 -0.018779969 0.03679706 0.044756126 -0.0069946563 0.029739648 0.060368218
0.020748377 0.036199957 0.038358 0.113941826 0.12660024 0.10753828 -0.06708523 0.0033605972
-0.087160476 -0.07040313 -0.053862087 -0.011185933 -0.0072892685 -0.052592482 0.010733829 0.03306377
0.1291531 0.10751806 0.10126552 0.10429312 0.10876829 0.06811271 0.013986595 0.069382936
0.029633727 0.053124312 0.105746105 0.10060301 -0.0012973103 0.006185989 0.071482435 -0.007442048
0.107668035 -0.103574686 -0.047729194 -0.068572715 -0.037737053 0.034559034 0.005266592 -0.07322596
0.04064718 0.019721594 0.16430923 -0.0133993 -0.040226653 0.04989434 -0.0035920974 -0.07598623
0.14963664 0.088115655 0.08465928 -0.04385673 -0.009369509 0.064290516 -0.011648451 0.0280962
0.028608296 0.012677306 0.039364778 -0.023592334 0.06546789 0.069704585 0.13626362 0.014326218
0.11720054 0.055098202 0.07233984 0.122837864 0.11949771 -0.030780474 0.039388943 -0.025469018
0.03596509 0.0831023 0.074890085 -0.024038056 0.05733668 0.0033952158 0.081777364 0.036477666
0.031644076 0.08698457 -0.0731391 0.08394445 -0.032461718 -0.073892854 0.035441544 0.12238507
0.086664855 0.02832464 0.067895286 0.017326776 -0.00026173567 0.06344132 0.06553073 -0.018168
0.0062588663 -0.004942882 -0.15025777 0.020817926 -0.051803816 -0.099141344 -0.059797663 0.026377836
-0.10664749 0.07224143 0.01395288 0.07248548 0.04353284 0.008194566 0.0043406202 0.09946075
0.03311013 0.06325588 -0.0030469536 -0.045058396 0.046064056 -0.012046483 0.016169831 0.0020018863
0.045957256 0.013049642 0.0017328723 0.13784276 0.057563134 0.12516595 0.07264667 0.08850175
0.10524284 0.055125985 0.08910042 0.1259592 0.06324699 0.06734084 0.14279616 0.035628393
00000000: 4622 ad3d 7142 553d 2fa6 843d fdd7 f83c
00000010: fba4 85bd 0fb3 6a3d 0b25 ad3d f0d8 75bc
00000020: 221f ed3d 955e d9bd 14ba 2bbd 75f6 b6bd
00000030: 2ca8 11bd 111e 453c 59bf 813c b5c8 72bd
00000040: 2295 56bc 0452 e83c 22fa e03d 29fa a03c
00000050: 1772 c2bc d0cd c83d b577 833c 3fd5 06bd
00000060: de72 fc3d 97e3 433d 3bd8 463d 6bdd e2bc
00000070: 1bae 2cbd b991 263d 282a 853c c073 69bc
00000080: 8898 593d 602d 82bd 097d 79bd b925 dd3a
00000090: 85fe a43d 8891 b73d 28d0 103e 911c 953c
000000a0: 5bd7 ad3d 4f0f a93d d404 9b3d 2150 d43d
000000b0: 673f 0e3e 3021 83bd 6592 e2bc 2b2b 473b
000000c0: d8e6 d33c 5179 253d 9f4b 143d 4769 90bc
000000d0: 9782 693d 09ad 2c3d 1afe cf3d ca59 99bc
000000e0: 55b4 8fbc 4186 123d 1004 f4bc ec0d 6d3d
000000f0: 3ac6 b0bc 1ff2 a2bd 2804 37bc 9edf fc3d
00000100: 5cac b23d 8176 453d ffce fe3d 609b 273d
00000110: 4f35 4c3c 1c5c 103d 26de 633d 423c 153c
00000120: 6b56 293c e172 2cbd 0ea4 a5bd 48ab 8ebd
00000130: dbbc c93c b673 83bd d305 79bc 7a09 463d
00000140: 6abf e6bd 0b64 103e f1ce da3c b955 5e3d
00000150: dc7e ba3d 11f1 df3b 8703 f53b ff2c 263d
00000160: 5be8 a93d b8a1 293d a9da dbbc b896 0fbd
00000170: 99a0 323d 87af 943c c85c cabc 8e20 063d
00000180: 85af 893c 9e61 86bc 8c34 c73d 3946 ff3d
00000190: d5fc b83d b697 d13d f824 2a3d 804d ff3d
000001a0: 22d7 013e 500a 323d 99a5 803d 6812 8d3d
000001b0: 607c 4b3d 4905 863d 7a33 d03d 95b3 3a3c
000001c0: eb49 e83d c305 de3d 73d8 99bc 84b8 163d
000001d0: 3352 373d 6e33 e5bb 90a0 f33c aa44 773d
000001e0: 80f8 a93c 6846 143d 471d 1d3d 555a e93d
000001f0: 7ea3 013e 083d dc3d fb63 89bd 773d 5c3b
00000200: 3181 b2bd 842f 90bd 7e9e 5cbd 3445 37bc
00000210: d1da eebb 376b 57bd f1dc 2f3c e06d 073d
00000220: b640 043e 6e32 dc3d 4c64 cf3d a297 d53d
00000230: e9c1 de3d ad7e 8b3d 0828 653c a418 8e3d
00000240: 6ec2 f23c e198 593d 6a91 d83d f308 ce3d
00000250: 830a aaba d6b3 ca3b 6265 923d 6cdc f3bb
00000260: 0f81 dc3d f71e d4bd b07f 43bd da6f 8cbd
00000270: 2b92 1abd c68d 0d3d 6093 ac3b 7ef7 95bd
00000280: a87d 263d 2e8f a13c ae40 283e bd88 5bbc
00000290: b4c4 24bd 025e 4c3d 6569 6bbb ab9e 9bbd
000002a0: 593a 193e fb75 b43d d861 ad3d 1da3 33bd
000002b0: 9282 19bc bfaa 833d 25d9 3ebc 012a e63c
000002c0: f25b ea3c 7ab4 4f3c f63c 213d b644 c1bc
000002d0: 0714 863d 47c1 8e3d b188 0b3e 83b8 6a3c
000002e0: d606 f03d a7ae 613d e926 943d 6b92 fb3d
000002f0: 37bb f43d 5527 fcbc 4d56 213d 67a4 d0bc
00000300: 2150 133d 8a31 aa3d f95f 993d 75eb c4bc
00000310: ded9 6a3d 4582 5e3b e47a a73d 9b69 153d
00000320: 389d 013d f724 b23d f4c9 95bd 11eb ab3d
00000330: 94f6 04bd 2355 97bd 272b 113d 06a5 fa3d
00000340: 587d b13d 1309 e83c af0c 8b3d e2f0 8d3c
00000350: 9139 89b9 86ed 813d fa34 863d 0fd5 94bc
00000360: 2d17 cd3b e6f7 a1bb 2cdd 19be 5b8a aa3c
00000370: 3d30 54bd 9e0a cbbd 65ee 74bd 5516 d83c
00000380: 006a dabd 51f3 933d 9f9a 643c 4473 943d
00000390: 7e4f 323d 8042 063c c33b 8e3b 14b2 cb3d
000003a0: 7d9e 073d 4c8c 813d 66af 47bb 278f 38bd
000003b0: aaad 3c3d 9d5e 45bc 9876 843c 1432 033b
000003c0: ad3d 3c3d 2ace 553c 8c21 e33a a726 0d3e
000003d0: 52c7 6b3d 812b 003e c7c7 943d 6840 b53d
000003e0: 8f89 d73d c9cb 613d 487a b63d 73fb 003e
000003f0: a387 813d ffe9 893d 2839 123e 14ef 113d

conv_block_2_2.0.bias f4 [16]
-0.08140676 -0.043391448 -0.0053258245 0.07714013 0.034989767 0.05481754 0.042134974 0.060419258
-0.027228186 -0.027548078 -0.014874669 0.02719124 -0.021451557 0.040081065 0.03147468 0.02014024
00000000: 96b8 a6bd 3bbb 31bd 4184 aebb a5fb 9d3d
00000010: 6e51 0f3d 5b88 603d b995 2c3d 2f7a 773d
00000020: a50d dfbc 82ac e1bc e2b4 73bc 2ac0 de3c
00000030: 2dbb afbc 0b2c 243d 98eb 003d 25fd a43c

conv_block_2_2.1.weight f4 [16]
1.4721156 1.3807793 1.6770545 1.4199643 1.8494022 1.5587975 1.4584082 1.6071284
1.7210371 1.4783301 1.5960408 1.7580068 1.5214915 1.6336259 1.4079667 1.806105
00000000: 496e bc3f 60bd b03f b9a9 d63f 64c1 b53f
00000010: 36b9 ec3f ad86 c73f 1fad ba3f 62b6 cd3f
00000020: f24a dc3f ec39 bd3f 114b cc3f 5e06 e13f
00000030: 3cc0 c23f a71a d13f 4138 b43f 732e e73f

conv_block_2_2.1.bias f4 [16]
0.0422475 0.11012164 0.18558127 0.08421622 0.19942443 0.117511414 0.18766698 0.14268953
0.16775297 0.12359041 0.11980737 0.16384985 0.12939414 0.16583155 0.15763202 0.17647487
00000000: b70b 2d3d 7487 e13d 0409 3e3e 8e79 ac3d
00000010: eb35 4c3e d3a9 f03d c62b 403e 341d 123e
00000020: 6fc7 2b3e f81c fd3d 915d f53d 41c8 273e
00000030: e67f 043e bfcf 293e 4a6a 213e d4b5 343e

conv_block_2_2.1.running_mean f4 [16]
0.89674324 1.0389442 -0.6689758 1.0896268 -0.67317075 -0.7475708 1.1689236 -0.71702164
-0.7858413 1.0482073 -0.82649934 -0.75023204 -0.7041356 -0.7103512 1.105788 -0.766594
00000000: f790 653f 20fc 843f ff41 2bbf e478 8b3f
00000010: eb54 2cbf cd60 3fbf 4a9f 953f bb8e 37bf
00000020: e52c 49bf a82b 863f 7695 53bf 350f 40bf
00000030: 3b42 34bf 94d9 35bf 768a 8d3f 813f 44bf

conv_block_2_2.1.running_var f4 [16]
0.21212581 0.21094435 0.21059656 0.2075377 0.25752828 0.2048241 0.25515622 0.21034734
0.23368362 0.21847276 0.22199063 0.25073892 0.18727164 0.22145173 0.20673132 0.2697135
00000000: 8237 593e cc01 583e a0a6 573e c384 543e
00000010: bfda 833e 69bd 513e d6a3 823e 4b65 573e
00000020: c24a 6f3e 53b7 5f3e 8351 633e da60 803e
00000030: 23c4 3f3e 3ec4 623e 60b1 533e e317 8a3e

concat_adjust.weight f4 [16, 8, 1, 1]
0.3763625 0.15630566 0.25950143 -0.023828754 -0.25233015 0.37163168 0.28989854 0.25645873
0.28187138 0.13928509 -0.13013616 -0.18688007 0.16397741 0.44363943 0.1310507 -0.029282948
0.32266936 -0.064188726 0.30548006 -0.043130744 -0.04293339 -0.12506202 0.017338663 0.3016294
0.30659166 -0.096031465 -0.0026590785 0.19717877 -0.021711828 0.16088697 0.3703142 -0.06381336
0.31234637 0.3604529 0.3161474 0.1527195 0.025325783 -0.16773947 -0.019731289 0.31800267
0.26347652 0.02163274 0.39283982 -0.022218866 0.20552914 -0.16377695 0.10493418 0.44028726
0.33281013 0.22585501 0.0623862 -0.08035127 -0.08095387 -0.053309046 0.46889642 -0.010554425
0.07037455 -0.23552902 0.039988004 0.40084016 0.18706377 -0.027753184 0.20925838 0.42241445
0.38723427 -0.16999787 0.2116079 -0.07028322 0.03065152 0.28086734 -0.19798405 0.03699428
0.31981793 0.48650917 -0.21346718 -0.10137551 -0.034039643 0.44717798 0.3840065 0.2860349
0.28361222 -0.048092768 0.36925685 0.09050334 0.16612852 -0.09168641 0.15037175 0.3047505
0.08766835 0.34971803 0.08343359 0.19734883 0.44078863 0.20537093 -0.07614641 0.06431602
0.17578794 0.049409498 0.15281223 0.3280253 0.24876273 -0.17004444 -0.22150342 0.4839612
0.14535631 -0.060967147 -0.07298842 0.46735397 0.31706265 -0.15181454 -0.20544228 0.48484266
0.3322369 0.1280108 -0.13275746 0.35476077 -0.100164056 0.36127454 -0.11805449 -0.18547998
-0.13303725 0.38234338 0.49002257 -0.13907616 0.4189578 -0.13596857 -0.21733722 0.37688744
00000000: 96b2 c03e 970e 203e 5fdd 843e 8534 c3bc
00000010: 6b31 81be 8246 be3e 956d 943e 8f4e 833e
00000020: 7251 903e c0a0 0e3e 6a42 05be 7d5d 3fbe
00000030: b2e9 273e b524 e33e 2832 063e cbe2 efbc
00000040: eb34 a53e 6175 83bd e267 9c3e dda9 30bd
00000050: ecda 2fbd 4210 00be d009 8e3c 2b6f 9a3e
00000060: 95f9 9c3e 25ac c4bd ef43 2ebb 3be9 493e
00000070: 01dd b1bc 8ebf 243e d399 bd3e 94b0 82bd
00000080: ddeb 9f3e 488d b83e 12de a13e 8062 1c3e
00000090: 0478 cf3c e5c3 2bbe 83a3 a1bc 3fd1 a23e
000000a0: 65e6 863e 2537 b13c 4d22 c93e 5704 b6bc
000000b0: 3b76 523e 25b5 27be bbe7 d63d 556d e13e
000000c0: 1766 aa3e 8946 673e ac88 7f3d 358f a4bd
000000d0: 25cb a5bd 965a 5abd 3113 f03e 78ec 2cbc
000000e0: 8820 903d 852e 71be 76ca 233d ec3a cd3e
000000f0: a58d 3f3e a55a e3bc d447 563e b546 d83e
00000100: 9243 c63e ec13 2ebe beaf 583e a6f0 8fbd
00000110: e518 fb3c d8cd 8f3e 55bc 4abe 5087 173d
00000120: 2dbf a33e bb17 f93e 2497 5abe f79d cfbd
00000130: 276d 0bbd 83f4 e43e 809c c43e 2b73 923e
00000140: 9f35 913e ecfc 44bd 3c0f bd3e d159 b93d
00000150: 981d 2a3e 16c6 bbbd 0dfb 193e 4208 9c3e
00000160: 778b b33d 3e0e b33e 3bdf aa3d d015 4a3e
00000170: 0caf e13e c24c 523e a6f2 9bbd 1eb8 833d
00000180: c101 343e 9d61 4a3d cf7a 1c3e eff2 a73e
00000190: a8bb 7e3e 2120 2ebe cbd1 62be c3c9 f73e
000001a0: 49d8 143e b0b8 79bd f47a 95bd 0549 ef3e
000001b0: 0956 a23e 4575 1bbe 765f 52be 4c3d f83e
000001c0: f41a aa3e 4315 033e 92f1 07be 34a3 b53e
000001d0: d022 cdbd faf8 b83e 8dc6 f1bd 77ee 3dbe
000001e0: eb3a 08be 83c2 c33e 3de4 fa3e fb69 0ebe
000001f0: a381 d63e 583b 0bbe a68d 5ebe 64f7 c03e

concat_adjust.bias f4 [16]
0.24266365 0.31052494 0.24762884 0.42352462 -0.105146274 0.2806381 0.07563125 0.16015114
0.41159523 -0.12959084 0.27474543 0.09323116 0.35808036 0.15654743 0.3330428 0.51570624
00000000: d27c 783e 20fd 9e3e 6a92 7d3e 38d8 d83e
00000010: ee56 d7bd ccaf 8f3e 8fe4 9a3d a9fe 233e
00000020: 9cbc d23e 76b3 04be 6fab 8c3e faef be3d
00000030: 4f56 b73e f84d 203e 9684 aa3e 5305 043f

classifier.0.weight f4 [1, 16]
-0.30559203 -0.50188917 0.55631137 -0.38670522 0.3770771 0.3967307 -0.3808273 0.46308935
0.48233256 -0.31845593 0.30995387 0.28097466 0.50031394 0.46908066 -0.46895126 0.27731416
00000000: 8f76 9cbe cf7b 00bf 6c6a 0e3f 3afe c5be
00000010: 4010 c13e 4920 cb3e ccfb c2be 0c1a ed3e
00000020: 4bf4 f63e a80c a3be 46b2 9e3e e9db 8f3e
00000030: 9314 003f 572b f03e 611a f0be 1ffc 8d3e
