models/TinyVGG_pneumoniaMNIST.pth (torch, 19850 bytes, 9 tensors)

conv_block_1.0.weight f4 [8, 1, 3, 3]
0	0x3e4f9aae	0.2027385
1	0x3e568db5	0.20952494
2	0xbe365617	-0.17806278
3	0x3e78a8f3	0.24283199
4	0xbe23b1d2	-0.15985802
5	0xbd72a64e	-0.05924063
6	0xbe4848d2	-0.19559029
7	0x3e08c278	0.13355434
8	0x3e46bf4e	0.19408914
9	0xbe65746c	-0.22407693
10	0x3eafc5e7	0.34330675
11	0x3deb603f	0.11492967
12	0x3e920c20	0.28524876
13	0x3df2f584	0.11863235
14	0x3e68162b	0.22664706
15	0xbbc31038	-0.005952861
16	0x3ea59d38	0.3234651
17	0x3ddc7391	0.1076423
18	0xbe1f5918	-0.1556133
19	0x3dae02b4	0.08496609
20	0xbe1d43c8	-0.15357888
21	0xbd201dd8	-0.03909096
22	0xbe0aa2a8	-0.13538611
23	0x3e626e3e	0.22112367
24	0xbe86b81c	-0.2631234
25	0xbe1d5bb3	-0.15367012
26	0xbdc0c490	-0.09412491
27	0xbe70cd4b	-0.23515813
28	0x3c83fae2	0.016110841
29	0xbeaeb891	-0.34125188
30	0x3eacdb25	0.33760944
31	0xbe5f6127	-0.21814404
32	0x3eaa90e2	0.33313662
33	0x3e03a4aa	0.12855783
34	0xbcb8e4bb	-0.022570005
35	0x3e967d35	0.293924
36	0x3d8bf07b	0.068329774
37	0x3e9fb512	0.31192833
38	0x3d82688e	0.063675985
39	0xbd77496a	-0.060372747
40	0x3e252a7d	0.16129489
41	0xbd3df59b	-0.046376806
42	0x3e395307	0.18098079
43	0x3eb8351e	0.35978025
44	0x3e684502	0.22682574
45	0xbdd36168	-0.10321313
46	0x3e688ae3	0.22709231
47	0x3dc2304e	0.0948187
48	0x3e396eba	0.18108645
49	0xbe51591f	-0.20444153
50	0xbea8fe48	-0.330065
51	0xbde66036	-0.112488195
52	0xbe81aae0	-0.2532568
53	0x3e8c798a	0.27436477
54	0x3e52d983	0.20590787
55	0x3e69a06f	0.22815107
56	0x3e0106ff	0.12600325
57	0x3b7567d2	0.0037445915
58	0x3e7d1265	0.24714048
59	0xbea5c63f	-0.32377812
60	0xbdc170fa	-0.09445377
61	0xbeb2e2d6	-0.34938687
62	0xbd89f9ef	-0.06737124
63	0xbe016b46	-0.12638578
64	0x3d970e99	0.07375831
65	0xbddc2af7	-0.107503824
66	0x3e8129ea	0.2522729
67	0xbe7896ff	-0.2427635
68	0xbe847fb3	-0.25878677
69	0xbe522092	-0.20520237
70	0x3e8af987	0.271435
71	0x3d85df2c	0.06536707

conv_block_1.0.bias f4 [8]
0	0x3ea602be	0.32423967
1	0xbea12dcf	-0.31480262
2	0xbea947bb	-0.33062539
3	0xbe5ca6fe	-0.21548077
4	0xbe98aa18	-0.2981727
5	0x3e7c1dbf	0.24620722
6	0x3e195837	0.14975058
7	0x3eb67bea	0.35641414

conv_block_1.2.weight f4 [8, 8, 3, 3]
0	0xbe41f58a	-0.18941322
1	0xbe0202ec	-0.12696427
2	0x3d442af0	0.04789251
3	0xbda0822f	-0.078373305
4	0x3df405ea	0.119151905
5	0x3cc92185	0.024552116
6	0xbcb6b22b	-0.022301754
7	0xbde6d91d	-0.1127188
8	0xbda310bd	-0.07962177
9	0x3cf39c94	0.029737748
10	0x3d97c24d	0.07410107
11	0x3e33e980	0.17569542
12	0xbe3a27fb	-0.18179314
13	0xbe22db61	-0.15903999
14	0xbe021a62	-0.12705377
15	0xbe61b4e6	-0.22041664
16	0xbd9c233f	-0.0762391
17	0xbdad4b78	-0.0846166
18	0xbd2b21ac	-0.04178016
19	0xbde989ac	-0.11403212
20	0xbd8a381c	-0.06748983
21	0x3cf12b6c	0.02943965
22	0xbc7edcb0	-0.015555546
23	0xbdaf32ff	-0.085546486
24	0x3b352ae0	0.0027643964
25	0xbda4de32	-0.08050193
26	0xbdccc4ad	-0.099984504
27	0xbdd0b791	-0.101912625
28	0xbdf4fba2	-0.11962058
29	0xbea472d4	-0.32118857
30	0xbe4ec432	-0.2019203
31	0xbe045926	-0.12924632
32	0x3c58a72d	0.013223452
33	0xbeca3ea4	-0.39500916
34	0xbea656d5	-0.32488123
35	0xbe92143e	-0.2853107
36	0xbe2b28ba	-0.16714755
37	0xbe86f273	-0.2635685
38	0xbc9b1631	-0.01893148
39	0xbe960467	-0.29300234
40	0xbe6bbaa0	-0.2302041
41	0xbd7e607e	-0.06210374
42	0xbe2c5072	-0.16827562
43	0xbe908c7e	-0.28232187
44	0xbe2adf78	-0.16686809
45	0xbe58958a	-0.21150795
46	0xbd016c46	-0.0315974
47	0xbd99de77	-0.07513135
48	0x3e2b5eb6	0.16735348
49	0x3e575561	0.21028663
50	0x3eaca68a	0.3372081
51	0xbd7b2672	-0.06131596
52	0xbd12c046	-0.035827897
53	0x3e22010d	0.15820713
54	0xbe0c2ba3	-0.13688521
55	0x3d440248	0.047853738
56	0x3cc2716e	0.023735728
57	0xbe5eec4f	-0.21769832
58	0x3ddf2665	0.10895995
59	0x3d92cde1	0.071681745
60	0xbe166604	-0.14687353
61	0xbdae56c0	-0.0851264
62	0x3dc3c289	0.09558589
63	0xbe8042b3	-0.25050887
64	0xbdc25e5c	-0.09490654
65	0xbd49ae6f	-0.04923862
66	0x3d17d12c	0.037064716
67	0x3e394c32	0.18095472
68	0x3e3356cf	0.17513584
69	0xbe6a57e6	-0.22885093
70	0x3b8f4891	0.0043726643
71	0xbdaea3f3	-0.085273646
72	0xbd303ac3	-0.04302479
73	0xbddd4ce7	-0.108056836
74	0x3db53ee1	0.08849884
75	0xbdfae7c7	-0.12251239
76	0x3d3fd192	0.04683072
77	0x3d0e7afe	0.034785263
78	0xbbf2695b	-0.0073978133
79	0xbda68a76	-0.08131878
80	0x3ddcb7d3	0.10777249
81	0x3da24352	0.079229966
82	0x3de0d873	0.109787844
83	0xbc79aa48	-0.015238352
84	0x3defdc80	0.11711979
85	0x3db39e0c	0.087703794
86	0x3d18aaf8	0.037272424
87	0x3e22278b	0.15835397
88	0x3deff471	0.117165454
89	0x3c54fbd9	0.012999498
90	0xbd74528e	-0.059649043
91	0xbbb86ba0	-0.0056280643
92	0x3d86c3fd	0.065803505
93	0xbcf6b3a0	-0.030114949
94	0xbd89b6a4	-0.06724289
95	0xbd254dac	-0.040357277
96	0xbdb45036	-0.088043615
97	0x3d2c272a	0.042029537
98	0x3dbad259	0.09122152
99	0xbd282ed4	-0.041060284
100	0x3dc17a69	0.09447176
101	0x3dee0346	0.11621718
102	0x3e5cd7f2	0.21566752
103	0x3e2a367a	0.16622344
104	0x3e96a478	0.29422355
105	0x3da61d49	0.081110545
106	0x3dd2e127	0.10296851
107	0x3d4137b6	0.04717227
108	0xbc101e9a	-0.0087963585
109	0x3da8987f	0.08232211
110	0x3d4fcac3	0.050730478
111	0xba921dae	-0.0011147761
112	0x3e23076e	0.15920803
113	0x3e36aec4	0.17840105
114	0x3c9c46eb	0.019076785
115	0x3d48ff00	0.049071312
116	0x3da2b2ab	0.079442345
117	0xbe008386	-0.12550172
118	0xbe38ec58	-0.18058908
119	0xbe11c0c7	-0.14233695
120	0xbe8279c9	-0.2548354
121	0xbe840b71	-0.2578998
122	0xbd9d9169	-0.076937504
123	0xbdc30b97	-0.09523695
124	0xbe122a61	-0.14273979
125	0xbe3f2159	-0.18665065
126	0xbe86c26b	-0.26320204
127	0xbe8e2c2c	-0.27768075
128	0xbde7310c	-0.11288652
129	0xbdae7ee9	-0.085203
130	0x3d43b09f	0.04777586
131	0x3db869a2	0.09004523
132	0xbe0d529f	-0.13801049
133	0xb8111617	-3.4591267e-05
134	0x3d7df16d	0.06199782
135	0x3d9dfc2a	0.07714112
136	0xbc8065e2	-0.015673582
137	0xbd812015	-0.06304947
138	0xbd3ec29e	-0.04657232
139	0xbe05e7fe	-0.13076779
140	0xbe0d2592	-0.13783863
141	0xbc86f8c1	-0.016476037
142	0xbe1ca757	-0.1529821
143	0xbdb92093	-0.09039416
144	0xbe0f1f55	-0.13976796
145	0x3d57109a	0.052506067
146	0x3d8d3034	0.0689396
147	0x3cc081ac	0.023499332
148	0xbddbd88f	-0.10734665
149	0xbe0fc47a	-0.14039794
150	0xbdb61051	-0.08889831
151	0x3d9f1b1c	0.077688426
152	0x3d384fc4	0.044997945
153	0x3d9de9bf	0.07710599
154	0x3d64d306	0.05586531
155	0x3c8ea2b1	0.017411562
156	0xbc9ec3f7	-0.019380553
157	0xbddd040a	-0.10791786
158	0xbdf9535a	-0.12174101
159	0xbdd91486	-0.10599618
160	0x3d44009c	0.047852144
161	0xbd830fae	-0.06399475
162	0xbcc24bec	-0.023717843
163	0xbd8ae748	-0.06782395
164	0xbcafece0	-0.021475255
165	0xbda9e081	-0.08294774
166	0xbd9db534	-0.077005774
167	0x3d201f72	0.03909249
168	0xbd0f764e	-0.035024934
169	0x3d95005d	0.0727546
170	0xbd1adc38	-0.037807673
171	0xbdb10d9a	-0.086451724
172	0xbcaa5730	-0.020793527
173	0xbd69ff15	-0.05712803
174	0xbd13af00	-0.036055565
175	0xbde5c5d7	-0.112193756
176	0x3d8709c9	0.06593663
177	0xbda8090a	-0.08204849
178	0x3d729f6a	0.05923406
179	0x3d5b0cc6	0.05347898
180	0x3d772144	0.06033446
181	0xbdde2687	-0.10847192
182	0x3d8d5122	0.069002405
183	0xbd902a9a	-0.070393756
184	0x3d2f8ad6	0.042857014
185	0x3dd7dd20	0.10540223
186	0xbc30a748	-0.01078207
187	0xbab50473	-0.001381053
188	0xbd02cf89	-0.031936202
189	0xbd8e3d8f	-0.06945335
190	0x3d9c52b3	0.07632961
191	0xbe0e3cec	-0.13890427
192	0x3dc61baa	0.09673245
193	0x3ddb4257	0.10706013
194	0x3da56b3b	0.08077093
195	0xbc81b082	-0.015831236
196	0xbde9fa8d	-0.11424742
197	0x3c22d08a	0.009937415
198	0x3d81897c	0.06325051
199	0xbdf4cf00	-0.119535446
200	0xbd4a5ac6	-0.049402975
201	0xbdbcab3e	-0.09212349
202	0xbd19b33e	-0.037524454
203	0xbd9e185f	-0.07719492
204	0xbd06b5f5	-0.03288837
205	0xbd42d5b5	-0.04756709
206	0xbdea20a0	-0.11432004
207	0x3dcc0ced	0.09963403
208	0x3db772ba	0.08957429
209	0xbd38216d	-0.044953752
210	0x3bda1c4d	0.0066562057
211	0xbd375d28	-0.044766575
212	0xbe0661b6	-0.13123211
213	0xbdd8038e	-0.10547553
214	0x3d0400ee	0.03222745
215	0xbda0996f	-0.07841765
216	0xbe703c72	-0.23460558
217	0x3c994bc8	0.018712893
218	0x3be46cf4	0.006970996
219	0xbe2d28c6	-0.16910085
220	0x3d057c91	0.0325895
221	0x3d017c80	0.031612873
222	0xbe1c2ca6	-0.15251407
223	0xbc3fe111	-0.011711375
224	0xbd02fd35	-0.03197976
225	0xbd188f3b	-0.03724597
226	0x3e114b11	0.14188792
227	0x3e694695	0.22780831
228	0xbe2a5d57	-0.16637169
229	0x3e79b62b	0.24385898
230	0x3eaef4fa	0.34171277
231	0xbd5c567d	-0.05379342
232	0x3dfe2f18	0.12411326
233	0x3e8484b3	0.2588249
234	0x3de51bc1	0.11186934
235	0x3cfdfd84	0.031004675
236	0x3da1d029	0.079010315
237	0x3dedf3f3	0.11618795
238	0xbc93eed0	-0.01805821
239	0x3cc86174	0.024460532
240	0xbda7c0c8	-0.08191067
241	0xbcc6f450	-0.02428642
242	0x3db2bf25	0.08727864
243	0xbca7a455	-0.020464102
244	0xbdb56fcd	-0.08859215
245	0xbe1796ff	-0.14803694
246	0xb9faed92	-0.0004786072
247	0x3d0acb6c	0.033885404
248	0x3de23021	0.11044336
249	0x3e9c638b	0.30544695
250	0x3ecbf624	0.39836228
251	0x3ec7b86e	0.39007896
252	0xbe5fd119	-0.21857108
253	0x3da414b3	0.080117606
254	0x3e8086eb	0.25102934
255	0xbe4f8c06	-0.20268258

conv_block_1.2.bias f4 [8]
0	0x3d841e52	0.06451096
1	0xbe20b1c6	-0.15692815
2	0xbcd3e37e	-0.025865313
3	0x3d27c249	0.04095677
4	0xbdbf5b5b	-0.093435965
5	0x3da09ca7	0.07842379
6	0xbe0324c5	-0.12806995
7	0x3e19b291	0.15009524

conv_block_2.0.weight f4 [8, 8, 3, 3]
0	0x3d9a6465	0.0753868
1	0xbd938805	-0.07203678
2	0xbc62aa55	-0.013834556
3	0x3d23e47c	0.04001282
4	0x39b511e2	0.00034536334
5	0xbda535af	-0.0806688
6	0x3f15bee6	0.5849441
7	0x3f099629	0.5374475
8	0x3f34a441	0.7056313
9	0xbdab17f9	-0.08354182
10	0x3d349e8e	0.044096522
11	0x3d9eb12c	0.077486366
12	0xbe6f9173	-0.23395328
13	0x3d876134	0.06610337
14	0xbe1e24b2	-0.15443686
15	0xbe968ab6	-0.29402703
16	0x3e120759	0.14260615
17	0xbc0980ee	-0.008392556
18	0xbd8c94a0	-0.068642855
19	0x3d149626	0.036276005
20	0xbd1ac7e8	-0.0377883
21	0x3ddc5c03	0.10759737
22	0xbdd17d1f	-0.10228943
23	0xbd187a98	-0.03722629
24	0xbde90ccb	-0.11379393
25	0xbd3e1be8	-0.046413332
26	0x3d182d02	0.037152298
27	0x3e69a63a	0.22817317
28	0x3df0f5c7	0.11765628
29	0x3cb55bf6	0.022138577
30	0xbc02b00c	-0.007976543
31	0x3e144955	0.14481099
32	0xbd3d4899	-0.046211813
33	0xbdc941bb	-0.0982699
34	0x3bb5e0d7	0.0055504846
35	0xbdb29585	-0.08719925
36	0x3d9234ff	0.071390145
37	0xbd61b57c	-0.055104718
38	0xbd665ad2	-0.056238957
39	0xbdca7065	-0.09884719
40	0x3cf27504	0.029596813
41	0xbdc3a22a	-0.09552415
42	0x3d4be97e	0.049783222
43	0x3d1870fa	0.037217118
44	0xbdd1b17e	-0.10238932
45	0x3e09e40d	0.134659
46	0xbeb0d1ec	-0.34535158
47	0xbe50c772	-0.20388582
48	0x3e484937	0.19559179
49	0xbeca48bb	-0.39508614
50	0xbd0dc88a	-0.034615077
51	0x3eb572bc	0.35439098
52	0x3da337b0	0.07969606
53	0xbe0cc1b0	-0.13745761
54	0xbd2c6fde	-0.042098872
55	0xbd0be562	-0.034154303
56	0xbcf81d7c	-0.030287497
57	0x3d881ba5	0.06645898
58	0x3d2f808e	0.04284721
59	0x3dbf331d	0.09335921
60	0xbd34ca06	-0.044137977
61	0x3d227432	0.039661594
62	0x3d2bbfb2	0.04193086
63	0xbbb389f2	-0.005479091
64	0xbec459c2	-0.3834973
65	0xbe9ccd54	-0.30625403
66	0x3e1b9532	0.15193632
67	0xbebac1ed	-0.3647608
68	0xbe5be5c7	-0.21474372
69	0x3ea5ee09	0.3240817
70	0x3ded773a	0.11595006
71	0x3de2dbac	0.11077055
72	0x3e06dfd7	0.13171326
73	0x3e063161	0.13104774
74	0x3e36560d	0.17806263
75	0x3f2e7d44	0.6815989
76	0x3f12bb92	0.5731746
77	0x3ea436e9	0.32073143
78	0x3e905110	0.28186846
79	0x3e2f0e9c	0.17095417
80	0xbdcc008c	-0.09961042
81	0xbdc5c16a	-0.096560314
82	0xbd828bca	-0.06374319
83	0xbe30d0e3	-0.17267184
84	0xbdb4dde4	-0.08831385
85	0x3d20d0fa	0.039261796
86	0x3cd66bc3	0.026174432
87	0x3e48c950	0.19608045
88	0x3d822734	0.06355134
89	0x3dfc9503	0.12333109
90	0x3dc0b98a	0.09410389
91	0xbdc674f7	-0.09690278
92	0xbacc7781	-0.001559958
93	0x3cfc5451	0.030801924
94	0xbe000848	-0.12503159
95	0x3dc2b9e8	0.09508115
96	0xbd9391c9	-0.07205541
97	0xbda02962	-0.07820393
98	0xbd8a0c01	-0.06740571
99	0xbe6ba332	-0.23011473
100	0xbec0450a	-0.37552673
101	0xbc642e47	-0.013927049
102	0xbda801cd	-0.082034685
103	0xbe51026f	-0.20411085
104	0xbcc5a1e9	-0.024125056
105	0x3e3b560c	0.18294543
106	0x3e0a8e5c	0.13530868
107	0x3e60c58a	0.21950355
108	0xbd90679a	-0.070510104
109	0xbd6b30cd	-0.057419587
110	0xbc91bc94	-0.017790116
111	0xbcb08f18	-0.021552607
112	0xbd995d29	-0.07488472
113	0x3c1f1328	0.009709157
114	0x3c3fe7d8	0.011712991
115	0xbc15f403	-0.009152415
116	0x3c85d71c	0.016337924
117	0x3d520394	0.051272944
118	0x3e4f40b0	0.2023952
119	0x3e452c72	0.19255236
120	0x3d9a01c1	0.07519866
121	0x3d63298e	0.05545955
122	0x3e49ba5b	0.19699995
123	0x3cd11eec	0.02552744
124	0xbd4772ba	-0.048693396
125	0x3ddf5b7e	0.109061226
126	0xbd0ef28c	-0.03489928
127	0x3dc879d0	0.09788859
128	0x3d9eb35c	0.07749054
129	0xbda5d454	-0.08097139
130	0x3dbf5995	0.09343258
131	0xbdbbaa3d	-0.0916333
132	0xbd85b76c	-0.065291256
133	0xbca0f3e0	-0.019647539
134	0xbda2aff1	-0.079437144
135	0x3e77923d	0.24176879
136	0x3e28afed	0.1647336
137	0x3e63aace	0.22233126
138	0x3d87b583	0.066264175
139	0x3e81d3c6	0.25356883
140	0x3e046b4f	0.1293156
141	0xbd51a83d	-0.051185835
142	0x3d81e97e	0.06343363
143	0x3dc17335	0.09445802
144	0x3eb3f153	0.35145053
145	0x3e1c2563	0.15248637
146	0x3d6dafe7	0.05802908
147	0x3f0809b9	0.53139836
148	0x3ef9102f	0.4864516
149	0x3eb14d5b	0.3462933
150	0x3e9519eb	0.29121336
151	0x3dd04c88	0.10170847
152	0xbd9a92ae	-0.07547508
153	0x3d51d2e6	0.05122652
154	0xbdeed2e6	-0.116613194
155	0x3d6016cc	0.05470924
156	0x3d9994aa	0.074990585
157	0x3d570e2a	0.052503742
158	0xbdca5616	-0.09879701
159	0x3da9b9d2	0.082873955
160	0x3cc22f52	0.023704205
161	0x3d887810	0.06663525
162	0x3d9fb507	0.077982
163	0xbd8802ea	-0.06641181
164	0x3d75c2a7	0.060000088
165	0xbd235170	-0.039872587
166	0x3d335c2c	0.043789074
167	0xbcad8bd3	-0.021184837
168	0xbdd749e6	-0.10512142
169	0xbdcfd206	-0.10147481
170	0xbdf7413e	-0.12072991
171	0xbe446e8d	-0.19182797
172	0xbe38c042	-0.1804209
173	0x3d82f01a	0.06393452
174	0xbd1db43a	-0.038501956
175	0xbdad856c	-0.08472714
176	0x3dc87446	0.097878024
177	0xbdb637be	-0.08897351
178	0x3b53cb29	0.0032317138
179	0x3e1ba158	0.15198267
180	0xbcf521dd	-0.029923374
181	0xbd1828c1	-0.03714824
182	0x3c8a3e7c	0.016875498
183	0xbc85b2cf	-0.016320614
184	0x3d4b87a8	0.04968992
185	0x3ddd46e5	0.10804538
186	0x3d15b4ef	0.036549505
187	0xbd554f74	-0.052077726
188	0xbde20155	-0.1103541
189	0x3e10ceed	0.14141436
190	0x3e059c9f	0.13048027
191	0x3e4937ad	0.19650145
192	0x3e3d4d47	0.1848651
193	0x3e3653d6	0.17805418
194	0x3e399833	0.18124466
195	0x3e003d75	0.12523444
196	0x3b4ced53	0.0031269386
197	0xbe150019	-0.14550819
198	0x3dfd18a1	0.12358213
199	0xbd1c5365	-0.03816547
200	0xbd1e74a7	-0.038685467
201	0x3dee8065	0.11645583
202	0x3ddef4c9	0.10886533
203	0x3d571c33	0.052517127
204	0x3bf211b0	0.0073873624
205	0xbdcb05e7	-0.09913235
206	0xbc486eb8	-0.012233429
207	0x3ea9f84a	0.33197242
208	0x3ea20e62	0.31651598
209	0x3e53fa95	0.20701058
210	0x3e1f46fe	0.15554425
211	0x3e241633	0.16024093
212	0x3e4e3761	0.20138313
213	0x3da85fc6	0.08221392
214	0x3df4ae02	0.11947252
215	0xbc8e8fa1	-0.017402472
216	0x3e164f2a	0.14678636
217	0x3e6ed245	0.23322399
218	0x3cadccd5	0.021215836
219	0x3e089016	0.13336214
220	0x3e4379bc	0.19089407
221	0x3e4c0c5d	0.19926591
222	0x3e000a7a	0.12503996
223	0xbe91fe82	-0.28514487
224	0xbe749feb	-0.23889129
225	0xbe7ae952	-0.24503067
226	0xbe7fc1db	-0.24976294
227	0xbde52c9c	-0.11190149
228	0xbc35e7c6	-0.011102622
229	0x3d94f141	0.07272578
230	0x3e8ba7e7	0.27276537
231	0x3e07cb17	0.13261066
232	0x3dd73bb7	0.105094366
233	0x3e2f00ff	0.17090224
234	0xbcef1284	-0.029183634
235	0xbd3a9270	-0.04554981
236	0x3dd9091f	0.10597443
237	0x3d7fab62	0.062419303
238	0x3dd9f101	0.10641671
239	0x39c55400	0.00037637353
240	0x3cc2b34c	0.023767136
241	0x3d2763be	0.040866606
242	0xbde47590	-0.11155236
243	0xbe90f1f8	-0.28309608
244	0xbe3d9fbe	-0.18517968
245	0x3b1938f2	0.002337989
246	0xbe07262c	-0.13198155
247	0x3e0e940c	0.13923663
248	0x3ede00f0	0.4336009
249	0x3df0b233	0.11752739
250	0x3e30e68d	0.17275448
251	0x3e9cbd19	0.3061302
252	0xbca6c0b8	-0.020355567
253	0x3d36c41e	0.044620626
254	0xbc9f8408	-0.019472137
255	0xbcbd73c8	-0.023126498

conv_block_2.0.bias f4 [8]
0	0xbd55159c	-0.05202256
1	0xbd389605	-0.045064945
2	0xbc50981d	-0.012731579
3	0xbe326b14	-0.1742366
4	0x3e24e61c	0.16103405
5	0xbb5a5357	-0.0033313835
6	0xbe12e3ae	-0.14344665
7	0x3c36f94d	0.011167836

conv_block_2.2.weight f4 [8, 8, 3, 3]
0	0xbe9f00ba	-0.31055242
1	0xbe9eac25	-0.3099071
2	0xbe0c6299	-0.13709487
3	0xbe540cb7	-0.20707975
4	0xbe92bfa7	-0.28661844
5	0x3d07fe9e	0.033201806
6	0xbe664248	-0.22486222
7	0xbe858294	-0.26076186
8	0xbda84645	-0.08216528
9	0x3debbedc	0.11511013
10	0xbde982b2	-0.11401881
11	0xbea6e5ec	-0.3259729
12	0xbc474483	-0.012162331
13	0xbd47cd70	-0.048779905
14	0xbe88344c	-0.266024
15	0xbe8c1721	-0.27361396
16	0xbdb561cb	-0.08856543
17	0xbd267a8a	-0.040644206
18	0x3cf18bde	0.02948564
19	0xbc01c923	-0.00792149
20	0xbe648399	-0.22315826
21	0xbe0743c5	-0.13209446
22	0xbd1bc5c3	-0.038030397
23	0xbdb683a7	-0.089118294
24	0xbe806c22	-0.250825
25	0xbdde0498	-0.1084072
26	0xbe0aabc4	-0.13542086
27	0xbc4e49e4	-0.012590859
28	0x3e33321a	0.17499581
29	0xbe769c75	-0.24083121
30	0x3e1ecf9d	0.15508886
31	0x3e6e2625	0.23256738
32	0xbe53031a	-0.20606652
33	0x3d4d6de9	0.050153647
34	0x3d5a8c89	0.05335668
35	0xbe3af68c	-0.18258113
36	0xbde3327b	-0.11093613
37	0x3db781c1	0.089602955
38	0x3e237b90	0.15965104
39	0xbdcbc291	-0.0994922
40	0x3d8f5fef	0.0700072
41	0x3e005b80	0.12534904
42	0x3e19d4fd	0.15022655
43	0x3df4ee37	0.119594984
44	0x3e33d900	0.17563248
45	0x3b03cad0	0.00201099
46	0x3de9bc9a	0.11412926
47	0xbe28f0dc	-0.1649813
48	0xbe26c08d	-0.1628439
49	0xbdee3333	-0.11630859
50	0xbe150038	-0.14550865
51	0xbdbfe86b	-0.09370502
52	0xbe5a72c8	-0.21332848
53	0xbd9d56d6	-0.07682578
54	0xbe09f245	-0.13471325
55	0x3d90370c	0.07041749
56	0xbda74e16	-0.081691906
57	0xbd8b5e46	-0.068050906
58	0x3de818df	0.11332869
59	0xbdfb36d1	-0.12266315
60	0xbdd8c416	-0.105842754
61	0x3d7d513c	0.06184505
62	0xbb054fe8	-0.0020341817
63	0x3e5f7787	0.2182294
64	0xbd1683bf	-0.036746737
65	0xbe4b6a48	-0.19864762
66	0x3dce1f4f	0.100645654
67	0xbdbaef36	-0.09127657
68	0xbe300f2b	-0.17193286
69	0xbe123401	-0.1427765
70	0xbe55e6b1	-0.20888783
71	0xbd97a57f	-0.07404613
72	0xbf0ba1b1	-0.54543597
73	0xbe7da6a0	-0.24770594
74	0xbdc0642d	-0.09394107
75	0xbe9ad9af	-0.30244204
76	0xbe844188	-0.25831246
77	0x3e82ce72	0.2554813
78	0xbe7f0599	-0.24904479
79	0xbe53b8e2	-0.20675996
80	0x3e6659d4	0.22495204
81	0xbdf4ec10	-0.11959088
82	0xbec69304	-0.3878404
83	0xbe6bd32f	-0.23029779
84	0x3b36625f	0.002782963
85	0x3d59fe45	0.053221006
86	0xbe1937ad	-0.14962645
87	0xbeae3e76	-0.3403203
88	0xbee1a434	-0.4407059
89	0xbd9ec9be	-0.07753323
90	0x3cdd7ffc	0.027038567
91	0xbeaa5dbd	-0.33274642
92	0xbed35c25	-0.41281238
93	0xbe0c8c8e	-0.13725492
94	0xbe04321e	-0.12909743
95	0xbe4e634c	-0.20155066
96	0xbe5de2fd	-0.2166862
97	0xbef0e496	-0.47049397
98	0xbe59562a	-0.21224275
99	0x3e4d9d44	0.20079523
100	0xbb84335b	-0.0040344424
101	0xbe035cce	-0.12828371
102	0x3f0eb9cb	0.5575225
103	0x3ebe790c	0.37201726
104	0x3e2985be	0.16554925
105	0x3ee828b9	0.4534357
106	0x3dffc5b8	0.12488884
107	0xbdcd15d5	-0.1001393
108	0xbe1e58e5	-0.15463598
109	0x3e4a15ef	0.1973493
110	0x3e8bd860	0.2731352
111	0xbd1a3367	-0.037646677
112	0x3e0be636	0.13662037
113	0x3ebc91d1	0.3683
114	0xbe2aada9	-0.16667809
115	0x3e53fd14	0.2070201
116	0x3eb9fea5	0.3632709
117	0xbda88684	-0.08228782
118	0xbe373617	-0.17891727
119	0xbf3521bd	-0.70754606
120	0x3e4f0d62	0.20219949
121	0x3dad4ed6	0.084623024
122	0xbf0a26b7	-0.53965324
123	0x3e776084	0.24157912
124	0xbcd6b143	-0.026207572
125	0xbecd4a50	-0.40095758
126	0x3e24436c	0.16041344
127	0x3ed41fd9	0.41430548
128	0x3e41b756	0.18917593
129	0x3e76e78b	0.24111764
130	0x3f149eb3	0.58054656
131	0x3e8c7c04	0.27438366
132	0x3eccb28c	0.3997997
133	0x3eb281b0	0.3486457
134	0x3ead3395	0.33828416
135	0xbe3d3e80	-0.18480873
136	0xbe2a8287	-0.16651355
137	0xbe8ed0ae	-0.27893585
138	0xbe878b48	-0.2647345
139	0xbe81eedd	-0.2537755
140	0xbebeb972	-0.3725086
141	0xbeb35fcd	-0.35034028
142	0xbee636f1	-0.44963792
143	0xbe33ac3f	-0.17546175
144	0xbe2f5d53	-0.17125444
145	0xbef4b452	-0.47793823
146	0xbdde7513	-0.10862174
147	0xbbdf8388	-0.0068210997
148	0xbe40846c	-0.18800515
149	0x3ddafafb	0.10692402
150	0xbe7d4f1c	-0.24737209
151	0xbee1d731	-0.4410949
152	0xbce676f6	-0.028132897
153	0xbe35409b	-0.17700426
154	0xbe707514	-0.23482162
155	0xbe0f05ca	-0.13967052
156	0xbe3a4993	-0.18192129
157	0xbe0709f3	-0.13187389
158	0xbdca1044	-0.09866384
159	0xbe78b532	-0.2428787
160	0xbe71c1bd	-0.23609062
161	0xbdf3e4dd	-0.119088866
162	0xbb4cc0c4	-0.0031242827
163	0xbd2ae337	-0.041720595
164	0xbdd16d58	-0.10225934
165	0xbdfc14e9	-0.12308676
166	0xbd508f9a	-0.0509182
167	0xbd89d1e5	-0.06729487
168	0xbe9f2387	-0.31081793
169	0xbdfa1b2a	-0.122122124
170	0xbd804a54	-0.06264177
171	0xbd862539	-0.065500684
172	0x3b5e3be1	0.0033910202
173	0xbda42b44	-0.08016065
174	0x3d46e676	0.04855963
175	0x3dbd2117	0.09234827
176	0x3d665865	0.056236643
177	0xbd888e80	-0.06667805
178	0x3d72005b	0.05908237
179	0xbd581935	-0.052758414
180	0xbc98735b	-0.018609693
181	0xbb20ade8	-0.0024517719
182	0x3e3ffc5e	0.18748614
183	0x3ddace41	0.10683871
184	0x3db42186	0.087954566
185	0x3e4ac053	0.19799928
186	0xbd5a7af2	-0.053339906
187	0x3db0576c	0.086104244
188	0x3e262161	0.1622367
189	0x3d7585d6	0.05994209
190	0xbd9f8593	-0.07789149
191	0xbe1b7f35	-0.15185244
192	0xbe034952	-0.12820938
193	0x3b63eefa	0.0034779892
194	0xbe3345ee	-0.17507145
195	0xbe8180c1	-0.25293544
196	0xbe628534	-0.22121125
197	0xbe593113	-0.21210127
198	0xbd795935	-0.06087609
199	0x3de68146	0.11255126
200	0xbe2e5f36	-0.17028508
201	0xbdeff912	-0.11717428
202	0x3d7b9657	0.061422672
203	0xbe22be9f	-0.15893029
204	0x3ccc3888	0.0249293
205	0x3e6a22c9	0.22864832
206	0xbb9c001f	-0.0047607566
207	0xbd705c61	-0.05868185
208	0xbd92f07c	-0.07174775
209	0xbd9a12fc	-0.07523152
210	0xbb2f75fd	-0.0026773207
211	0xbddd31e7	-0.10800534
212	0xbe440fd0	-0.19146657
213	0xbe2d697c	-0.1693477
214	0xbe2783f2	-0.16358927
215	0xbe346e6b	-0.17620246
216	0x3d47e041	0.04879785
217	0xbe26a91e	-0.1627545
218	0x3dfe438f	0.124152295
219	0x3e200f71	0.1563089
220	0x3de366b4	0.111035734
221	0x3d2ae5ec	0.041723177
222	0xbc0eb94a	-0.008711169
223	0xbcf7f2c2	-0.030267123
224	0xbbae1b67	-0.005313325
225	0xbce03e00	-0.027373314
226	0xbeb29d2d	-0.3488554
227	0xbe51dfdc	-0.20495552
228	0xbdd25f0e	-0.102720365
229	0xbcf297d8	-0.02961342
230	0xbdf4397d	-0.119250275
231	0x3d0675e8	0.032827288
232	0x3dbd436c	0.09241375
233	0x3dd48d9a	0.10378571
234	0xbe539a2b	-0.20664279
235	0xbea1a395	-0.31570116
236	0xbe3e3fe5	-0.18579061
237	0xbe1798e9	-0.14804424
238	0xbd771cb9	-0.060330126
239	0x3caf57c1	0.021404149
240	0xbda9f70a	-0.08299072
241	0x3d9ea993	0.077471875
242	0xbd0ff667	-0.035147097
243	0x3ab703d6	0.0013962935
244	0xbd716c99	-0.058941457
245	0x3dc62d67	0.096766286
246	0x3d59bf41	0.05316091
247	0xbd7ecbde	-0.06220614
248	0x3d880893	0.066422604
249	0x3e56833d	0.20948501
250	0x3e42fd80	0.19042015
251	0x3e9f9d96	0.31174916
252	0x3d87ddad	0.06634078
253	0xbd8c66ce	-0.06855546
254	0xbd5f9510	-0.054585516
255	0xbde41891	-0.11137498

conv_block_2.2.bias f4 [8]
0	0x3e1b0b45	0.15141018
1	0xbb3bda92	-0.0028664214
2	0x3e2f639f	0.17127846
3	0xbe38336a	-0.17988363
4	0xbd23735f	-0.03990495
5	0x3e7790d2	0.24176338
6	0x3cc99d4a	0.024611134
7	0x3d07fd94	0.033200815

classifier.1.weight f4 [1, 2048]
0	0xbe04084e	-0.12893793
1	0xbd536f92	-0.051620074
2	0xbd7f8f5e	-0.062392585
3	0x3e495db9	0.19664659
4	0x3e175508	0.1477853
5	0xbdadb79b	-0.084822856
6	0xbe364e18	-0.17803228
7	0x3bd25e37	0.0064199227
8	0xbe13b217	-0.14423405
9	0x3d62f655	0.0554107
10	0x3c9166d2	0.017749224
11	0xbd54d6b2	-0.051962562
12	0x3d302da3	0.043012273
13	0x3e6483d9	0.22315921
14	0xbd4c5733	-0.049887847
15	0xbd6f7ec1	-0.05847049
16	0xbcc53356	-0.02407233
17	0x3d980509	0.074228354
18	0x3e713d1c	0.23558468
19	0x3d95d355	0.07315699
20	0x3d518666	0.051153563
21	0x3d1b6948	0.0379422
22	0xbda3fbcd	-0.080070116
23	0x3dfa7503	0.122293495
24	0xbc92fbed	-0.017942393
25	0x3bdc94e8	0.006731618
26	0xbda7c70e	-0.081922635
27	0xbe12a6a4	-0.14321381
28	0xbe61e862	-0.22061303
29	0xbcdded38	-0.027090654
30	0xbd68ff92	-0.056884356
31	0x3d147acf	0.036249932
32	0xbc494e45	-0.012286727
33	0x3dc47eaa	0.09594472
34	0x3e37744b	0.17915456
35	0x3bf27b37	0.0073999423
36	0xbcc45600	-0.02396679
37	0x3d69e200	0.057100296
38	0x3c792b61	0.015208096
39	0x3e05cc7a	0.13066283
40	0x3dd68f6c	0.10476574
41	0x3cf5f3c1	0.030023457
42	0xbcc146d4	-0.023593344
43	0x3b9485b5	0.0045325407
44	0x3da09e21	0.07842661
45	0x3dc9807b	0.09838959
46	0xb92c3d96	-0.00016426141
47	0x3dcb7a86	0.09935479
48	0xbcf25090	-0.02957943
49	0xbcabed14	-0.020987071
50	0x3e02422a	0.12720552
51	0x3bef45de	0.00730203
52	0xbd4a10a4	-0.049332276
53	0xbd43bf48	-0.047789842
54	0x3de216fd	0.11039541
55	0x3d6c4895	0.057686407
56	0x3db81657	0.08988636
57	0x3d93fba3	0.0722573
58	0x3e035267	0.12824403
59	0x3dc1c751	0.09461845
60	0x3dbb5274	0.09146586
61	0xbc3871fd	-0.011257646
62	0xbca6b1c2	-0.020348433
63	0x3cc81dad	0.024428213
64	0xbcd5293b	-0.026020637
65	0xbd2043fd	-0.03912734
66	0xbd1c542e	-0.038166218
67	0xbe322110	-0.17395425
68	0xbdfc6c32	-0.12325324
69	0xbdd9df8b	-0.106383406
70	0x3dd06526	0.101755425
71	0xb9b342da	-0.0003419135
72	0x3d7dded3	0.06198008
73	0x3dadccb5	0.084863104
74	0x3e08a367	0.13343583
75	0xbdf28ccc	-0.11843261
76	0xbd8ef56e	-0.06980406
77	0xbdb9dd3a	-0.09075399
78	0x3bd880ef	0.006607167
79	0xbd433f45	-0.04766776
80	0x3dc43909	0.09581191
81	0x3d27b7ca	0.04094676
82	0xbde99d0b	-0.11406907
83	0xbdd4beb0	-0.10387933
84	0x3d8caaa1	0.068684824
85	0xbcd984eb	-0.026552638
86	0x3d1c1174	0.038102582
87	0xbd3b005b	-0.045654636
88	0x3c585159	0.013202989
89	0xbda9a936	-0.082842276
90	0x3e122fb4	0.1427601
91	0x3d274c9d	0.04084455
92	0xbdcf2f1f	-0.101164095
93	0xbd76298d	-0.06009822
94	0x3cc0740c	0.023492835
95	0xbcba2264	-0.022721477
96	0xba7cb486	-0.0009639937
97	0xbd58bbb3	-0.05291338
98	0xbb60dcf6	-0.003431139
99	0xbddf147a	-0.108925775
100	0x3e2e1f1b	0.17004053
101	0xbe16393e	-0.14670274
102	0xbdb060f2	-0.08612241
103	0xbd022094	-0.03176935
104	0x3d755fdc	0.05990587
105	0xbdad047c	-0.08448121
106	0xbd86af96	-0.06576459
107	0x3e12bc66	0.14329681
108	0x3d8f5a6f	0.06999671
109	0x3c73c51f	0.01487854
110	0x3cd26d19	0.025686787
111	0xbda9962a	-0.08280595
112	0xbdb40b59	-0.08791227
113	0xbddf95e6	-0.10917263
114	0x3c02afa4	0.007976446
115	0x3e56ce62	0.20977166
116	0x3d3e72f8	0.04649636
117	0xbc5e3e71	-0.013564692
118	0xbddb5b4c	-0.10710773
119	0xbb8f4887	-0.0043726596
120	0x3cb8f3ec	0.022577249
121	0x3d0773a5	0.03306927
122	0xbdc7fc92	-0.09764971
123	0xbbc347ac	-0.0059594717
124	0x3e70bac8	0.23508751
125	0x3d91c794	0.07118145
126	0x3e241ba0	0.16026163
127	0x3da50950	0.08058417
128	0xbc46d649	-0.0121360505
129	0xbdd18681	-0.10230733
130	0x3dd54f18	0.104154766
131	0x3e65ae83	0.22429852
132	0x3c9f3865	0.01943607
133	0x3d3dea0c	0.046365783
134	0xbddf1545	-0.10892729
135	0x3cdf9701	0.027293684
136	0x3a67e71e	0.000884639
137	0x3daed95a	0.0853755
138	0xbd87ab82	-0.066245094
139	0xbcda6de4	-0.026663728
140	0xbce4a3d5	-0.027910152
141	0x3daa48bb	0.083146535
142	0x3db236a3	0.087018274
143	0x3d9ff27f	0.07809924
144	0x3dbd592a	0.09245522
145	0xbe022b72	-0.12711886
146	0x3d957834	0.072983176
147	0x3e1ed438	0.15510643
148	0x3eb5fc57	0.35544083
149	0x3d6ff581	0.05858374
150	0xbd992c0c	-0.074791044
151	0x3ca9b682	0.02071691
152	0xbc70e5d3	-0.014703232
153	0x3d7ea5c0	0.06216979
154	0x3ca58b3c	0.020207994
155	0xbda04e9c	-0.078274935
156	0xbb46e075	-0.003034619
157	0x3d1b3b17	0.03789815
158	0x3d3f47a6	0.04669919
159	0x3deaa805	0.114578284
160	0x3e362515	0.17787583
161	0xbe15ca05	-0.14627846
162	0x3d47161d	0.048605073
163	0x3e4dc572	0.2009485
164	0x3e950def	0.29112193
165	0x3ded9f3d	0.11602638
166	0xbd717f71	-0.05895943
167	0x3d1a56f2	0.037680574
168	0xbd3b85b3	-0.045781802
169	0x3d01f70d	0.031729747
170	0x3d7d7c28	0.061885983
171	0x3de1a0f2	0.11017026
172	0x3e24c845	0.16092022
173	0x3e69faf3	0.22849636
174	0x3d84051a	0.064462855
175	0x3e5bd654	0.21468478
176	0x3d8cb9b4	0.068713576
177	0xbd624bf5	-0.05524822
178	0xbe43e78b	-0.19131295
179	0xbe1057eb	-0.14096038
180	0xbdb70e1e	-0.089382395
181	0x3e60a9ff	0.21939848
182	0x3cf9c7d1	0.030490788
183	0x3d47cbf2	0.04877848
184	0xbd250b3d	-0.04029392
185	0x3d2632d0	0.040575802
186	0x3dc4c0b6	0.09607069
187	0x3e5d9590	0.21639085
188	0x3de2a7c5	0.11067156
189	0x3e923335	0.28554693
190	0x3e31011d	0.17285581
191	0x3e5dd477	0.2166308
192	0x3d6f348c	0.058399722
193	0xbd265c1d	-0.04061519
194	0xbe1ad4b6	-0.15120205
195	0xbe1a8b22	-0.15092137
196	0xbc8459f6	-0.016156178
197	0x3dd3262d	0.10310016
198	0x3bbdadf6	0.00578856
199	0x3d3371ed	0.04380982
200	0xbd8c634a	-0.068548754
201	0x3d0a9f81	0.03384352
202	0x3d087b5a	0.033320762
203	0x3d4feef1	0.05076498
204	0xbdb419a6	-0.087939546
205	0xbe815908	-0.25263238
206	0xbe598938	-0.21243751
207	0xbcdf2f74	-0.027244307
208	0x3c812bfb	0.015768042
209	0x3d56fb13	0.052485537
210	0xbd884edb	-0.066556655
211	0xbd97aa2a	-0.07405503
212	0x3bdef484	0.006804051
213	0x3c3069bb	0.010767396
214	0xbc8b7bbf	-0.01702678
215	0x3cd6c83a	0.026218522
216	0xbd75b2a1	-0.059984807
217	0x3c262282	0.010140063
218	0x3a51508f	0.00079847215
219	0x3d644d32	0.05573768
220	0xbd62ea74	-0.055399373
221	0xbde6f38e	-0.11276923
222	0xbda251c5	-0.079257526
223	0xbe5d371f	-0.21603058
224	0x3dc9f9b5	0.09862081
225	0x3d2fc8a6	0.042915963
226	0x39046ca1	0.00012628968
227	0xbdb211f5	-0.08694831
228	0xbd55e2e1	-0.05221832
229	0xbd166812	-0.036720343
230	0xbd4afade	-0.04955565
231	0xbd15deb0	-0.036589324
232	0xbd877dd0	-0.06615794
233	0xbd4c02e5	-0.049807448
234	0x3ce77395	0.028253356
235	0xbae7867b	-0.001766398
236	0xbd2830b6	-0.04106208
237	0xbd58c5f8	-0.052923173
238	0x3d1825f1	0.03714556
239	0xbe0ca1e8	-0.13733637
240	0x3dfda99f	0.12385868
241	0x3e195deb	0.14977233
242	0x3d1ba09c	0.037994966
243	0xbc99c081	-0.01876855
244	0xbcdc14bd	-0.026865358
245	0xbd10df0b	-0.03536896
246	0xbd430262	-0.047609694
247	0xbd03cdab	-0.032178562
248	0xbda6836e	-0.08130537
249	0xbca02d8b	-0.019552967
250	0xbce29b3c	-0.027661912
251	0xbd0332a7	-0.032030728
252	0x3bf24ed8	0.007394653
253	0x3d8da324	0.06915882
254	0x3c9150da	0.017738748
255	0xbd3723c2	-0.044711836
