models/TinyVGG_pneumoniaMNIST.pth (torch, 19850 bytes, 9 tensors)

conv_block_1.0.weight f4 [8, 1, 3, 3]
000000 0d fc 1c 3e 54 01 3a 3e ff b1 3c be 4e a8 48 3e
       0.15330525 0.18164569 -0.18427275 0.19595453
000010 77 c9 35 be 6f 07 45 bd 3d 63 7b be 44 83 f1 3d
       -0.17752634 -0.048102792 -0.24549575 0.11792615
000020 f6 94 51 3e c1 47 66 be 08 ea a6 3e 28 ba b2 3d
       0.2046698 -0.2248831 0.32600427 0.08726913
000030 f0 7e 86 3e 69 ea 91 3d 47 3f 34 3e 11 65 e6 bc
       0.2626872 0.07124788 0.17602263 -0.028124364
000040 73 25 91 3e 07 f2 8b 3d 18 59 1f be b4 02 ae 3d
       0.28348884 0.068332724 -0.1556133 0.08496609
000050 c8 43 1d be d8 1d 20 bd a8 a2 0a be 3e 6e 62 3e
       -0.15357888 -0.03909096 -0.13538611 0.22112367
000060 1c b8 86 be b3 5b 1d be 90 c4 c0 bd 80 8d 90 be
       -0.2631234 -0.15367012 -0.09412491 -0.28232956
000070 bb 8d ea bc 50 11 c9 be 50 28 b2 3e 91 3f 57 be
       -0.028632035 -0.3927102 0.3479638 -0.21020342
000080 9f 0f a6 3e 00 41 58 3e 52 37 6d 3d 25 c7 b7 3e
       0.32433793 0.21118546 0.057914086 0.35894123
000090 d0 24 9c 3d 05 6c 9c 3e 64 a2 78 3d e5 3e aa bd
       0.07624209 0.30551162 0.060701743 -0.083127774
0000a0 b6 37 f7 3d 9a b8 93 bd 1d da 34 3e ec e7 af 3e
       0.12071173 -0.07212944 0.17661329 0.3435663
0000b0 4b 7d 67 3e 8f ca eb bd 65 9f 6a 3e d0 a8 e2 3d
       0.22606389 -0.11513244 0.22912367 0.11067355
0000c0 c2 68 23 3e 48 f3 53 be aa b2 a3 be c3 27 04 be
       0.1595793 -0.20698273 -0.31972247 -0.12905793
0000d0 bd 82 82 be cf c9 8e 3e cc 87 84 3e 65 19 90 3e
       -0.2549037 0.27888343 0.25884855 0.28144374
0000e0 58 4f 65 3e 65 eb 9f bc a8 51 70 3e f0 a7 8c be
       0.22393548 -0.019521425 0.2346865 -0.27471876
0000f0 64 02 59 be 8c cc f7 be 1d a1 2a be 80 7b 24 be
       -0.21192318 -0.48398244 -0.16663022 -0.16062737
000100 49 60 64 3d 00 8b df bd 84 f8 62 3e 35 02 80 be
       0.055755887 -0.10915184 0.22165114 -0.25001684
000110 da 24 7c be f2 ff 6b be f0 1f 8c 3e f1 b7 af 3d
       -0.24623433 -0.23046854 0.27368116 0.08580006

conv_block_1.0.bias f4 [8]
000000 d9 b0 9e 3e ae ed ae be bb 47 a9 be 69 6c 19 be
       0.309943 -0.3416571 -0.33062539 -0.14982761
000010 ff ba 8f be 4f af 7a 3e f6 36 4c 3e d3 32 ba 3e
       -0.28072354 0.24480937 0.19942841 0.363669

conv_block_1.2.weight f4 [8, 8, 3, 3]
000000 da db 18 bd de ff 9f bd 59 ee 96 3d d5 04 80 bc
       -0.03731904 -0.07812475 0.0736968 -0.015627304
000010 94 51 c3 3d 7b 25 a2 bb c6 b4 00 3e 21 5e 53 bd
       0.09537044 -0.0049483157 0.1256896 -0.05160344
000020 a2 a2 f9 bc 3a 6c a8 bd c8 6c 79 be 7a 5a 39 be
       -0.030473057 -0.082237676 -0.24357903 -0.1810092
000030 ba dc e3 bc b7 be 07 be 74 62 8b be e1 7b 45 bd
       -0.027815212 -0.13256346 -0.2722355 -0.048213843
000040 02 c7 b0 3b d1 25 0d be ac 21 2b bd ac 89 e9 bd
       0.0053948173 -0.13783957 -0.04178016 -0.11403212
000050 1c 38 8a bd 6c 2b f1 3c b0 dc 7e bc ff 32 af bd
       -0.06748983 0.02943965 -0.015555546 -0.085546486
000060 e0 2a 35 3b 32 de a4 bd ad c4 cc bd 1e b2 92 be
       0.0027643964 -0.08050193 -0.099984504 -0.28651518
000070 5c 65 1b 3d 40 63 c4 be 63 1a 42 3e 3c d0 a6 3d
       0.03793846 -0.38356972 0.18955378 0.08145186
000080 e7 fe ad 3d 5a f7 19 be 26 61 dc bd f0 08 8d bd
       0.084958844 -0.15035763 -0.10760717 -0.0688647
000090 84 2f 1e be c6 2e 03 bf 7b 7d e2 be fe 2a 2d be
       -0.15447813 -0.51243246 -0.4423636 -0.16910931
0000a0 bb 2b 7f be 27 42 9f be 16 36 01 3e 32 5d 5b bd
       -0.24919026 -0.31105158 0.12618288 -0.053555675
0000b0 94 e9 b3 bd d7 15 d5 bd 42 16 ce 3c cb 3f 0e 3d
       -0.08784786 -0.10404556 0.025157098 0.034728806
0000c0 cd 19 86 3e ce 5f 87 3e 78 16 c4 3e e4 a9 e7 3d
       0.2619156 0.2644028 0.38298392 0.11311701
0000d0 ec af 87 3d 62 75 83 3e b9 56 88 3e c9 ab 92 3e
       0.06625351 0.25675493 0.26628664 0.28646687
0000e0 4e 50 3b 3e 85 11 d5 3d 6d 21 89 3e 59 38 22 3e
       0.18292353 0.10403732 0.26783314 0.15841807
0000f0 9f a7 1f be b6 35 98 be dd ce ed bd 2f d5 10 be
       -0.15591286 -0.29728478 -0.11611722 -0.14143823
000100 93 10 9b bd 8c 3b 4d 3b 08 86 03 3e d5 cc 33 3e
       -0.07571521 0.003131601 0.12844098 0.17558606
000110 7a 23 2e 3e c3 75 64 3d cc bc 37 3e 0d c3 9c 3d
       0.1700572 0.05577637 0.17943114 0.076543905
000120 18 c4 a7 bc b2 27 b3 bd 4a aa dc 3d d0 6c cc bd
       -0.020479247 -0.08747806 0.107746676 -0.09981692
000130 d7 ea 76 3d b2 78 28 3d 2b 37 b8 3c d1 82 84 bd
       0.060282554 0.04113073 0.022487244 -0.06470264
000140 f9 fb e5 3d 81 83 0b 3e 5c 96 13 3e 24 2e 92 3c
       0.112297006 0.13624384 0.14412826 0.017844267
000150 4d f6 33 3e 00 ca f0 3d 2d 11 87 3d bc 6d 57 3e
       0.17574425 0.117572784 0.06595073 0.21037954
000160 15 cf 10 3e 4d ac 0e 3d 8e 52 74 bd a0 6b b8 bb
       0.14141496 0.034832288 -0.059649043 -0.0056280643
000170 fd c3 86 3d a0 b3 f6 bc a4 b6 89 bd ac 4d 25 bd
       0.065803505 -0.030114949 -0.06724289 -0.040357277
000180 36 50 b4 bd 2a 27 2c 3d 59 d2 ba 3d de 2b 91 bd
       -0.088043615 0.042029537 0.09122152 -0.07088445
000190 29 97 ab 3d d5 61 9c 3d f2 60 9b 3e a4 57 5a 3e
       0.08378441 0.076358475 0.303474 0.21322495
0001a0 12 a6 a4 3e f7 31 06 3e 76 02 04 3e 49 e3 75 3d
       0.32157952 0.13104998 0.12891564 0.06003121
0001b0 bd c4 4c 3d 33 c4 e7 3d 25 77 a2 3d 57 16 5a 3d
       0.04999231 0.11316719 0.07932881 0.05324396
0001c0 b3 12 39 3e 0e d2 48 3e a7 79 92 3d 59 20 92 3d
       0.1807354 0.1961138 0.071521096 0.07135076
0001d0 c1 0c c3 3d 0b a6 21 be ce ef 1b be d4 8e 09 be
       0.09523917 -0.15785997 -0.15228197 -0.13433391
0001e0 48 ab 87 be 18 fc 65 be d2 17 48 bd f6 00 de bd
       -0.26497865 -0.22459447 -0.04885084 -0.10840027
0001f0 e5 0e 0b be 88 a0 34 be 9d c5 50 be 30 09 5c be
       -0.135799 -0.17639363 -0.20387883 -0.2148788
000200 2c 06 9b bd a2 18 72 bd fd 3f 18 3d 36 9c 9b 3d
       -0.075695366 -0.059105523 0.0371704 0.07598154
000210 bd ab f0 bd 10 6e 11 bd f2 65 b6 3c 01 05 8b 3d
       -0.117515065 -0.035505354 0.022265408 0.06788064
000220 e4 59 15 bd 27 c5 a1 bd 06 d8 23 bd 48 07 10 be
       -0.03646268 -0.07898932 -0.040000938 -0.14065278
000230 62 ad 20 be 31 3b 51 ba 62 d3 0e be ca 3e ad bd
       -0.1569114 -0.00079815375 -0.13947824 -0.08459242
000240 4f c7 04 be 27 fc 71 3d 0f fe 93 3d 0a c5 f9 3c
       -0.12966655 0.05907836 0.07226192 0.030489463
000250 8c 02 cb bd 5c 6d 0a be dc 06 c4 bd 21 61 9d 3d
       -0.09912595 -0.1351828 -0.09571621 0.076845415
000260 5e 7b 37 3d ab ad a8 3d e7 95 96 3d e7 5f c1 3c
       0.044795386 0.082362495 0.0735281 0.0236053
000270 5e 15 8d bc 37 db 9d bd 4f ca dc bd 42 c1 e1 bd
       -0.017222103 -0.077078275 -0.10780775 -0.11023189
000280 57 dc 74 3d 1d 3c 89 bd ec 4b c2 bc 48 e7 8a bd
       0.059780445 -0.06700919 -0.023717843 -0.06782395
000290 e0 ec af bc 81 e0 a9 bd 34 b5 9d bd 72 1f 20 3d
       -0.021475255 -0.08294774 -0.077005774 0.03909249
0002a0 4e 76 0f bd 5d 00 95 3d 38 dc 1a bd 9a 0d b1 bd
       -0.035024934 0.0727546 -0.037807673 -0.086451724
0002b0 30 57 aa bc 5e c6 c5 bd 00 af 13 bd d7 c5 e5 bd
       -0.020793527 -0.09656976 -0.036055565 -0.112193756
0002c0 0e d4 f8 3c 0a 09 a8 bd 6a 9f 72 3d 52 49 8e 3c
       0.030374553 -0.08204849 0.05923406 0.017368946
0002d0 89 c2 89 3d 03 04 ad bd 96 4e 9f 3d 94 8e 8b bd
       0.06726558 -0.08448031 0.07778661 -0.06814304
0002e0 d7 96 85 3d 2e 1d e5 3d 44 28 88 bc 45 98 2f 3c
       0.06522911 0.11187206 -0.016620763 0.010717456
0002f0 f1 fb 0d bd 37 36 d0 bd cf 43 db 3c f2 4b 21 be
       -0.0346641 -0.10166591 0.026765732 -0.15751627
000300 ff 83 7c 3d e6 8d 7d 3d 1b 20 92 3d 08 ba e3 bc
       0.06164932 0.061902903 0.0713503 -0.027798668
000310 61 2f 08 be ea 42 ea bb f8 32 55 3d 06 ca 09 be
       -0.13299324 -0.00714909 0.05205056 -0.13455972
000320 3b 8c 18 bd f9 6d ac bd dc 8e 27 bd 8f c7 9e bd
       -0.03724311 -0.08419413 -0.040907726 -0.077529065
000330 ce 51 45 bd 3e 43 48 bd 98 40 d7 bd 61 cb ae 3d
       -0.04817372 -0.048892252 -0.10510367 0.08534885
000340 f9 c5 9b 3d 84 c4 2a bd 83 de ca bc e4 b9 80 bd
       0.0760612 -0.04169132 -0.024764305 -0.06285456
000350 0b 5c 03 be 95 e0 ea bd 94 1b e8 3c d7 6e a4 bd
       -0.1282808 -0.11468617 0.028333463 -0.080289535
000360 db bc ad be 6b 2a 80 3d bc 0a 72 3d 41 81 82 be
       -0.33933148 0.062580906 0.05909227 -0.25489238
000370 ed bb 8d 3d 33 d9 8a 3d 19 69 6c be 81 66 9a 3c
       0.069206096 0.06779709 -0.23086967 0.018847706
000380 19 e8 73 bc bc ca 14 be dd 7b 2a 3e 5f c2 44 3e
       -0.014886879 -0.14530462 0.16648813 0.19214772
000390 18 5f 9a be b0 75 61 3e 9e ec 8e 3e db b1 26 be
       -0.30150676 0.2201755 0.279149 -0.16278784
0003a0 3d bf d2 3d ab 4f 50 3e c1 1b e5 3d 84 fd fd 3c
       0.10290382 0.20342891 0.11186934 0.031004675
0003b0 29 d0 a1 3d f3 f3 ed 3d d0 ee 93 bc 74 61 c8 3c
       0.079010315 0.11618795 -0.01805821 0.024460532
0003c0 c8 c0 a7 bd 50 f4 c6 bc 25 bf b2 3d d2 69 06 be
       -0.08191067 -0.02428642 0.08727864 -0.13126305
0003d0 cd 78 6d be e4 e5 09 be d6 60 a6 bd a9 59 48 bd
       -0.23190613 -0.13466603 -0.08123939 -0.04891363
0003e0 5a 77 a9 3d 3b cc 8a 3e 68 64 64 3e 22 81 a4 3e
       0.08274718 0.2710894 0.22303927 0.3212977
0003f0 77 31 a1 be 4f c8 da 3d fc 40 6c 3e 12 0f 90 be
       -0.3148305 0.10682737 0.23071665 -0.28136498

conv_block_1.2.bias f4 [8]
000000 70 f9 69 3d 3d a0 1d be 76 f8 33 bd b9 3f cb 3d
       0.057122648 -0.15393157 -0.043938123 0.099242635
000010 5b 5b bf bd a4 a7 d9 3d bb b7 0c be 4f 5c 3c 3e
       -0.093435965 0.10627678 -0.13741963 0.18394588

conv_block_2.0.weight f4 [8, 8, 3, 3]
000000 1a 1e ad be fb ff 8d be 08 bc ed bd 00 c5 91 3e
       -0.33812028 -0.2773436 -0.1160813 0.28470612
000010 6c 7c d6 3e c1 fb 13 3e cc 75 87 3e 3b 9f 99 3e
       0.418918 0.14451505 0.2645706 0.30004296
000020 d3 76 ab 3e 67 cb 28 3e 2e ef 56 bd d1 c5 2b 3e
       0.33489093 0.16483842 -0.052474193 0.1677468
000030 73 32 95 bd 86 c8 17 be a1 55 27 be 75 2f f3 3c
       -0.07285013 -0.14822587 -0.16341259 0.029685715
000040 1b a8 94 3d 69 12 65 3c 73 1d b1 bd 66 d8 2b 3d
       0.07258626 0.01398144 -0.08648195 0.04195442
000050 e8 c7 1a bd d2 ec d2 3d 8b 58 c5 bd d0 a7 5e bd
       -0.0377883 0.10299076 -0.09636029 -0.054359257
000060 f6 76 0c be da e6 26 bd 41 cd a6 3c 5c ee 43 3e
       -0.13717255 -0.0407475 0.020361545 0.19133896
000070 60 01 b5 bd 72 0f ec 3d ce 61 03 bd 24 84 08 be
       -0.08838153 0.115263835 -0.032075696 -0.13331658
000080 04 70 0b 3d 4a ab 88 3d b2 1a 77 be 90 93 87 3c
       0.034042373 0.06673296 -0.24131277 0.016549855
000090 ff 34 92 3d 7c b5 61 bd d2 5a 66 bd 65 70 ca bd
       0.071390145 -0.055104718 -0.056238957 -0.09884719
0000a0 04 75 f2 3c 2a a2 c3 bd 7e e9 4b 3d fa 70 18 3d
       0.029596813 -0.09552415 0.049783222 0.037217118
0000b0 7e b1 d1 bd 97 48 16 be 25 99 78 be c9 d8 26 be
       -0.10238932 -0.14676128 -0.2427717 -0.16293634
0000c0 fa 32 c7 3e 17 9b 39 3e 07 5f b3 3e ff 5a c6 3e
       0.3890608 0.18125568 0.35033438 0.387413
0000d0 9f db 3a 3e 82 b6 e9 bd f9 40 85 bd 5c 56 78 bd
       0.18247841 -0.11411764 -0.06506533 -0.060629234
0000e0 b3 56 68 bd 85 58 27 3d 53 d4 8b 3c b8 4a 8a 3d
       -0.056723308 0.040855903 0.017069018 0.06752533
0000f0 ac ec 2e bd 69 e2 0b 3d 6c a1 5c 3d 2b 0c 8b be
       -0.042706177 0.03415147 0.05386488 -0.2715772
000100 e5 ae aa be ac 85 71 be 86 eb c5 3e 56 05 87 3e
       -0.3333656 -0.23586148 0.38656253 0.26371258
000110 93 ca 6f 3e f5 3e ba 3e 63 7e 90 3e ff 5e 34 3e
       0.2341712 0.36376157 0.28221425 0.17614363
000120 27 e2 cc bd bb 01 c7 3d ef f5 d3 3d c1 e4 c4 3e
       -0.10004073 0.09717127 0.103496425 0.38455775
000130 d6 d0 05 3f ff c7 8e 3e a8 b8 f9 bd 6c 0e fb 3c
       0.52271783 0.2788696 -0.121934235 0.030646525
000140 53 eb 1d be a8 f3 26 be d9 d5 f0 bd ff 75 3a be
       -0.154218 -0.16303885 -0.11759538 -0.18209074
000150 1d 1e f1 bd 76 16 82 3d e8 c8 83 3d 5f 0b cb 3d
       -0.11773322 0.0635194 0.06434804 0.09914278
000160 74 40 69 3d bc f7 fd 3d 4d cb ba 3d 54 15 c0 bd
       0.056946233 0.12400767 0.09120808 -0.09379068
000170 00 e5 72 3a 69 53 a5 3c 57 85 f9 bd e5 a3 d3 3d
       0.0009265691 0.020181375 -0.12183636 0.10333995
000180 57 7b a6 bd ab 7f 82 bd 37 cb 13 bd 24 9d e5 be
       -0.08128994 -0.06372007 -0.036082473 -0.4484645
000190 b7 13 a8 be 4c ec 61 be 71 87 9d be 02 61 9e be
       -0.3282754 -0.22062796 -0.30767396 -0.30933386
0001a0 d2 a3 ea bd c5 34 e7 bd 9c da 51 bd 21 6e 39 3d
       -0.114570275 -0.11289362 -0.051233873 0.045271043
0001b0 9a 67 90 bd cd 30 6b bd 94 bc 91 bc 18 8f b0 bc
       -0.070510104 -0.057419587 -0.017790116 -0.021552607
0001c0 29 5d 99 bd 28 13 1f 3c d8 e7 3f 3c 03 f4 15 bc
       -0.07488472 0.009709157 0.011712991 -0.009152415
0001d0 1c d7 85 3c 07 46 4b bc 0a 86 86 3e d8 05 70 3e
       0.016337924 -0.012406833 0.2627414 0.23439729
0001e0 15 83 1a 3e a2 fc 40 3e 32 cd 82 3e bf 93 e3 bb
       0.15089066 0.18846372 0.25547177 -0.006945103
0001f0 ea 08 c2 bd 6a 39 46 bc 71 7b a3 bd 40 86 5b 3d
       -0.094743565 -0.0120986495 -0.07982529 0.053594828
000200 97 16 0a 3d 59 2c ff bd d6 fa 4d 3d 8c bb 08 be
       0.03371295 -0.124596305 0.050288044 -0.13352793
000210 33 aa ac bd da b7 26 bd 85 1e c8 bd 25 b6 2c 3e
       -0.084309004 -0.04070268 -0.09771446 0.16866358
000220 a3 18 7c 3e 6f bf 87 3e 28 67 07 3e 48 8d c3 3e
       0.24618773 0.2651324 0.13222945 0.38193727
000230 c1 72 2c 3e ac 6b c4 bd 20 b1 fe bc ce 81 9a bd
       0.1684065 -0.09590849 -0.03109032 -0.075442895
000240 b0 fa 0f 3e 5c 19 44 3e fc 7e 1e 3d 18 2b 90 3e
       0.14060473 0.19150299 0.03869532 0.28157878
000250 58 ea cb 3e 94 ca 6e 3e 8a a5 2e bd 35 7f 52 bd
       0.39827228 0.23319465 -0.04263834 -0.051390845
000260 b2 80 c1 bd b6 ef 9a 3d ab ef cd bd d9 b0 aa 3d
       -0.09448375 0.075652525 -0.10055479 0.08334512
000270 f1 36 8f 3c 7f ef e2 3c a2 c3 b9 bd f5 90 1f bd
       0.017482253 0.027702091 -0.09070517 -0.0389566
000280 cc e8 29 bd 27 5e 4d 3c 24 93 3f 3d cf a3 cc bd
       -0.041481778 0.012534655 0.046771184 -0.099921815
000290 c2 ac 71 3d d8 87 8d bd f9 c2 15 3d ed a0 c7 bc
       0.059002645 -0.06910676 0.036562894 -0.024368728
0002a0 11 f4 ff bd c0 d9 8c bd 21 73 b0 bd 42 0a 63 be
       -0.12497724 -0.0687747 -0.08615709 -0.22171882
0002b0 9e 76 61 be 93 23 59 3d f3 4f 8e be 56 bc 81 be
       -0.22017905 0.05301244 -0.2779537 -0.25339
0002c0 d9 1d 7c 3d c4 1a c8 be 4c ac 57 be 5e 89 f2 3d
       0.061551902 -0.3908292 -0.2106182 0.11842607
0002d0 dd 21 f5 bc c1 28 18 bd 7c 3e 8a 3c cf b2 85 bc
       -0.029923374 -0.03714824 0.016875498 -0.016320614
0002e0 a8 87 4b 3d e5 46 dd 3d ef b4 15 3d 74 4f 55 bd
       0.04968992 0.10804538 0.036549505 -0.052077726
0002f0 55 01 e2 bd 94 8b 48 3d d4 26 08 3e 2d e5 66 3e
       -0.1103541 0.048961237 0.13296062 0.22548361
000300 28 15 94 3e 03 f7 95 3e 7a d6 7e 3e c8 89 a4 3d
       0.2892239 0.29290017 0.24886504 0.08034092
000310 7f db 9f bd 4d 76 6e be 5f 85 a1 3d 86 5c a7 bd
       -0.078055374 -0.23287316 0.07886767 -0.08171944
000320 03 19 a7 bd bf 4f 95 3d e1 68 87 3d 3a 77 31 3c
       -0.081590675 0.07290601 0.06611801 0.0108316485
000330 9b 73 53 bc c1 45 f8 bd 99 b5 07 bd ad 73 59 3e
       -0.01290598 -0.121226795 -0.03313217 0.21235533
000340 c9 4a a1 3e 08 28 83 3e f7 4b 80 3e 45 5b 98 3e
       0.3150237 0.2561648 0.25057957 0.29757133
000350 b2 95 9e 3e 6c d8 18 3d 61 9e 01 3d 54 84 db bd
       0.30973583 0.03731577 0.031645183 -0.10718599
000360 91 30 a0 3c b2 a6 24 bd 2b 0a 9d bd 64 69 aa 3d
       0.019554408 -0.040198036 -0.07667955 0.08320883
000370 69 4e 6e 3d 80 7f b8 3d fa b6 d4 3c d6 72 a5 bc
       0.058180247 0.09008694 0.025966156 -0.02019636
000380 10 2f 5a be 5e 1c 25 3a 42 8a 56 bd 63 fd a6 bd
       -0.21307015 0.00062984775 -0.052377947 -0.081537984
000390 78 98 1e bd aa de c5 3b 5d c0 b5 3d a9 7c e7 3c
       -0.038719624 0.0060385065 0.08874581 0.028257685
0003a0 e6 df 19 bd 23 c7 4f bd 84 12 ef bc cb 26 6e bd
       -0.03756704 -0.05072702 -0.029183634 -0.058142465
0003b0 1f 09 d9 3d 62 ab 7f 3d 0c 4a c0 3d 00 54 c5 39
       0.10597443 0.062419303 0.09389123 0.00037637353
0003c0 4c b3 c2 3c fc a8 f3 3c 90 75 e4 bd f7 37 0e 3d
       0.023767136 0.029743664 -0.11155236 0.03472134
0003d0 ba a1 81 bd 4a 6a a5 bc d3 d3 48 bd 90 c9 aa 3d
       -0.06329675 -0.020192284 -0.049030136 0.08339226
0003e0 a4 bf 39 3e a0 82 90 3d 6d 7e c3 3d d0 d2 8a bc
       0.18139511 0.07056165 0.09545598 -0.016946226
0003f0 b8 c0 a6 bc 1e c4 36 3d 08 84 9f bc c8 73 bd bc
       -0.020355567 0.044620626 -0.019472137 -0.023126498

conv_block_2.0.bias f4 [8]
000000 ab dc 8f 3d 0e 81 56 3d 26 b8 94 3d 84 b5 a9 bd
       0.07024511 0.05236917 0.07261686 -0.082865745
000010 e5 90 19 3e 76 b3 9c 3d 76 41 27 be 5a ef 08 3e
       0.14996679 0.07651417 -0.16333565 0.13372555

conv_block_2.2.weight f4 [8, 8, 3, 3]
000000 5b d9 59 be cf eb 1a bb c6 59 b0 3c 04 49 e4 be
       -0.21274321 -0.0023639088 0.021527182 -0.44586957
000010 dc 8a 75 be fd fd 65 bd 5e 9b ca be dd 67 1e bc
       -0.23978752 -0.056150425 -0.3957166 -0.009668318
000020 0e f0 23 3d 6d 56 96 3d f8 fd c8 bd 8f 7a 8f be
       0.040023856 0.07340703 -0.09814066 -0.28023192
000030 5e 45 0c 3e 59 42 3d 3e 3c 06 9a bd b0 2a 6b be
       0.13698336 0.18482341 -0.0752072 -0.22965503
000040 c8 e3 e7 3c 6b 27 ab 3c 86 09 c2 bd dc db c2 bd
       0.028306857 0.02089282 -0.09474473 -0.09514591
000050 3f 2b 3b be 91 23 c0 bd 43 b2 3f bb ca e8 ff 3c
       -0.18278216 -0.09381784 -0.002925054 0.031238932
000060 15 f0 37 be 0e 1c ff bc 76 2e 81 bd c4 e3 9b 3d
       -0.17962678 -0.031141307 -0.0630769 0.07611802
000070 81 6d 10 3e 6e 1d 97 3d 11 c8 32 3d 71 80 aa 3d
       0.14104272 0.0737866 0.04364783 0.083252795
000080 79 29 9a bd af f7 96 bc 5b 7e 8e 3d b8 02 8c bd
       -0.075274415 -0.018428652 0.06957694 -0.06836456
000090 73 94 c8 bd 5c 29 0d 3e 5c 11 02 3e 14 c8 05 3d
       -0.097939394 0.13785309 0.12701935 0.032661512
0000a0 29 00 66 3e 05 44 4a 3e b1 29 91 3e 11 b0 7b 3e
       0.22460999 0.1975251 0.2835212 0.24578883
0000b0 70 a7 6b 3e ca 3f 1d 3d 20 7b 7a 3c 8f 2b 14 be
       0.23013091 0.038390912 0.015288144 -0.14469741
0000c0 89 4d 22 be a9 23 7d be 94 7e 54 be d7 81 17 bd
       -0.1584989 -0.24720635 -0.2075141 -0.03698906
0000d0 da 4d 3f be 5a 23 46 bd 1d 15 0f 3c 34 20 85 3d
       -0.18682042 -0.048373558 0.008733061 0.06500283
0000e0 c8 90 ea bd a7 e9 c8 bb e3 59 20 3e 0a c5 8b bd
       -0.11453396 -0.006131369 0.15659289 -0.068246916
0000f0 d1 6c 97 bd c5 0a c6 3d 41 70 71 3e d3 4a 34 3e
       -0.07393802 0.09670023 0.23577978 0.17606668
000100 7d 5c ab bc 1b 99 02 be 79 39 82 3d 1e 37 32 be
       -0.020918125 -0.12753718 0.06358618 -0.17403838
000110 4c a0 04 be c8 97 3f be 2b 95 86 be e3 7d da bc
       -0.12951773 -0.18710244 -0.2628568 -0.026671356
000120 94 1d b4 bd 5f 76 44 3b cc 3e 14 bd 38 87 b9 bc
       -0.08794704 0.0029977781 -0.0361927 -0.022647485
000130 cd 9c 0a be 2c dd 17 be 84 63 6c 3c 18 e9 82 3d
       -0.13536377 -0.14830464 0.014428023 0.06392115
000140 1b 4f 0d be be d0 0d 3d 05 f7 a1 bd 1a 16 87 3c
       -0.13799708 0.0346229 -0.07908443 0.016490031
000150 1c 64 aa 3d eb 11 9b 3d b7 7c 9d bd e7 a4 17 3d
       0.083198756 0.07571777 -0.07689803 0.037022498
000160 71 c1 19 3d 93 b6 a7 bb 96 dc d6 3d 04 c6 5a bd
       0.037537996 -0.0051182 0.10491292 -0.0534115
000170 5a ce e1 bc 05 70 a5 bd be 3e 03 b9 b9 c4 25 3d
       -0.027564216 -0.08078007 -0.00012516507 0.040470812
000180 33 6e cb bc bd 4c ce bd fd f5 7d bd a2 32 24 3d
       -0.02483282 -0.100732304 -0.06200217 0.04008735
000190 4b a1 d3 bd 10 5a 96 bc 60 16 2b bb 7a 94 43 bd
       -0.103334986 -0.018353492 -0.0026105866 -0.04774902
0001a0 7e ab 2f 3d 70 e7 f8 3b 1f 73 a9 3d d8 7b 2b bc
       0.042888157 0.007595949 0.08273911 -0.010466538
0001b0 80 44 aa bd 41 13 91 3d 34 29 1b bc 44 46 cb bc
       -0.083138466 0.070837505 -0.009470273 -0.024813779
0001c0 1d d5 fc bd 9a b2 71 bc 1b 20 d3 bd 5f f4 39 bb
       -0.12345336 -0.014752055 -0.10308858 -0.0028374416
0001d0 ad 42 c8 3c 73 da e6 bd a0 e2 b0 bd 2b d1 9a bd
       0.024445856 -0.11272135 -0.08636975 -0.07559427
0001e0 b8 e8 85 3d 6b 37 a8 3d 1b fc 87 3c c4 37 9f 3d
       0.06538528 0.08213695 0.016599705 0.07774308
0001f0 4d 59 97 bd d5 91 d9 bd 6a 9c 28 3d 7d d3 6e 3d
       -0.0739008 -0.106235184 0.041164793 0.05830716
000200 3c 60 b8 3d 00 10 0f b8 e8 4d e9 3d c5 f1 93 3d
       0.0900273 -3.4108758e-05 0.113918126 0.07223848
000210 2f b0 ae 3d 21 9f 12 be c3 bf c6 3d 97 a7 e0 bd
       0.08529698 -0.14318515 0.097045444 -0.10969465
000220 3f 2e c6 3d 80 08 a0 bb c4 f1 0f be 27 de 66 3c
       0.096767895 -0.004883826 -0.1405707 0.014091051
000230 11 60 85 bc 65 57 10 be ac 78 a1 bd 48 15 47 3c
       -0.01628116 -0.14095838 -0.078843445 0.01215107
000240 d9 1d 6a 3c 69 bb ae bd a4 9e 0e 3e d9 5c 1a be
       0.014289343 -0.085318394 0.13927704 -0.15074481
000250 c9 57 8a be a6 43 c0 bc ce 71 b8 be fb 20 ab be
       -0.270201 -0.023469757 -0.36024326 -0.334236
000260 e1 29 9e bd 6f eb 35 be e3 2c 6a be 95 24 d0 bd
       -0.077228315 -0.17765592 -0.22868685 -0.101632275
000270 12 9d 9f bc 4c b6 4c 3c 50 5e 17 bc fd 55 2d be
       -0.019484077 0.012494635 -0.009238794 -0.16927333
000280 8c c2 82 be 8e ba 7d bd f6 18 e4 bd 10 cb 0d be
       -0.25539052 -0.06194549 -0.111375734 -0.13846993
000290 af 83 c1 bd f2 75 92 bd c0 c0 8a bd d3 b4 d1 ba
       -0.09448945 -0.071514025 -0.067750454 -0.0015999324
0002a0 5a 85 52 be 2f 44 d3 bd 10 47 1d 3c 6e 5d 8a 3d
       -0.20558682 -0.10315739 0.009599462 0.067561015
0002b0 f0 15 c4 3d 1b c5 dd 3d fb c8 1a 3d df c1 a4 bc
       0.09574497 0.108286105 0.037789326 -0.020111976
0002c0 af a0 ba 3d 1d 91 99 bd 7d cf f8 3c d4 fb 68 bd
       0.09112679 -0.07498381 0.030372376 -0.056880787
0002d0 9d 29 42 bd 5a 05 e3 3c c7 fd 26 3e 36 e4 4d 3e
       -0.047402967 0.027712513 0.16307746 0.20106587
0002e0 7f e3 58 3e 78 4e 88 3e 3c db 15 3d 6c 61 31 3e
       0.21180533 0.26622367 0.03658603 0.1732232
0002f0 26 94 4f 3e c9 2b b6 3d 5e 84 3b be 21 f4 38 be
       0.20271358 0.0889507 -0.18312213 -0.18061878
000300 6a a6 e7 bd 41 93 25 be 45 f5 92 be 1e e6 2b be
       -0.11311038 -0.16169454 -0.2870275 -0.16787001
000310 f8 f1 83 be c7 54 6f be 0b 1d 78 3e 42 29 03 3e
       -0.25770545 -0.23372184 0.24229829 0.12808707
000320 d7 53 81 be 0e 55 bb 3c 93 fd 12 3c 1c d0 6f bd
       -0.25259277 0.022867706 0.00897159 -0.058548078
000330 7e d9 6a 3e 91 dd 2b 3e d1 9f 05 3e 6d 90 0a be
       0.22934529 0.1678374 0.13049246 -0.13531657
000340 3f 31 ac bd 2b 1f 25 bd e5 b8 4d 3c 89 93 82 be
       -0.084078304 -0.040312927 0.012556289 -0.25503185
000350 48 cd 67 be ef 47 11 be 90 73 5b be ab bc 0a be
       -0.22636902 -0.14187597 -0.21430802 -0.13548534
000360 b7 21 22 be 0e 16 fb bd 3b ce 20 bd a4 c2 08 be
       -0.15833174 -0.12260066 -0.039259177 -0.133555
000370 fd 91 f9 3c e6 d4 98 bc 45 6d 90 bd 8b 89 89 bc
       0.03046512 -0.018656205 -0.070520915 -0.016789218
000380 b1 26 86 bd 13 a4 33 3d 4d cb 0a be f4 6c a5 3b
       -0.065503486 0.043857645 -0.13554116 0.0050483886
000390 37 fa 9d bd 4b ad 7d 3c 13 f5 10 bd 2a f7 c4 bd
       -0.0771374 0.015483211 -0.03538997 -0.09617455
0003a0 38 38 4b bd 6a 7d 01 3d 3e b0 35 be e2 b4 12 be
       -0.04961416 0.031613745 -0.17743012 -0.14326814
0003b0 29 7a cf bd 08 9b 27 be 0a 0c 20 bd 01 be 4a 3b
       -0.10130722 -0.16367733 -0.03907398 0.0030936005
0003c0 2e 9c ef bd 48 81 04 3d 93 cb f4 bd 32 03 35 bc
       -0.11699711 0.032349855 -0.11952891 -0.011048125
0003d0 0c af 51 bc 81 12 71 bd 70 38 23 bd 7d 47 80 bd
       -0.012798082 -0.058855537 -0.039848745 -0.06263635
0003e0 4e f5 98 bd f9 12 91 3d 89 ac fa 3d ac 6b 2f 3e
       -0.07468663 0.07083697 0.1223994 0.17130917
0003f0 df c6 86 3d a2 31 04 bd d6 6e 29 ba 6f 68 c3 bd
       0.065809004 -0.032273896 -0.0006463354 -0.095414035

conv_block_2.2.bias f4 [8]
000000 25 2d f8 3d 78 e8 dd bd ba b2 0b 3e f0 be 1b be
       0.12117986 -0.108353555 0.13642398 -0.15209556
000010 b9 0d 88 bd 86 09 13 3e c6 cb 16 3d 3d 9b 2a bd
       -0.066432424 0.14359102 0.036815427 -0.041651953

classifier.1.weight f4 [1, 2048]
000000 7c a5 d0 bd 10 24 b6 3d af be 3b be 27 9c 96 bd
       -0.10187814 0.08893597 -0.18334459 -0.073540024
000010 91 c4 25 3c 4e 24 b7 bd 5e 03 21 be 9b 5a d4 bd
       0.010117666 -0.089424714 -0.1572394 -0.10368844
000020 89 f9 d1 bd 7a 32 82 bd e7 ee 23 be 17 96 9a bd
       -0.10252673 -0.06357284 -0.16009103 -0.075481586
000030 da 7f ab 3e 17 3a ed 3e 4d 61 d1 3d 6b 92 f9 3d
       0.3349598 0.46333382 0.10223637 0.1218613
000040 12 9d 82 3d b7 40 8b 3e 69 24 79 3e c0 68 1f bb
       0.06377615 0.2719781 0.24330296 -0.002432391
000050 18 bb ce 3c bf 1b cc 3d 1b 38 11 bc f5 fe 02 3e
       0.025235698 0.0996623 -0.008863474 0.12792571
000060 34 4c 78 3c 37 07 e1 bd e2 85 0a be 28 e8 7e be
       0.015154887 -0.10987704 -0.13527635 -0.24893248
000070 5e 10 c6 bd c9 de 11 3c 97 45 21 be fd a7 0f bc
       -0.096710905 0.008903214 -0.15749203 -0.008768079
000080 3f 0a 94 3c c6 7f ef 3d 69 92 62 3e ac ee 86 3c
       0.018071292 0.11694293 0.22126164 0.01647123
000090 a9 bb e9 bc b5 3d 89 3d c1 4d 3f 3e 4a 61 30 3e
       -0.028531866 0.06701223 0.18682005 0.17224613
0000a0 34 6c 11 3e 7f b6 81 3c 3c 8c 52 bc 14 53 0d bc
       0.14201432 0.015834091 -0.012850817 -0.008625764
0000b0 95 13 e9 3d 02 77 f2 3d 2b d0 28 3d 39 51 e0 3d
       0.11380688 0.11839105 0.04121415 0.10952992
0000c0 3a da 17 bd 5d a6 8c 3c 6a ef eb 3d f1 db 14 3d
       -0.03707335 0.017169172 0.11520274 0.036342565
0000d0 65 48 24 be 29 41 78 be da 8b 14 3e 4b d6 e0 3d
       -0.16043241 -0.24243607 0.14506474 0.10978373
0000e0 81 90 01 3e 81 35 06 3e e6 71 dd 3d 6f 54 c7 3c
       0.1265278 0.13106348 0.1081274 0.024332253
0000f0 bd 68 08 3e ef df d5 bb 31 bd ce 3a 62 9b 6c bd
       0.13321204 -0.006526939 0.0015772936 -0.057765372
000100 15 47 48 bd e6 51 85 bd 02 59 83 bd 1e e6 35 be
       -0.048895914 -0.065097615 -0.06413461 -0.17763564
000110 e5 d3 ae bd 93 a8 e1 bd 05 4c 91 3d af f7 bc 3c
       -0.085365094 -0.11018481 0.07094578 0.023067323
000120 0b 3c 58 3d 70 e4 f0 3d 75 98 cc 3d 25 c2 b6 be
       0.052791636 0.11762321 0.09990016 -0.35694996
000130 6b 00 10 be 30 0b 08 be ae b5 81 bd 07 2c 33 be
       -0.1406266 -0.13285518 -0.06333481 -0.17497264
000140 71 55 28 3c cd e9 a1 bc 61 85 dc bd 0e dc 2e be
       0.010274277 -0.019764805 -0.107676275 -0.17076132
000150 d6 7d 0b 3e 5a a3 65 3d 69 af 59 3d f3 46 c8 bd
       0.13622221 0.056063987 0.0531458 -0.097791575
000160 43 95 d2 bc 1d 06 83 bd 9a b4 4b 3d 03 de 64 3e
       -0.02570594 -0.063976504 0.049732782 0.22350316
000170 45 81 44 be b3 bd 05 bd 36 29 30 bd cc 56 29 be
       -0.19189937 -0.032651614 -0.04300805 -0.16537017
000180 92 56 a8 bd 5b 73 a7 bd 00 cb 87 3d c0 06 6e bc
       -0.08219637 -0.08176299 0.06630516 -0.0145279765
000190 37 0c 83 3e 4f c9 dc bd e6 12 24 bd 22 a0 02 be
       0.25595257 -0.10780584 -0.040057085 -0.12756398
0001a0 91 2f 3d 3d 86 ce 7d bd 9d b3 c4 bc 5e 78 68 3e
       0.04618794 -0.061964534 -0.024011428 0.22702166
0001b0 c9 73 40 3e a0 51 69 3b 29 20 94 3d f3 02 00 be
       0.18794169 0.003560163 0.072326966 -0.12501125
0001c0 66 85 35 be 23 16 2b be bd 6b d6 3d 22 4f a6 3e
       -0.17726669 -0.16707663 0.10469768 0.3248225
0001d0 ce 5d f8 bc a0 ec 13 bc c9 dd 8b bd 8e 93 1f bd
       -0.030318167 -0.009028584 -0.068294115 -0.03895908
0001e0 2a 99 30 3d 10 c6 0b 3d 16 bc 85 bd 4e ab 9a bc
       0.04311482 0.034124434 -0.06530015 -0.018880513
0001f0 92 c7 81 3e f3 c1 8b 3d 42 db 19 3e 5c e6 52 3d
       0.25347573 0.06824102 0.15025046 0.05148922
000200 f1 54 0f be fb 48 27 be 33 5f 36 3c c0 c0 39 3e
       -0.13997246 -0.16336434 0.011131096 0.18139935
000210 5f bc d4 bd aa 27 91 3d 17 97 af bd 4f ce c4 3b
       -0.103874914 0.070876434 -0.0857374 0.006006039
000220 4e 4f f1 3c 1b 2b b9 3d fd 05 e6 bc 27 52 92 bd
       0.02945676 0.09041425 -0.028079027 -0.071445756
000230 1d 6c f3 bd 9c d2 ea 3d 55 3b 86 bd 41 0d a9 bd
       -0.11885855 0.11465952 -0.065542854 -0.08254481
000240 33 da e8 3c c2 12 5c be b3 ef b4 bd 27 6e 33 bc
       0.028424358 -0.2149153 -0.088347815 -0.010951555
000250 e1 f7 74 3e dc 14 95 3d 5b 58 3a bd 2e 99 94 bc
       0.23922683 0.07279369 -0.04549442 -0.018139448
000260 2d f0 85 3c 9a d3 76 3d 02 b7 51 3d b7 ea d2 bd
       0.016349876 0.060260393 0.05119992 -0.102986746
000270 25 36 50 bd f0 3a c3 3d f1 f0 18 be 0a 72 9c ba
       -0.050832886 0.09532726 -0.14935662 -0.0011935842
000280 c5 e5 e0 3d 5a 26 5d be 2c 6a f2 bd 7c df 7b 3e
       0.10981325 -0.21596661 -0.11836657 0.24596971
000290 79 50 b2 3e dd 22 87 3e 14 3a 08 bd 6e 8c a9 3c
       0.3482702 0.26393786 -0.033258513 0.020696845
0002a0 5a 4c 55 bc 61 5e ea 3c 75 25 ba 3d 47 82 b0 3d
       -0.013018692 0.028609456 0.090891756 0.086185984
0002b0 cb c9 e8 3d df 72 2b 3e bb 4c af 3c af 7a 3c 3e
       0.11366614 0.16743039 0.021398893 0.18406175
0002c0 fa 45 1e 3e 5b ab 0f 3d 79 8b 6a be 26 32 6e be
       0.15456381 0.035075527 -0.22904767 -0.23261318
0002d0 20 40 fc bd b6 54 5b 3e 62 0e b5 3d 36 9d a9 3c
       -0.123169184 0.21419033 0.08840634 0.020704847
0002e0 80 c4 a8 bc 2c 6f 12 3d e8 63 23 3e 00 a1 96 3e
       -0.020601511 0.035750553 0.1595608 0.29419708
0002f0 38 57 55 3e 85 8e 97 3e 43 31 4c 3e dd 03 ca 3e
       0.20834053 0.2960092 0.19940667 0.39456072
000300 5c a3 0b 3e a3 a7 67 bd a9 53 21 be 72 9c 35 be
       0.13636535 -0.056556355 -0.1575457 -0.1773546
000310 3a c4 0d bc c4 5a 16 3e c6 ee 1a 3d e4 c5 d3 b9
       -0.008652741 0.14683062 0.03782537 -0.00040392496
000320 9a 8c 12 bd ce 4f fb 3c ff a9 93 3d 49 94 3a 3d
       -0.03577862 0.030677702 0.072101586 0.045551572
000330 8e e1 dc bc 4e bd 92 be 73 68 0b be e1 23 3e 3d
       -0.026963022 -0.28660053 -0.13614063 0.046420936
000340 73 ac 9d 3d 38 ad 6e 3d e6 b3 92 bd d7 98 e5 bd
       0.07698908 0.058270663 -0.07163219 -0.112107925
000350 35 f2 e5 3a 0a 75 27 bc 48 e4 50 3b c6 5c db bc
       0.0017543497 -0.010220775 0.0031874347 -0.026777636
000360 c0 cf 33 bd 9c 54 36 bc 35 52 3e 3c d7 9a d5 3c
       -0.043899298 -0.011128571 0.011616279 0.02607481
000370 86 99 88 bb 06 0e 92 bd 2c 31 b2 bc 4b c6 2c be
       -0.004168692 -0.07131581 -0.021751963 -0.16872518
000380 96 a8 d9 3d 7e 26 c6 3c ae d2 8a 3a e1 71 05 be
       0.10627858 0.024188276 0.0010591352 -0.13031723
000390 36 31 bc bd cc 46 83 bd 45 a2 f1 bc 0c f9 97 bd
       -0.09189074 -0.06409988 -0.029496321 -0.07420549
0003a0 15 7c ac bd 76 be 78 bd b0 a2 88 3c 52 95 52 bc
       -0.08422104 -0.060728513 0.016679138 -0.012852984
0003b0 b9 56 7f bc 3d 92 b9 3b d6 04 1e 3d 89 d9 8a bd
       -0.015584641 0.005663185 0.03857883 -0.06779773
0003c0 80 65 f4 3d ff 4e f3 3b 18 9c cd bd 34 70 2e be
       0.11933422 0.0074251886 -0.10039538 -0.1703499
0003d0 7a 9a 1a be 54 a0 cb bd b4 84 84 bd f4 9a 7e bd
       -0.1509799 -0.099426895 -0.064706236 -0.062159494
0003e0 4e d3 9d bd ad c6 60 bd f5 97 6a bd 0b b6 97 bd
       -0.07706319 -0.054876972 -0.057273824 -0.07407769
0003f0 a3 c4 c1 bd de 5d 58 3d 91 c1 42 3d c8 43 64 bd
       -0.094613336 0.052823894 0.04754788 -0.055728704
