models/TinyVGG_pneumoniaMNIST.pth (torch, 19850 bytes, 9 tensors)

conv_block_1.0.weight f4 [8, 1, 3, 3]
0	0x3e474f90	0.19463944
1	0x3e4eaf7e	0.20184132
2	0xbe2e9c3f	-0.1705179
3	0x3e83bb8a	0.25729018
4	0xbe127708	-0.1430322
5	0xbcf5589c	-0.029949479
6	0xbe3b117c	-0.18268389
7	0x3e1b0c68	0.15141451
8	0x3e6538b8	0.22384918
9	0xbe5db480	-0.21650887
10	0x3eaca384	0.33718503
11	0x3dc8303c	0.09774825
12	0x3e8b3b30	0.27193594
13	0x3dcb7869	0.09935076
14	0x3e56a229	0.20960297
15	0xbd12d4c3	-0.035847437
16	0x3e98d8b4	0.2985283
17	0x3dc48e9a	0.095975116
18	0xbe1f5918	-0.1556133
19	0x3dae02b4	0.08496609
20	0xbe1d43c8	-0.15357888
21	0xbd201dd8	-0.03909096
22	0xbe0aa2a8	-0.13538611
23	0x3e626e3e	0.22112367
24	0xbe86b81c	-0.2631234
25	0xbe1d5bb3	-0.15367012
26	0xbdc0c490	-0.09412491
27	0xbe805519	-0.25064924
28	0xbbeca1ac	-0.007221421
29	0xbebcfc16	-0.36911076
30	0x3eb376a9	0.35051468
31	0xbe5ea7ab	-0.21743648
32	0x3ea3af53	0.319697
33	0x3e4574c4	0.19282824
34	0x3cb7344c	0.022363804
35	0x3ea81495	0.32828203
36	0x3da79a70	0.081837535
37	0x3e9e8e37	0.30967876
38	0x3d631dfb	0.055448513
39	0xbd9b2d4d	-0.07577
40	0x3e0fd16a	0.14044729
41	0xbd62ef36	-0.05540391
42	0x3e1a2c0b	0.15055864
43	0x3eac3512	0.3363424
44	0x3e67a736	0.2262238
45	0xbe0267f4	-0.12734967
46	0x3e585c8b	0.21129052
47	0x3dc3c0be	0.09558247
48	0x3e3a09e6	0.18167838
49	0xbe4c6400	-0.19960022
50	0xbea250d7	-0.317023
51	0xbdd4e7fb	-0.10395809
52	0xbe7cf039	-0.24701013
53	0x3e8fc471	0.2807956
54	0x3df4933f	0.119421475
55	0x3e421766	0.18954238
56	0x3e1c3ca3	0.15257506
57	0xbd6fd9e5	-0.05855741
58	0x3e80ef2b	0.2518247
59	0xbe82f7ef	-0.25579783
60	0xbe1cfb9d	-0.15330358
61	0xbeb22f99	-0.3480194
62	0xbc6fc78f	-0.014634981
63	0xbe0ec0ca	-0.1394073
64	0x3d88b531	0.066751845
65	0xbdc970a6	-0.09835939
66	0x3e83d0c0	0.257452
67	0xbe722bba	-0.23649493
68	0xbe79661a	-0.24355355
69	0xbe46523f	-0.19367312
70	0x3e8eef1d	0.27916804
71	0x3da05daf	0.07830369

conv_block_1.0.bias f4 [8]
0	0x3eb19776	0.34685868
1	0xbea05116	-0.31311864
2	0xbea947bb	-0.33062539
3	0xbe37dfb5	-0.17956431
4	0xbe8f0021	-0.27929786
5	0x3e7e7b3d	0.24851699
6	0x3e10f4fb	0.14155953
7	0x3eb7bcb7	0.35886165

conv_block_1.2.weight f4 [8, 8, 3, 3]
0	0x3bea6fc2	0.007154436
1	0xbceecb80	-0.02914977
2	0x3de39a9c	0.11113474
3	0x3c37bfc6	0.011215156
4	0x3df814d3	0.12113347
5	0x3ca912e9	0.0206389
6	0x3dc91763	0.09818914
7	0xbdcdd037	-0.100494795
8	0xbd9e9a80	-0.07744312
9	0x3ccfd739	0.02537118
10	0x3d6c371a	0.057669736
11	0x3deaa72a	0.11457665
12	0xbc6d1253	-0.014469701
13	0xbc50344b	-0.01270778
14	0xbdb6e2e0	-0.08929992
15	0xbe4899e9	-0.19589962
16	0xbdc7704d	-0.097382165
17	0xbe1afb0e	-0.15134832
18	0xbd2b21ac	-0.04178016
19	0xbde989ac	-0.11403212
20	0xbd8a381c	-0.06748983
21	0x3cf12b6c	0.02943965
22	0xbc7edcb0	-0.015555546
23	0xbdaf32ff	-0.085546486
24	0x3b352ae0	0.0027643964
25	0xbda4de32	-0.08050193
26	0xbdccc4ad	-0.099984504
27	0xbea70e27	-0.32627985
28	0xbeb502d4	-0.3535372
29	0xbe79b583	-0.24385647
30	0xbd560635	-0.052252013
31	0xbded64a7	-0.115914635
32	0x3c856059	0.016281294
33	0xbd1bb40d	-0.038013507
34	0x3d53a302	0.05166913
35	0x3e4127d0	0.18862844
36	0xbc526a00	-0.012842655
37	0xbe0845bf	-0.13307856
38	0x3afd1635	0.0019308986
39	0xbe6637f0	-0.22482276
40	0xbe4b9600	-0.19881439
41	0xbe3a6a07	-0.18204509
42	0xbd85d218	-0.06534213
43	0xbe684e07	-0.22686015
44	0xbe53065a	-0.20607892
45	0xbd1095f5	-0.03529926
46	0x3cec703c	0.028862111
47	0xbcb39cdf	-0.021925388
48	0x3e909fd4	0.2824694
49	0x3e46fb9f	0.19431923
50	0x3e9a0b37	0.3008668
51	0x3e39ad71	0.18132569
52	0x3d85ae36	0.06527369
53	0x3e7015e7	0.23445855
54	0xbd1fbda7	-0.038999226
55	0xbcd08fbc	-0.025459163
56	0xbdb7e1ea	-0.089786366
57	0x3cec7141	0.028862597
58	0x3e59e484	0.21278578
59	0x3e14c0f0	0.14526725
60	0x3d5e9ecf	0.05435067
61	0xbce7ed9a	-0.02831154
62	0x3e356012	0.17712429
63	0xbcb99252	-0.022652779
64	0x3d20505f	0.039139148
65	0x3d58db1f	0.052943345
66	0x3de0aae1	0.109700926
67	0x3e108dc5	0.14116581
68	0x3e037c11	0.12840296
69	0xbc5797ac	-0.01315872
70	0x3d8e22d3	0.06940236
71	0xbd52a5d3	-0.051427674
72	0xbc9fd25f	-0.019509492
73	0xbdb05ec2	-0.086118236
74	0x3dda9358	0.10672635
75	0xbdcc0cf6	-0.099634096
76	0x3d8605f6	0.06544106
77	0x3d47fdc9	0.048826013
78	0x3c8d821b	0.017273953
79	0xbd84f9c5	-0.06492952
80	0x3deb58d5	0.11491553
81	0x3de65952	0.11247505
82	0x3df100fb	0.11767765
83	0xbc7cfc7a	-0.0154410545
84	0x3dee334b	0.11630877
85	0x3d918a96	0.07106511
86	0x3cd0bed6	0.025481623
87	0x3e103a4d	0.1408474
88	0x3dc485f9	0.09595866
89	0x3bb72b67	0.0055898908
90	0xbd74528e	-0.059649043
91	0xbbb86ba0	-0.0056280643
92	0x3d86c3fd	0.065803505
93	0xbcf6b3a0	-0.030114949
94	0xbd89b6a4	-0.06724289
95	0xbd254dac	-0.040357277
96	0xbdb45036	-0.088043615
97	0x3d2c272a	0.042029537
98	0x3dbad259	0.09122152
99	0xbde7ec4d	-0.11324368
100	0x3d1dbf85	0.038512725
101	0x3d7de495	0.06198557
102	0x3d85fc4a	0.06542261
103	0x3d6572c9	0.05601767
104	0x3e66f396	0.22553858
105	0xbd8e1ce7	-0.069391064
106	0x3cc89b01	0.024487974
107	0x3ccdd45c	0.025125675
108	0x3cc44450	0.023958355
109	0x3dbafb53	0.091299675
110	0x3d5019ae	0.05080574
111	0x38829c3b	6.227983e-05
112	0x3e1420fe	0.1446571
113	0x3e2c9c39	0.16856469
114	0x3c5b5ecf	0.013389303
115	0x3d18335b	0.03715835
116	0x3da01571	0.078165896
117	0xbdfa1283	-0.12210562
118	0xbe1c49b0	-0.15262485
119	0xbe02cc3d	-0.12773223
120	0xbe42fedd	-0.19042535
121	0xbe297998	-0.1655029
122	0xbca9d730	-0.020732492
123	0x3ca25b6b	0.019818982
124	0xbd6a5b9a	-0.057216264
125	0xbe24c59c	-0.16091007
126	0xbde8f82f	-0.11375462
127	0xbe304c88	-0.17216694
128	0xbdb6bdb4	-0.08922902
129	0x3de072af	0.10959374
130	0x3e261b22	0.16221288
131	0x3de1534d	0.110022165
132	0xbd660fb0	-0.056167305
133	0xbc322792	-0.010873692
134	0x3c0194d7	0.007909021
135	0x3d890b0e	0.06691562
136	0xbcd41848	-0.025890484
137	0xbd8203e2	-0.06348397
138	0xbc85d241	-0.016335608
139	0xbdd3cc23	-0.1034167
140	0xbde7d1d2	-0.11319317
141	0x3d063666	0.032766722
142	0xbdd86262	-0.1056564
143	0xbd6d79c9	-0.05797747
144	0xbe0473d9	-0.12934817
145	0x3d80fca0	0.062981844
146	0x3d92594c	0.07145938
147	0x3cfd1945	0.030895839
148	0xbdc8f283	-0.098118804
149	0xbe09bb5d	-0.1345038
150	0xbdc406dc	-0.09571621
151	0x3d8b6f5d	0.0680835
152	0x3d15990d	0.036522914
153	0x3db16d42	0.086634174
154	0x3d4bd90e	0.049767546
155	0x3c870004	0.0164795
156	0xbc699991	-0.0142578045
157	0xbdcc5e6b	-0.09978946
158	0xbde6e17d	-0.11273477
159	0xbde1c142	-0.11023189
160	0x3d182288	0.037142307
161	0xbd95e0f2	-0.073182955
162	0xbcc24bec	-0.023717843
163	0xbd8ae748	-0.06782395
164	0xbcafece0	-0.021475255
165	0xbda9e081	-0.08294774
166	0xbd9db534	-0.077005774
167	0x3d201f72	0.03909249
168	0xbd0f764e	-0.035024934
169	0x3d95005d	0.0727546
170	0xbd1adc38	-0.037807673
171	0xbdb10d9a	-0.086451724
172	0xbcaa5730	-0.020793527
173	0xbd69ff15	-0.05712803
174	0xbd13af00	-0.036055565
175	0xbde5c5d7	-0.112193756
176	0x3d8709c9	0.06593663
177	0xbda8090a	-0.08204849
178	0x3d729f6a	0.05923406
179	0x3d5b0cc6	0.05347898
180	0x3d92a91d	0.07161162
181	0xbdd09674	-0.10184947
182	0x3d915572	0.070963755
183	0xbd8c252d	-0.06843028
184	0x3d063740	0.032767534
185	0x3dbd6e8a	0.09249599
186	0xbc882844	-0.016620763
187	0xbc40e229	-0.011772671
188	0xbd36861f	-0.0445615
189	0xbddc89da	-0.107684806
190	0x3d152fd6	0.036422573
191	0xbe097233	-0.1342247
192	0x3d8251ec	0.063632816
193	0x3d9063ad	0.07050262
194	0x3dc2bf25	0.09509114
195	0xbce3ba08	-0.027798668
196	0xbde0c19c	-0.10974428
197	0x3c916fa6	0.017753433
198	0x3d5d8e02	0.054090507
199	0xbe05ed04	-0.13078696
200	0xbd2fe7be	-0.042945616
201	0xbda90674	-0.08253184
202	0xbcb5c125	-0.022186825
203	0xbd92f483	-0.07175543
204	0xbd4551ce	-0.04817372
205	0xbd373fb5	-0.04473849
206	0xbdf806fd	-0.12110708
207	0x3dadb4b7	0.08481734
208	0x3da7cd72	0.081934825
209	0xbd12851a	-0.035771467
210	0xbcc72012	-0.024307285
211	0xbd896627	-0.06708937
212	0xbe00febc	-0.12597173
213	0xbdeae095	-0.11468617
214	0x3cd50f3d	0.026008243
215	0xbda8ff8e	-0.08251868
216	0xbe8721a9	-0.26392868
217	0x3cf5dd38	0.030012712
218	0x3cd0b78d	0.025478149
219	0xbe3f69cc	-0.18692702
220	0x3d3514cd	0.04420929
221	0x3d530a6e	0.05152362
222	0xbe288269	-0.16455998
223	0x3b8715c6	0.0041224686
224	0xbca166d7	-0.019702358
225	0xbd20a658	-0.039221138
226	0x3e2b67fd	0.16738887
227	0x3e6b78a0	0.22995234
228	0xbe3a7ee7	-0.18212472
229	0x3e7ad546	0.2449542
230	0x3eac3096	0.33630818
231	0xbda650b1	-0.081208594
232	0x3de72d94	0.1128799
233	0x3e81682f	0.25274798
234	0x3de51bc1	0.11186934
235	0x3cfdfd84	0.031004675
236	0x3da1d029	0.079010315
237	0x3dedf3f3	0.11618795
238	0xbc93eed0	-0.01805821
239	0x3cc86174	0.024460532
240	0xbda7c0c8	-0.08191067
241	0xbcc6f450	-0.02428642
242	0x3db2bf25	0.08727864
243	0xbe08b261	-0.13349296
244	0xbe511b5a	-0.2042059
245	0xbca4e6c4	-0.020129569
246	0xbd34ffba	-0.044189192
247	0x3d11fcc5	0.03564145
248	0x3e18a9d1	0.1490853
249	0x3e4fe4b2	0.20302084
250	0x3ea314d9	0.31851843
251	0x3ec89a7d	0.39180365
252	0xbe617f81	-0.22021295
253	0x3dd48b3f	0.103781216
254	0x3e81cb31	0.25350335
255	0xbe5b54c0	-0.21419048

conv_block_1.2.bias f4 [8]
0	0x3d9a3537	0.07529681
1	0xbe037398	-0.12837064
2	0xbd1d88cb	-0.038460534
3	0x3d6cc4b4	0.05780478
4	0xbdbf5b5b	-0.093435965
5	0x3db9c8aa	0.09071477
6	0xbe0f6230	-0.140023
7	0x3e0df5c2	0.1386328

conv_block_2.0.weight f4 [8, 8, 3, 3]
0	0xbd3cfbff	-0.04613876
1	0xbd3c7019	-0.046005342
2	0x3d6ae5d2	0.05734808
3	0x3b16c4e0	0.002300553
4	0x3dcf1f13	0.10113349
5	0xbe1d850a	-0.15382782
6	0x3d30c66e	0.043157987
7	0x3dddacbe	0.108239636
8	0x3c3a2de1	0.011363477
9	0x3e242b3d	0.16032119
10	0xbd3c7ed0	-0.046019375
11	0x3b82231e	0.0039714715
12	0xbd260eb5	-0.04054137
13	0xbda0a416	-0.07843797
14	0xbe83964e	-0.2570061
15	0xbe252d5a	-0.16130581
16	0xbcd1903f	-0.025581477
17	0xbdc5e0db	-0.096620284
18	0xbd8c94a0	-0.068642855
19	0x3d149626	0.036276005
20	0xbd1ac7e8	-0.0377883
21	0x3ddc5c03	0.10759737
22	0xbdd17d1f	-0.10228943
23	0xbd187a98	-0.03722629
24	0xbde90ccb	-0.11379393
25	0xbd3e1be8	-0.046413332
26	0x3d182d02	0.037152298
27	0x3e016989	0.12637915
28	0xbdcc9b7b	-0.09990593
29	0xbc8ba4e3	-0.017046398
30	0x3af09856	0.0018355947
31	0xbe0dab35	-0.13834842
32	0xbce117ba	-0.027477134
33	0xbbd4eebe	-0.006498187
34	0xbd93940d	-0.07205973
35	0x3dc55dd3	0.09637036
36	0x3d9234ff	0.071390145
37	0xbd61b57c	-0.055104718
38	0xbd665ad2	-0.056238957
39	0xbdca7065	-0.09884719
40	0x3cf27504	0.029596813
41	0xbdc3a22a	-0.09552415
42	0x3d4be97e	0.049783222
43	0x3d1870fa	0.037217118
44	0xbdd1b17e	-0.10238932
45	0xbd853a9b	-0.06505319
46	0xbd3d384b	-0.046196263
47	0x3d7c688a	0.061623134
48	0x3cd62693	0.02614144
49	0xbe03fed0	-0.12890172
50	0xbc0d4857	-0.008623204
51	0x3dc89b8a	0.09795292
52	0x3d651c29	0.05593506
53	0xbe5a3b9f	-0.21311806
54	0xbd2c6fde	-0.042098872
55	0xbd0be562	-0.034154303
56	0xbcf81d7c	-0.030287497
57	0x3d881ba5	0.06645898
58	0x3d2f808e	0.04284721
59	0x3dbf331d	0.09335921
60	0xbd34ca06	-0.044137977
61	0x3d227432	0.039661594
62	0x3d2bbfb2	0.04193086
63	0xbe26e930	-0.16299891
64	0xbe09c0a2	-0.1345239
65	0xbd577863	-0.052605044
66	0x3d27645a	0.040867187
67	0xbe09a5c0	-0.13442135
68	0xbe5c36b7	-0.21505247
69	0x3d94a815	0.072586216
70	0x3d8c70b7	0.06857436
71	0xbc1627c1	-0.0091647515
72	0x3e1dc331	0.15406491
73	0x3ea6c319	0.32570723
74	0x3e96401a	0.2934578
75	0x3e34c850	0.17654538
76	0x3ec755cf	0.38932654
77	0x3eaeaea0	0.34117603
78	0xbe21369d	-0.1574349
79	0x3c80e0ac	0.015732132
80	0xbd2335c2	-0.03984619
81	0xbe39e91b	-0.18155329
82	0xbd7430ba	-0.05961678
83	0xbdad4993	-0.08461299
84	0xbdc133cf	-0.0943371
85	0x3cd8fe59	0.02648847
86	0x3cd68129	0.026184635
87	0x3e2f2298	0.1710304
88	0x3d43b69a	0.047781564
89	0x3d95fb63	0.07323339
90	0x3de1baf3	0.11021986
91	0xbd377986	-0.04479363
92	0x3a72e500	0.0009265691
93	0x3d5edd33	0.05441017
94	0xbd90a0ad	-0.070618965
95	0x3df6a901	0.12043954
96	0xbd36561f	-0.044515725
97	0xbc371949	-0.011175462
98	0xbca349af	-0.019932596
99	0xbf0d6e75	-0.5524667
100	0xbeaad40b	-0.333649
101	0x3dcdf2b0	0.100560546
102	0xbe2cdb04	-0.16880423
103	0xbe1e654c	-0.15468329
104	0xbce00447	-0.02734579
105	0x3d45aebe	0.04826235
106	0x3e0190ca	0.12652889
107	0x3e262591	0.16225268
108	0xbd90679a	-0.070510104
109	0xbd6b30cd	-0.057419587
110	0xbc91bc94	-0.017790116
111	0xbcb08f18	-0.021552607
112	0xbd995d29	-0.07488472
113	0x3c1f1328	0.009709157
114	0x3c3fe7d8	0.011712991
115	0xbc15f403	-0.009152415
116	0x3c85d71c	0.016337924
117	0x3e090a50	0.1338284
118	0x3e89158c	0.2677425
119	0x3e29dfbb	0.16589253
120	0x3da5bc7f	0.080925934
121	0x3df6dec9	0.12054212
122	0x3e6a7131	0.22894742
123	0x3c040cb2	0.008059667
124	0xbb40721b	-0.0029364887
125	0x3e30498c	0.17215556
126	0xbce5a6d8	-0.028033659
127	0x3dd56f76	0.1042165
128	0x3dab7431	0.08371771
129	0xbd975dac	-0.07390913
130	0x3dcd9dce	0.100398645
131	0xbdad18af	-0.08451974
132	0xbd85b76c	-0.065291256
133	0xbca0f3e0	-0.019647539
134	0xbda2aff1	-0.079437144
135	0x3ea16c02	0.31527716
136	0x3e39c560	0.18141699
137	0x3e06bffd	0.13159175
138	0x3daaf408	0.083473265
139	0x3e9d8ef6	0.30773133
140	0x3de2cae4	0.110738546
141	0xbd727df1	-0.05920214
142	0x3dca3d00	0.09874916
143	0x3e1c6038	0.1527108
144	0x3ec29b58	0.38009143
145	0x3eac00b9	0.335943
146	0x3e022dcb	0.12712781
147	0x3e111417	0.1416782
148	0x3e9a4154	0.30127966
149	0x3e9f04e1	0.3105841
150	0xbdbc0324	-0.091802865
151	0xbdb5ae1e	-0.08871101
152	0xbce76a4b	-0.028248927
153	0x3ba4f5e0	0.0050341934
154	0xbe044905	-0.1291848
155	0x3d914086	0.07092385
156	0x3d3f029d	0.04663335
157	0x3d1bdd02	0.038052566
158	0xbdcdc55e	-0.100474104
159	0x3d974b80	0.07387447
160	0x3cef5f74	0.02922032
161	0x3d119c94	0.035549715
162	0x3d8508ed	0.06495843
163	0xbd572c6b	-0.052532595
164	0x3d71acc2	0.059002645
165	0xbd791d73	-0.0608191
166	0x3db48f99	0.088164516
167	0xbc63207f	-0.013862728
168	0xbdbdc948	-0.09266907
169	0xbd2042fa	-0.039126374
170	0xbd9617b7	-0.07328742
171	0xbe25e5bb	-0.16200916
172	0xbe658351	-0.22413374
173	0xbcea69f7	-0.028614981
174	0xbd9a1c80	-0.07524967
175	0xbe23e491	-0.1600516
176	0xbc85c23d	-0.016327972
177	0xbe0926fd	-0.13393779
178	0xbdea2937	-0.11433642
179	0xbab18c4c	-0.001354584
180	0xbcf521dd	-0.029923374
181	0xbd1828c1	-0.03714824
182	0x3c8a3e7c	0.016875498
183	0xbc85b2cf	-0.016320614
184	0x3d4b87a8	0.04968992
185	0x3ddd46e5	0.10804538
186	0x3d15b4ef	0.036549505
187	0xbd554f74	-0.052077726
188	0xbde20155	-0.1103541
189	0x3e557b6a	0.2084786
190	0x3e20bf01	0.15697862
191	0x3e027651	0.12740447
192	0x3e27ca79	0.16385831
193	0x3e7139de	0.23557231
194	0x3e63b882	0.22238353
195	0xbb83ce86	-0.0040224222
196	0xba8abd86	-0.0010585047
197	0xbda9214f	-0.08258306
198	0x3e0568bf	0.13028239
199	0xbd011a2a	-0.031519093
200	0xbd028bbd	-0.031871546
201	0x3dfd305b	0.12362739
202	0x3ded0f29	0.11575157
203	0x3d7473ee	0.05968087
204	0x3bf211b0	0.0073873624
205	0xbdcb05e7	-0.09913235
206	0xbc486eb8	-0.012233429
207	0x3eb80cd4	0.35947287
208	0x3e87921a	0.26478654
209	0x3d9499b8	0.07255882
210	0x3e1f3f1f	0.15551423
211	0x3e5d0c2c	0.21586674
212	0x3e5bbfb2	0.21459845
213	0xbd0ab061	-0.033859614
214	0x3df4ab97	0.11946791
215	0x3d422c8e	0.047405772
216	0x3d52e76e	0.05149024
217	0x3d474066	0.0486454
218	0x3af42a15	0.0018628264
219	0x3d57f26b	0.052721422
220	0x3d52733b	0.051379424
221	0x3db0dff8	0.08636469
222	0x3db98d13	0.09060111
223	0xbcf6b9d1	-0.030117901
224	0xbdcc56ea	-0.09977515
225	0xbb3bf5ce	-0.0028680447
226	0xbd62d526	-0.055379055
227	0xbdb559e7	-0.08855038
228	0xbd316ee1	-0.043318633
229	0xbd6fddd9	-0.05856118
230	0x3cb16866	0.021656226
231	0x3d167bb2	0.03673906
232	0xbdc3324e	-0.09531079
233	0xbdd8a211	-0.10577787
234	0xbcef1284	-0.029183634
235	0xbd3a9270	-0.04554981
236	0x3dd9091f	0.10597443
237	0x3d7fab62	0.062419303
238	0x3dd9f101	0.10641671
239	0x39c55400	0.00037637353
240	0x3cc2b34c	0.023767136
241	0x3d2763be	0.040866606
242	0xbde47590	-0.11155236
243	0x3c2c6b98	0.010523699
244	0xbd78205d	-0.06057774
245	0xbde0780f	-0.10960399
246	0xbdbb482f	-0.09144627
247	0x3d304170	0.043031156
248	0x3d691559	0.056905124
249	0x3d5fb98a	0.054620303
250	0x3d54cd92	0.05195386
251	0xbd8c7108	-0.068574965
252	0xbca6c0b8	-0.020355567
253	0x3d36c41e	0.044620626
254	0xbc9f8408	-0.019472137
255	0xbcbd73c8	-0.023126498

conv_block_2.0.bias f4 [8]
0	0xbdddc1ac	-0.108279556
1	0x3cd5facd	0.026120568
2	0x3d855988	0.06511217
3	0xbdb66251	-0.08905471
4	0x3de3c1c3	0.111209415
5	0x3d327c12	0.043575354
6	0xbe198ce3	-0.1499515
7	0x3db20dfc	0.086940736

conv_block_2.2.weight f4 [8, 8, 3, 3]
0	0xbd0d70bd	-0.034531344
1	0x3c3ba008	0.011451729
2	0xbdc93d6f	-0.09826171
3	0xbe004935	-0.12527926
4	0xbcafed50	-0.021475464
5	0x3da6a727	0.081373505
6	0x3db39086	0.087678
7	0x3e17ef7e	0.14837453
8	0x3e337653	0.17525606
9	0x3d5311db	0.0515307
10	0xbdb6259d	-0.08893893
11	0xbe71477d	-0.23562427
12	0xbbfa9890	-0.0076475814
13	0x3ceb3cfa	0.0287156
14	0xbe0d98a8	-0.13827765
15	0xbe2c815a	-0.16846219
16	0x3d865432	0.06559028
17	0x3db3ee5e	0.08785699
18	0xbcbd8786	-0.023135912
19	0x3b66f1d3	0.0035239353
20	0xbdb36894	-0.08760181
21	0xbe01cfd5	-0.12676938
22	0xbce6a617	-0.02815537
23	0x3d3c57dc	0.045982227
24	0xbde41b28	-0.11137992
25	0xbc046f59	-0.008083188
26	0xbd9bdbcd	-0.07610283
27	0x3da74405	0.081672706
28	0x3dfbda77	0.12297528
29	0x3d8519fd	0.064990975
30	0x3ca3a214	0.019974746
31	0x3ceb0c5e	0.02869242
32	0xbdaea286	-0.08527093
33	0xbcf13ca4	-0.029447861
34	0x3cb79e5a	0.022414375
35	0xbd865021	-0.06558252
36	0xbde03203	-0.10947039
37	0x3dd97501	0.1061802
38	0x3e09ee6e	0.1346986
39	0xbdb4696b	-0.088091694
40	0x3dad9092	0.0847484
41	0x3de0b288	0.10971552
42	0x3e1592ad	0.14606734
43	0x3df41bba	0.11919351
44	0x3e2bdcab	0.16783397
45	0xbb9960e1	-0.0046807383
46	0x3d36ff29	0.044676933
47	0xbdccc776	-0.09998982
48	0xbe0dab9e	-0.13834998
49	0xbe06fbe0	-0.1318202
50	0xbde7b524	-0.11313847
51	0xbd35bd1e	-0.04436981
52	0xbe02e76f	-0.12783597
53	0xbdb830a8	-0.089936554
54	0xbd9a0247	-0.075199656
55	0x3c4a0c54	0.012332041
56	0xbdf227b7	-0.11823981
57	0x3d99a35f	0.07501864
58	0x3de5da77	0.112233095
59	0xbd95c86c	-0.07313618
60	0x3d46cb27	0.048533585
61	0x3db433b2	0.087989226
62	0x3de3b0c3	0.11117699
63	0x3e1c014c	0.1523487
64	0xbc9b0e65	-0.018927762
65	0xbdcb87d9	-0.0993802
66	0x3dc30696	0.095227405
67	0xbdb0afbf	-0.08627271
68	0xbd9e7acd	-0.07738266
69	0xbdb10b91	-0.08644784
70	0xbe10e4e7	-0.1414982
71	0x3ca31df7	0.01991175
72	0xbe3d0f36	-0.18462834
73	0x3cf7c8d2	0.030247126
74	0xbc37bf4b	-0.011215041
75	0xb882dedb	-6.240393e-05
76	0xbe00cdde	-0.12578532
77	0xbe4cfc1c	-0.20018047
78	0x3d8a0347	0.06738906
79	0x3e46045b	0.19337599
80	0x3d40e5e9	0.04709426
81	0x3c16e0b2	0.009208845
82	0xbe0668e8	-0.13125956
83	0xbd41701a	-0.04722605
84	0xbbda0dbf	-0.0066544707
85	0x3e442e50	0.19158292
86	0x3af4f707	0.0018689343
87	0xbe1c3fa3	-0.1525865
88	0x3c4b4663	0.012406918
89	0x3c18b61d	0.009320763
90	0x3d14e1f0	0.036348283
91	0xbe03fd74	-0.12889653
92	0xbdd5f8af	-0.10447823
93	0xbe0207ff	-0.12698363
94	0xbc97cb57	-0.018529577
95	0xbd32ce30	-0.043653667
96	0xbd11b92d	-0.035576988
97	0xbe808801	-0.25103763
98	0xbe940675	-0.28911176
99	0x3d2432a2	0.04008735
100	0xbda0bd99	-0.07848663
101	0xbc965a10	-0.018353492
102	0xbb2b1660	-0.0026105866
103	0xbd507c3a	-0.05089972
104	0x3d2fab7e	0.042888157
105	0x3bf8e770	0.007595949
106	0x3ddee50c	0.10883531
107	0xbc2b7bd8	-0.010466538
108	0xbdf27bf1	-0.11840046
109	0x3e626828	0.22110045
110	0x3e5cf453	0.21577577
111	0xbd397253	-0.045275044
112	0x3dcb67d4	0.09931913
113	0x3e958efb	0.29210648
114	0xbe2f49f1	-0.1711805
115	0x3e2cf690	0.16890931
116	0x3ea167f9	0.31524637
117	0xbe00c2e4	-0.12574345
118	0xbe1e6285	-0.1546727
119	0xbecec7ca	-0.40386802
120	0x3e1e2ce0	0.15446806
121	0x3d907b68	0.07054788
122	0xbee26ec1	-0.44225124
123	0x3e7a9cbe	0.24473855
124	0xbbc74fb6	-0.0060825003
125	0xbecb2faa	-0.39684802
126	0x3d387f5f	0.045043346
127	0x3e1b6c2c	0.15177983
128	0x3e8680b9	0.26270083
129	0xbc51fdcd	-0.0128168585
130	0x3e6a366a	0.2287232
131	0x3e8d8bd8	0.27645755
132	0x3d8afa41	0.067860134
133	0xbd703b32	-0.058650203
134	0x3e4a28e2	0.19742158
135	0xbe375e2c	-0.17907017
136	0x3b402d5b	0.002932391
137	0xbe18eac9	-0.14933313
138	0xbe669a75	-0.22519858
139	0xbda2f56d	-0.079569675
140	0xbe555643	-0.20833687
141	0xbe2ba971	-0.16763856
142	0xbe67b25a	-0.2262663
143	0xbe840f02	-0.257927
144	0x3e21d6a2	0.15804532
145	0xbcccc2db	-0.024995258
146	0x3c148b94	0.009066481
147	0x3d0cd9d4	0.034387425
148	0x3b822bd0	0.003972508
149	0x3d7d14f5	0.061787564
150	0xbd782a23	-0.06058706
151	0xbd8ad4ec	-0.06778893
152	0x3e0a5b66	0.13511428
153	0xbe119c7a	-0.14219847
154	0xbe1e7bd5	-0.15476926
155	0xbdc7ef81	-0.097624786
156	0xbdcb19a1	-0.09916998
157	0xbce8b957	-0.02840869
158	0xbd0ba68a	-0.03409437
159	0xbe0d832d	-0.13819571
160	0xbdf43ad7	-0.11925285
161	0xbd125339	-0.0357239
162	0x3bb7ec67	0.005612898
163	0xbcccddfd	-0.025008196
164	0xbd2b44b3	-0.041813564
165	0xbd525f04	-0.051360145
166	0xbc6c942e	-0.014439626
167	0x3d229a24	0.03969778
168	0xbe3eab84	-0.18620116
169	0xbd469bcb	-0.04848842
170	0xbbced730	-0.0063122734
171	0x3d3b48ca	0.045723714
172	0x3d3df0d7	0.04637226
173	0x3db4a113	0.08819785
174	0xbb7e9bc0	-0.0038850158
175	0xbd9775e4	-0.07395533
176	0x3d57c786	0.052680515
177	0xbda31ea0	-0.07964826
178	0x3cad4e4c	0.021155499
179	0xbd1c4e34	-0.038160518
180	0xbcc9a48e	-0.024614599
181	0x3c83b06c	0.016075335
182	0x3e3c7004	0.18402106
183	0x3ddd01b9	0.10791344
184	0x3dcf6e87	0.10128503
185	0x3e440dc7	0.1914588
186	0xbd6d25cb	-0.05789737
187	0x3db252dd	0.08707211
188	0x3e1c5d7e	0.1527004
189	0x3df635d2	0.12021984
190	0xbdc2140e	-0.094764814
191	0xbdfc16d5	-0.12309042
192	0xbd9936b3	-0.07481136
193	0xba9466af	-0.0011322106
194	0xbe0bc262	-0.1364837
195	0xbe6109b2	-0.21976355
196	0xbe3c4691	-0.18386294
197	0xbe4443b1	-0.19166447
198	0x3d56be25	0.05242743
199	0x3db10a87	0.08644586
200	0xbe00eb8c	-0.12589854
201	0x3ca6530c	0.020303272
202	0x3d88e664	0.066845685
203	0xbd3a85fb	-0.04553793
204	0x3dfb7f13	0.12280097
205	0x3e7c6490	0.24647737
206	0x3df8c1b0	0.12146318
207	0xbda71ff1	-0.08160389
208	0xbd15228f	-0.03640991
209	0xbcd09083	-0.025459534
210	0x3d64a9a8	0.05582586
211	0xbdb3f8e4	-0.087877065
212	0xbe040585	-0.1289273
213	0xbe04c29a	-0.1296486
214	0xbdd97179	-0.10617346
215	0xbd935acf	-0.07195055
216	0xbda824ad	-0.0821012
217	0xbe2f3ca6	-0.1711298
218	0x3deb24a2	0.114815965
219	0xbd6ed10e	-0.05830484
220	0x3e5be456	0.21473822
221	0x3c2b5ab1	0.010458634
222	0x3ca01654	0.019541897
223	0x3d1f1bf3	0.038845014
224	0xbdd3704e	-0.10324155
225	0xbcff9dc5	-0.03120316
226	0xbecb5f1d	-0.39721003
227	0xbe8e5cb8	-0.27805114
228	0x3e0200c7	0.12695609
229	0xbcbab131	-0.02278957
230	0xbe82ca15	-0.255448
231	0x3e5aafa4	0.21356064
232	0x3db5350d	0.08848009
233	0xbd7f80c8	-0.062378675
234	0xbe11181b	-0.14169352
235	0xbe948a66	-0.2901184
236	0xbe94999b	-0.29023442
237	0x3dfc9cca	0.12334593
238	0x3d2f2192	0.042756625
239	0xbdb5857c	-0.08863351
240	0x3e723abb	0.23655216
241	0x3e813916	0.25238866
242	0xbdea6b35	-0.11446229
243	0xbd8770e1	-0.06613327
244	0xbd9f6b2a	-0.07784112
245	0xbda64a2e	-0.081196174
246	0xbda95f6b	-0.08270153
247	0xbdb41302	-0.08792688
248	0xbdd5e95d	-0.10444901
249	0x3cfaa3c1	0.030595662
250	0x3d953562	0.072855726
251	0x3de2996f	0.110644214
252	0x3da1a221	0.07892252
253	0x3de0571e	0.10954116
254	0x3e32c260	0.1745696
255	0xbe675c7f	-0.22593878

conv_block_2.2.bias f4 [8]
0	0x3de2ef3f	0.11080789
1	0xbd12c7ff	-0.035835262
2	0x3e08afd7	0.13348328
3	0xbde31e55	-0.1108977
4	0xbd0ebf48	-0.03485039
5	0x3e13c5ef	0.14430974
6	0x3c88b94b	0.016689917
7	0xbd9aea11	-0.07564176

classifier.1.weight f4 [1, 2048]
0	0xbdbe3e3b	-0.09289213
1	0xbb9cd1d0	-0.004785754
2	0xbd9125e1	-0.07087303
3	0x3d768005	0.060180683
4	0x3da16265	0.078800954
5	0xbd587b17	-0.052851763
6	0xbde63ccd	-0.112420656
7	0xbd8893f4	-0.06668845
8	0xbdb9cb47	-0.09071975
9	0x3ca694c6	0.020334613
10	0xbd52cc74	-0.051464513
11	0xbcb53a09	-0.0221224
12	0x3e2a071a	0.16604272
13	0x3e7f5b5f	0.24937199
14	0x3d158d1b	0.03651152
15	0xbba0aac1	-0.004903168
16	0x3d65dd33	0.056119155
17	0x3e4b9dc4	0.19884402
18	0x3e0a5ca7	0.13511907
19	0xbd0c9d7b	-0.034329873
20	0x3d337ba0	0.04381907
21	0x3dca66e7	0.09882908
22	0xbc5850d0	-0.013202861
23	0x3db0aa9c	0.08626291
24	0xbcba5888	-0.022747293
25	0xbd276b55	-0.040873844
26	0xbd938589	-0.07203204
27	0xbdf9a1f3	-0.121890925
28	0xbd92818c	-0.07153615
29	0x3c340817	0.010988257
30	0xbda32793	-0.079665326
31	0x3d4bdce9	0.049771223
32	0x3b992e68	0.0046747215
33	0x3dce26b1	0.100659736
34	0x3dec58d7	0.11540382
35	0x3d0f1aea	0.034937777
36	0x3c7d7ae5	0.015471195
37	0x3dfef4a8	0.12449008
38	0x3dee47fa	0.11634822
39	0x3dde7df1	0.10863865
40	0x3da21be3	0.07915475
41	0x3d15c61b	0.03656588
42	0xbc20b5f7	-0.009809009
43	0x3c248db2	0.010043548
44	0x3de0db4d	0.10979328
45	0x3dc7c191	0.09753717
46	0x3ce4d66e	0.02793428
47	0x3cb85179	0.022499787
48	0xbd14932f	-0.036273178
49	0xbc193f8e	-0.0093535315
50	0x3d1f849f	0.038944837
51	0x3c640923	0.013918194
52	0xbdce9a71	-0.10088051
53	0xbd9fc9e0	-0.078021765
54	0x3e114a4c	0.14188498
55	0x3d928055	0.07153384
56	0x3db6672a	0.08906396
57	0x3de7ce96	0.113187
58	0x3e080eda	0.13286915
59	0x3dc7adb0	0.09749925
60	0x3da0caf7	0.078512125
61	0x3c3f3f1d	0.011672762
62	0x3cde5f59	0.027145075
63	0xbd3faf52	-0.046798058
64	0xbd000a51	-0.03125984
65	0xbd3e7db6	-0.046506606
66	0xbd9eb603	-0.0774956
67	0xbdf20ada	-0.11818476
68	0xbd5cbd4f	-0.053891476
69	0xbd7ef95d	-0.06224953
70	0x3d70f1ca	0.058824338
71	0x3c9c4632	0.01907644
72	0x3d4031fa	0.04692266
73	0x3de1484b	0.11000117
74	0x3d9a434e	0.075323686
75	0xbdbd79c4	-0.092517406
76	0xbd022559	-0.0317739
77	0xbdd01572	-0.1016034
78	0xbc4ef3de	-0.012631385
79	0xbe07799e	-0.13229987
80	0x3d15501d	0.036453355
81	0xbd0459e7	-0.0323123
82	0xbe13be47	-0.14428054
83	0xbda89297	-0.08231085
84	0x3db3ad4a	0.08773287
85	0x3ae847c3	0.0017721582
86	0x3d16529d	0.03669988
87	0xbd2db4de	-0.042408817
88	0xbc9cd7d4	-0.019145884
89	0xbd6c57b0	-0.057700813
90	0x3d7a221d	0.06106769
91	0x3dab56e0	0.083661795
92	0xbda61ff4	-0.08111563
93	0xbd68793f	-0.056756254
94	0xbd23cd29	-0.039990578
95	0xbe12316e	-0.14276668
96	0xbc3c9295	-0.011509557
97	0xbd8659dc	-0.06560108
98	0xbca20d9e	-0.019781884
99	0x3c4ffdf7	0.012694827
100	0x3e084ec8	0.13311303
101	0xbdc2dd9a	-0.095149234
102	0xbd7f75ea	-0.06236831
103	0xbd23d1d1	-0.03999502
104	0x3d43aa59	0.047769878
105	0xbd8d0aa7	-0.068867974
106	0xbd8c08dd	-0.06837628
107	0x3dd4c234	0.10388604
108	0x3d48601c	0.048919782
109	0x3cc3f5db	0.023920944
110	0x3d210917	0.03931531
111	0xbe0d8eeb	-0.1382405
112	0xbda81eeb	-0.08209022
113	0xbdd10d34	-0.102075964
114	0x3be623c5	0.007023307
115	0x3e670ff3	0.22564678
116	0x3d257dce	0.04040318
117	0xbcb42ce3	-0.02199406
118	0xbd8cb38c	-0.06870183
119	0x3b0699e1	0.0020538496
120	0x3d09d942	0.03365446
121	0x3c7b2bc5	0.01533026
122	0xbdbad0b1	-0.09121836
123	0xbd76e87b	-0.060280304
124	0x3df18b84	0.117941886
125	0x3d1f8f16	0.038954817
126	0x3dc8196c	0.09770474
127	0x3ca7a8a9	0.020466166
128	0xbd1dff6b	-0.038573664
129	0xbd3b56ef	-0.045737203
130	0x3c844b4d	0.016149187
131	0x3e19edd6	0.15032133
132	0xba66ace9	-0.00087995693
133	0x3d50b34c	0.05095224
134	0xbd31d4b0	-0.043415725
135	0x3d1c1aab	0.03811137
136	0x3cf0f33a	0.029412854
137	0x3d834e58	0.06411427
138	0xbd421771	-0.047385637
139	0xbd9f60f3	-0.077821635
140	0xbd9e2cc8	-0.07723385
141	0xbbc08393	-0.00587506
142	0x3c53f9ba	0.012937957
143	0x3ce2e027	0.027694775
144	0x3d86d3f5	0.06583396
145	0xbdf698af	-0.12040841
146	0xbccaac3a	-0.024740327
147	0x3dc8b5cd	0.09800301
148	0x3e309e8b	0.1724798
149	0x3de96dbe	0.11397885
150	0x3caf0daf	0.02136883
151	0x3cda1d48	0.02662529
152	0x3cc1cb3d	0.023656482
153	0x3d43df1e	0.047820203
154	0x3ca1c624	0.019747801
155	0xbdc3f3ab	-0.0956796
156	0xbbea202f	-0.00714495
157	0x3d4bad56	0.049725853
158	0xbd569d76	-0.05239626
159	0x3d957ac8	0.07298809
160	0x3e1525b9	0.14565171
161	0xbdede3c7	-0.11615711
162	0xbd0283e2	-0.031864055
163	0x3e5f7956	0.2182363
164	0x3e942cac	0.28940332
165	0x3e2b657c	0.16737932
166	0x3d0dd45c	0.03462635
167	0x3d0720cc	0.032990262
168	0xbb77c120	-0.003780432
169	0x3ce5c461	0.028047742
170	0x3da9f875	0.082993425
171	0x3d8f572d	0.06999049
172	0x3e10242f	0.14076303
173	0x3e28507d	0.16436954
174	0x3d1b1995	0.037866194
175	0x3e0ad7f1	0.13558938
176	0x3e0f9eb0	0.14025378
177	0x3c9612dc	0.01831954
178	0xbe01c10c	-0.12671298
179	0xbe1b14bb	-0.15144627
180	0xbddcf44b	-0.10788783
181	0x3dcf389c	0.10118219
182	0x3d658ae2	0.056040652
183	0x3d0878f6	0.033318482
184	0xbb8a28dc	-0.0042162966
185	0x3cff06eb	0.031131228
186	0x3e032684	0.12807661
187	0x3e440176	0.19141182
188	0x3e1124b0	0.14174151
189	0x3e5fa451	0.21840025
190	0x3e146254	0.14490634
191	0x3e6a4fab	0.22881953
192	0x3e0073a8	0.1254412
193	0xbd1c5ec4	-0.038176313
194	0xbe1b2c6a	-0.15153661
195	0xbe09c4a6	-0.13453922
196	0xbcfbe318	-0.030747935
197	0x3db7f70c	0.08982667
198	0x3d3ca570	0.04605621
199	0x3cdbcc9f	0.02683097
200	0xbd13506f	-0.03596538
201	0x3cf8aa5f	0.030354677
202	0x3d7de5d6	0.061986767
203	0x3cc92cd1	0.024557503
204	0xbd743a89	-0.059626136
205	0xbe75eebe	-0.24016854
206	0xbe18f905	-0.14938743
207	0xb9cfe730	-0.00039654365
208	0x3d87bb85	0.066275634
209	0x3d8d06d2	0.068860665
210	0xbd7c6740	-0.061621904
211	0xbd9df4a1	-0.07712675
212	0xbb091318	-0.0020915922
213	0x3c84e1a7	0.01622088
214	0x3c3836af	0.011243506
215	0xbb1a1933	-0.0023513555
216	0xbd07c798	-0.03314933
217	0x3b9ef964	0.004851507
218	0x3cae987f	0.02131295
219	0x3d07da32	0.03316707
220	0xbd22eb20	-0.039775014
221	0xbdc2fd7d	-0.09521005
222	0xbddf89ef	-0.109149806
223	0xbe2b90c1	-0.16754438
224	0x3ddd8e98	0.10818213
225	0x3d890ef7	0.066923074
226	0x3c02011f	0.007934838
227	0xbda7d29c	-0.081944674
228	0xbd4ec96c	-0.05048506
229	0xbcca74d2	-0.024713907
230	0xbc1d7be4	-0.009612057
231	0xbd233f67	-0.039855387
232	0xbd37ecaa	-0.044903435
233	0xbcdd14b3	-0.02698741
234	0x3d020721	0.03174508
235	0x3c56b0c1	0.013103665
236	0x3b4cbf7a	0.0031242059
237	0xbcac2fc9	-0.02101888
238	0x3bf58462	0.007492588
239	0xbd9c30df	-0.07626509
240	0x3df96519	0.12177486
241	0x3decf774	0.115706354
242	0xbc2d4fe1	-0.010578127
243	0xbd9d4b3f	-0.07680368
244	0xbd9c52eb	-0.07633003
245	0xbd60250c	-0.05472283
246	0xbd10157a	-0.03517673
247	0xbd2fe7d0	-0.042945683
248	0xbd9593e9	-0.07303602
249	0xbd4a66d0	-0.049414456
250	0xbd74763f	-0.05968308
251	0xbd736a8b	-0.05942778
252	0xbd2c5b95	-0.042079527
253	0x3d20172f	0.03908461
254	0xbc86f8e5	-0.016476104
255	0xbd462aa1	-0.048380498
