models/TinyVGG_pathMNIST.pth (torch, 85828 bytes, 10 tensors)

conv_block_1.0.weight f4 [8, 3, 3, 3]
00000000: c4e0 b73e aac7 ae3e fb86 663d 29c9 e53e
00000010: 05d8 6d3e 25bd 883e 8e8a c53d c225 ab3e
00000020: 27dc 9e3e d7ed c8bd 70fa 613e 3e45 463e
00000030: 6f9b 203e 7f18 683d d85d 163e 66a2 f33d
00000040: d67b b63e 2c23 e53d 505d f8be 3bb9 80be
00000050: 9118 7bbe e3c0 c8be 0585 bdbe d351 5cbd
00000060: e3b5 b8be 531e 67be 046f 52be f036 07bc
00000070: bae6 f2be ca75 ebbd bc29 2cbc c07b b3bf
00000080: c336 6fbd c10b 053e 1fcd 3ebe 6f32 813e
00000090: 2975 13be 1941 51be 37f7 3a3c f457 99be
000000a0: 8295 7cbf 2690 a4be 2fda 98bd 01a8 c3bd
000000b0: ebf5 41be c9c3 8c3e dfea 813e b4a1 b03e
000000c0: 9207 e03e 6181 2fbe ea07 c63d d8da 8f3e
000000d0: 1016 413e 3658 f93e 03b9 e13e a2bc c13e
000000e0: 62e4 09be 86ae 093e 96df bc3e 8931 afbe
000000f0: b5a9 2dbd f4cb 68bc e486 2f3e 8775 3dbd
00000100: ed96 34be 92b2 34be 249d 333e 3559 81be
00000110: caee a9be 98dc 97bd 9b15 f83d cd2d 72bd
00000120: 64cd c33c fe03 9abe 3592 edbd 3b95 b7be
00000130: 3985 bdbe 384b 11bd 23bb 933b 1adc f53c
00000140: 59d3 32be 1d58 06be f21e d13d f04f 9fbd
00000150: 2e36 ef3d ec0e 3bbd 0677 e13d c11d 19be
00000160: cbe6 c6bd 9c53 703d bca5 263d 50fa 48bd
00000170: faee ea3d 21f8 053e bce8 0ebe ea6a d2bd
00000180: cf72 343e b2fe 84bd 72ba 8bbd ccae 3ebe
00000190: 02b6 e1bd 04ea 443d 1018 d0bc af0c 0fbe
000001a0: 40ec 933b 379d 06be 4e31 27be 7609 d9bd
000001b0: 227a 2cbe 2b67 50be cbea 143e bdfe 423c
000001c0: 908f 703c 9a08 74be b173 1abe cc0e b5bd
000001d0: ebd9 a23b b667 2dbe d429 2bbe 0389 36be
000001e0: 00cf 0b3a 770a 12be 6421 b0bd 2c8a 05be
000001f0: f9f7 68be f9a4 55be 90e9 86bd eecc 62be
00000200: 1489 b53d 7271 80bd 327b 193e 0e2a 513d
00000210: e2fc 3fbe cc0b f53d 5a78 7abd f2e2 3abe
00000220: ae61 29bf 961b b9be 0b98 83be 8f8c 0ebf
00000230: 447a bdbe c3e8 26be 4345 843d bdab 58be
00000240: 3b29 553e 5015 5d3e 8eee 983e c309 9b3e
00000250: 5f4e 113f e732 0cbe 4fd4 fc3d a511 263e
00000260: 6ea6 153d 717d 973d b922 873e b172 a4bd
00000270: 2550 413e 7198 913e 9c86 c93c 3ca7 ddbd
00000280: 2783 983e 340e b43d 9e49 58be 3993 94be
00000290: 66bc bb3e 4bb9 82bd e8e3 37be 465d dd3e
000002a0: 91e0 d83d 568b e9bd 382f e93c e415 61bd
000002b0: ac54 393d 5da1 99be d660 81be 1850 adbe
000002c0: 6be6 b5be 880e 0bbe 940c 2fbe dabe bebe
000002d0: 3243 c93e a63e da3e a9ce 573e fb57 4a3e
000002e0: f120 a93e c405 b13e 443e 453e d547 d63d
000002f0: 2522 393e b5b8 143c 1c3a 94bd 7748 90bd
00000300: a223 8a3d 60e8 d53d 3be4 8ebd 73e3 aabd
00000310: 5f32 21bd 1ebd 52bd 408a b23c 2cad 2a3b
00000320: 9896 3fbe 90b2 08be e98c b93d c842 fb3c
00000330: 2d9b 29bd dfaf 1cbe dcb4 17be 7ae6 40be
00000340: 343f debd 092d 503d 0302 7e3d 60fd b63c
00000350: 7832 64be 45aa 14be 5c7b 7fbd a9ae 153e
0.3591367 0.34136707 0.05628107 0.44880036 0.23226936 0.26706806 0.09645568 0.33427244
0.31027338 -0.09810989 0.2206819 0.19362351 0.15684293 0.056663986 0.14684236 0.118962094
0.35641354 0.11188349 -0.48508692 -0.2514132 -0.2452109 -0.3920966 -0.37015548 -0.05378897
-0.3607627 -0.22570162 -0.20550162 -0.008252844 -0.47441655 -0.11497076 -0.010507997 -1.402214
-0.058401834 0.12992765 -0.18632935 0.2523379 -0.14400162 -0.20434989 0.01141148 -0.29949915
-0.9866563 -0.32141227 -0.0746349 -0.095535286 -0.18941467 0.27493122 0.25374505 0.3449837
0.43755776 -0.17139198 0.09669478 0.28096652 0.18856072 0.48700112 0.44086465 0.37839228
-0.13466027 0.13445482 0.36889333 -0.3421748 -0.042398173 -0.014208782 0.171413 -0.04625466
-0.17635699 -0.17646244 0.17540413 -0.25263372 -0.33189994 -0.07415122 0.12113496 -0.05912571
0.023901649 -0.3008117 -0.116001524 -0.3585604 -0.37015703 -0.035472125 0.0045083924 0.03001218
-0.17463435 -0.1311955 0.102109805 -0.07778919 0.11680256 -0.045668527 0.1100903 -0.14952756
-0.09711989 0.058673486 0.0406854 -0.04906684 0.114713624 0.13082935 -0.13955969 -0.102742985
0.17621921 -0.06493892 -0.06822671 -0.18621367 -0.11021043 0.048074737 -0.025402099 -0.13969682
0.004514247 -0.1314591 -0.16327402 -0.10597508 -0.16843465 -0.20351855 0.14542691 0.011901555
0.0146826655 -0.23831406 -0.15083195 -0.08840713 0.0049698255 -0.16934094 -0.16715175 -0.17825703
0.00053332746 -0.14261805 -0.08600119 -0.1304099 -0.22750844 -0.20863713 -0.06587517 -0.22148487
0.08864036 -0.06271638 0.14988402 0.051065497 -0.18748811 0.11965141 -0.061149932 -0.18250635
-0.6616467 -0.3615386 -0.25701937 -0.55683225 -0.37007344 -0.16299729 0.06458523 -0.21159263
0.2081651 0.21590161 0.29869503 0.30280885 0.5676021 -0.13691293 0.12345182 0.16217668
0.036535673 0.07396973 0.2639368 -0.08029688 0.18878229 0.28436616 0.02460032 -0.10822913
0.2978756 0.087917715 -0.21121833 -0.29018572 0.36667174 -0.06382998 -0.17958033 0.43235224
0.10589708 -0.11403529 0.028464898 -0.054952517 0.045246765 -0.30005923 -0.25269192 -0.3385017
-0.35527357 -0.13579762 -0.17094642 -0.37254983 0.39309078 0.42625922 0.21074928 0.19760124
0.33032945 0.3457471 0.19262034 0.104629196 0.18079431 0.009077241 -0.07237646 -0.070450716
0.06745078 0.10444713 -0.06977125 -0.08344164 -0.03935468 -0.051449887 0.021794438 0.002604316
-0.1870979 -0.13349366 0.090600796 0.030671492 -0.041407753 -0.15301464 -0.14815086 -0.1883792
-0.10851899 0.0508242 0.062013637 0.022337615 -0.22284877 -0.14518078 -0.062373504 0.14617409

conv_block_1.0.bias f4 [8]
00000000: 3a33 e7be 50d6 7a3e d827 353f ac1e 96bd
00000010: 78b6 13be eb1a 0e3f 27e5 0cbf 5e5a d4bd
-0.4515627 0.24495816 0.7076392 -0.07330069 -0.14425075 0.55509824 -0.5503716 -0.10368799

conv_block_1.2.weight f4 [8, 8, 3, 3]
00000000: 4541 60be 7587 c63e 5c98 ab3e 5c08 963c
00000010: ec16 b93e 043c 5b3e fcd7 86be 127f 953e
00000020: 6d96 a93d 96eb e23e e741 073e f955 b7be
00000030: 5e62 393f 3f47 12be b113 e43c afdd 5b3f
00000040: 50d8 643e 16e5 f4bf f51a f83e 3f88 623d
00000050: 11df 28be 525f 0abe d230 23bd 9d91 cd3c
00000060: 8894 323e 5117 c0bd eb0b 9abe 9a0d b1bd
00000070: 3057 aabc 15ff 69bd 00af 13bd d7c5 e5bd
00000080: c909 873d 0a09 a8bd 6a9f 723d c60c 5b3d
00000090: 536f ac3d e976 aabd af95 ad3d 26a0 abbd
000000a0: b0c2 e23d 279f b13d fc66 333c 249b 823d
000000b0: e445 debc 9f92 90be 580a 133e 04e2 5ebe
000000c0: 595b a43d a198 ba3e b5d5 6f3e 40d2 aebd
000000d0: 84f1 b5bd 13f6 0f3e 6701 81be 7b62 0dbf
000000e0: 571f 6a3d 2a1b d1bd 0ba0 f3be dd85 b5bd
000000f0: eb16 8f3e d1d4 123e 377a a63c 821d e13d
00000100: 6f0f ef3d 40d7 0cba ba96 91bc b37d 25bd
00000110: fd5f c0bd 21b8 eebd 9b9d f73c 807f 57bd
00000120: b52e 4dbe 9491 94bd 42c5 a5bb e022 2bbe
00000130: d07b dbbd b910 ca3e a21d 6ebd 5ce1 8ebd
00000140: 3d89 8a3e bb74 903f 6239 a13f 6f2b d63f
00000150: 9094 d73e 316a cc3e 98a4 183f 1ade 37bc
00000160: 8fa7 7d3f f305 543e 3c0d adbe 6a9a 75bc
00000170: 5c47 eb3d bea3 ca3e 26c5 0b3f 0e27 aa3e
00000180: bf01 013e e84c 333e b1d2 01be a676 773d
00000190: baba 98bd d18a c1bd a1ef a4bd 2231 eebd
000001a0: fa3d babd fcbf eebc 43e3 a23d cc98 a13c
000001b0: 3d94 b7bd c29f c1bd ee23 703d 6a88 b3bd
000001c0: 58be 6dbc 1690 673d 6868 5fbd d08a 52bc
000001d0: 6012 28bc 3a68 61bc bade 51be 59ae 21be
000001e0: ad90 02bf 682e 10bf 5dd9 bbbe 785f 0e3e
000001f0: e9b2 bb3e e89b 1ebd 08de b33e 9fe0 e43e
00000200: 9021 ca3e 7633 fa3d 3871 e6bd 5574 19bd
00000210: b874 41be c30a a4be b351 bfbe d9c0 f13d
00000220: 6ab5 53bd 8698 98bd f55b efbd 12bf 23bc
00000230: cee7 2b3d e332 0b3d 4214 9a3c cecc cebd
00000240: d5b2 23be c6d8 f2bc 251a 9b3d b54b 393d
00000250: 0e87 8cbd d0a4 7abc df07 edbd 3043 86bd
00000260: c4d6 ae3c 4402 053d 39ef c73d e197 ddbd
00000270: d4d6 403d 8a3a aabd 4681 4c3c e23d 8b3d
00000280: 9163 f6bc e299 9a3d 1d8f 06be 4a14 8fbd
00000290: fdc5 8c3d 2722 b0bd 7c02 a5bd 2174 a5bd
000002a0: 1ccd 773c f58f 973a 4eb6 c53b 93a2 87bd
000002b0: 54ec c3bd 28d8 503c ea04 0f3d 72e0 5ebd
000002c0: 3e10 07bd 9301 a33d 18d0 193c 503c ae3b
000002d0: 2c98 edbc 8492 dabd 90f0 e2bd 20bf 66bd
000002e0: 4260 75bd 8264 163d 4486 0cbd 9cd9 3cbd
000002f0: 751e e63d d8b0 933c 022e ed3c 9e66 b5bd
00000300: 3567 2bbd f027 2abc 7164 e0bd 02ae 90bd
00000310: 2cea 79bd ae2e 99bd 32e0 f5bd 9365 1c3d
00000320: 0c1e 813d e372 26bd 0866 a4bd 9543 10be
00000330: 1de8 8bbd 4d73 853b 2920 c53c a018 74bc
00000340: 12d8 3ebd d97d 863d e437 c0bd 158b 983d
00000350: da45 3bbd 006c ec3a 1cc9 bebc d818 6a3c
00000360: 6c37 c9be 0ec9 16bf 32c7 82bd fbb7 be3d
00000370: 4c0c a1be 1ca9 a5be c054 513e 6019 933e
00000380: e5cf 273e d5ee 963e 8b35 323f 3174 82bf
00000390: 56ad ebbe 5798 763f da37 143f 7490 c43e
000003a0: 0b34 683f db9b 873f 65f7 113e 44bf 88be
000003b0: b326 2bbe 74e1 0f3e e98b 92be a26d edbe
000003c0: f9c7 973e b6cf 49be 5969 e9be 07d5 83bd
000003d0: ddc4 e83d e553 ce3d 2322 d83d 35ae 8d3d
000003e0: ab55 b63d 3439 81bc 72cd 84bd 7e31 713d
000003f0: afca 4dbd 18a6 23bb fa25 1abd 2439 d93a
-0.21899898 0.3877522 0.33514678 0.018314533 0.361503 0.21409613 -0.26336658 0.2919851
0.082806446 0.44320363 0.13208733 -0.3580778 0.7241572 -0.1428499 0.02784142 0.8588514
0.22348142 -1.9132411 0.48458067 0.055305716 -0.16491343 -0.13512924 -0.03984148 0.025093848
0.17439473 -0.09379447 -0.30087218 -0.086451724 -0.020793527 -0.05712803 -0.036055565 -0.112193756
0.06593663 -0.08204849 0.05923406 0.05347898 0.08419671 -0.083234616 0.084758155 -0.08380155
0.1107229 0.08672934 0.010949846 0.06377247 -0.027132936 -0.28236863 0.14359415 -0.21765906
0.08025236 0.36444572 0.23421367 -0.08536196 -0.08883956 0.14058714 -0.25196382 -0.55228394
0.057158794 -0.10210259 -0.4758304 -0.08863423 0.27947173 0.14338996 0.020321948 0.10991956
0.116728656 -0.0005372651 -0.017772067 -0.04040308 -0.09393308 -0.116562136 0.03022652 -0.052611828
-0.20037349 -0.07254329 -0.0050589154 -0.16712523 -0.10716975 0.39465883 -0.05813373 -0.06976578
0.2705783 1.1285623 1.2595637 1.6732005 0.42105532 0.39924768 0.5962615 -0.011222387
0.990838 0.20705394 -0.3379916 -0.014990428 0.1148822 0.3957805 0.545977 0.3323292
0.12598322 0.17509806 -0.12678029 0.060415886 -0.0745749 -0.09450305 -0.08053518 -0.11630465
-0.09093852 -0.02914428 0.07953503 0.01972618 -0.08963821 -0.094542995 0.058628015 -0.08766253
-0.0145107135 0.056533895 -0.05454293 -0.012850478 -0.010258287 -0.01375776 -0.2049512 -0.15789165
-0.5100201 -0.5632081 -0.36689273 0.13903606 0.36659935 -0.038722903 0.35130334 0.44702622
0.3947873 0.12216847 -0.112520635 -0.03746446 -0.18892181 -0.3203946 -0.3736702 0.11804361
-0.05168668 -0.074509665 -0.11687461 -0.009994285 0.041969113 0.033984076 0.018808488 -0.10097657
-0.15986188 -0.029644381 0.07573346 0.045238215 -0.06861697 -0.015298083 -0.11573767 -0.06555784
0.021342643 0.032472864 0.09762425 -0.10819984 0.047079876 -0.08311947 0.012481993 0.067989126
-0.030076774 0.07548882 -0.13140531 -0.06986292 0.06873701 -0.08600264 -0.080571145 -0.080787905
0.0151245855 0.0011563288 0.0060336953 -0.066228054 -0.095665604 0.012746848 0.034916796 -0.054413266
-0.032974474 0.07959285 0.009387992 0.0053172484 -0.029003225 -0.10672477 -0.1108104 -0.056334615
-0.05990625 0.036716945 -0.034307733 -0.046105966 0.11236278 0.018028662 0.028952602 -0.08857463
-0.041846473 -0.010385498 -0.10956658 -0.07064439 -0.06101434 -0.074796066 -0.120056525 0.038182806
0.06304559 -0.04063691 -0.080272734 -0.1408828 -0.068313815 0.004072583 0.024063187 -0.014898449
-0.04659278 0.06566972 -0.0938566 0.07448403 -0.045720913 0.0018037558 -0.023289256 0.01428815
-0.39300096 -0.58900535 -0.0638565 0.09312435 -0.31454694 -0.32355583 0.20442486 0.28730297
0.16387899 0.2947909 0.6961295 -1.0191709 -0.46030682 0.963262 0.5789772 0.3839146
0.9070441 1.0594438 0.1425453 -0.26708424 -0.16713981 0.14050847 -0.28622368 -0.46372706
0.29644755 -0.19708142 -0.45588186 -0.06437116 0.11365674 0.10074595 0.10553386 0.06917993
0.089030586 -0.015774347 -0.06484498 0.05888509 -0.050242122 -0.0024970826 -0.037633874 0.0016572815

conv_block_1.2.bias f4 [8]
00000000: 6475 5dbe a814 7dbe b376 25be 4e13 713c
00000010: 3a4b 28be 7b80 d9bd 9d32 2bbb ccd8 ee3e
-0.21626812 -0.24714911 -0.16158561 0.014714075 -0.16434947 -0.10620209 -0.0026122697 0.46649778

conv_block_2.0.weight f4 [8, 8, 3, 3]
00000000: 7c7b 733e 8bd3 18bf 61a8 44be 66a2 9cbd
00000010: 000e dabe acba 6c3d 1ab6 7a3e 2ab3 bcbe
00000020: 4485 7b3e 7bf0 80be fc4a ab3c 5e1c 5abd
00000030: 968a c4be c34e c33e 351d 61be f920 1fbe
00000040: 4360 0cbf 385f 0fbe 0fdd 903d d777 c3bc
00000050: 9932 e73c 4aff 2cbd 930d e83d d36b 48bd
00000060: 9a73 d3bd 8ece 84bd 24af aebd 9fd3 4a3e
00000070: ade3 d5be ef94 da3d 520e 833e 3e70 07be
00000080: 2a16 ecbe 0077 0cbf 1152 bc3e 764a e23d
00000090: bb22 e73e e4e7 a13c 5d86 863e 50bf c53c
000000a0: e612 4e3e 337f 84be 34df 88be 7c35 a63e
000000b0: f268 943c 2fc1 0d3d a474 1dbd 74a4 003e
000000c0: f671 893d 4262 003d 41b9 c03d 79b1 013e
000000d0: c257 9d3c f48b 15be cda6 d6be 13d1 d2be
000000e0: 4dbc ef3b 2f64 8cbe 6341 aa3d 8c67 92be
000000f0: abdf 223e c168 01bf 7d1f 97be 86ed 6dbf
00000100: e988 3a3b 11b4 773d e6a0 ad3e 0cd7 293f
00000110: 35b6 41bf 3906 f03e ca13 293f 8541 c7bd
00000120: 22b4 ad3d 90a8 b53c 0dc7 06be 5af9 6b3e
00000130: b6d9 f43e 45e9 af3e ed06 13be 6aa5 573d
00000140: 9529 cabe b09b ff3e 4e39 563f d56a a43d
00000150: dc49 b43e 1401 583e f6a6 46bf 3aae c9be
00000160: 6bdf adbe e672 80bf e742 8aba 03d9 05bd
00000170: 2241 023e 62ab 7f3d fff0 0f3e 201f d23b
00000180: 4cb3 c23c be63 273d 9075 e4bd 915e 46be
00000190: da9f 51be 2e5f f2be edd9 893c 62dc 2d3e
000001a0: 4da1 053d cff9 ef3e 46ab be3e 4e60 9b3c
000001b0: d364 22be 3940 8d3e 28a8 cc3e e0f6 94bd
000001c0: ed1a d63d ac5f d83e d98a c9be 58b9 13be
000001d0: 6680 7e3e b8dd 42bd a823 1bbd 505d d03d
000001e0: d195 51bd dc12 afbc 9c2e 1c3e 28c7 2ebd
000001f0: 69aa c0bd be7f 173c 9f1c 62bf b828 03bf
00000200: 6c2d 26bd b2bf b0be e84f babf df5d 69be
00000210: f0a5 6abc 04f5 1fbf 0e9b 8a3c f66b fc3d
00000220: 6984 5e3e 6021 d4bc edbf 09bf d1f1 223d
00000230: 6455 37bf be7e 83be 924d 2d3f ebb8 62bf
00000240: 91eb 923e 58d6 273d 4918 cabe aff1 cb3c
00000250: d337 b4bd bc9b 6abe abbe 383d 0023 d33e
00000260: c731 873e 995e 92bf ec70 18bf d810 723e
00000270: 2f9b febd 5692 143f 50fd e33e c97a 3cbe
00000280: 30c2 08bf b1fd 95be 02a9 3d3d 5ac1 c43d
00000290: 29b1 f33b b65d 9ebd df67 273e 4861 8bbc
000002a0: 26ee 3bbd 4623 313d c9ee fa3d a72d bc3e
000002b0: 678d efbd 96bd 4fbe c43b a23e bb7c d53d
000002c0: 627a 32bf 0c55 c4bb b658 883e 5828 d3bc
000002d0: 4c8f 273f 71e9 c63d 60e1 0bbf 668e d43e
000002e0: 1981 90bd da0d 7cbf 6567 ff3e 9b62 993e
000002f0: ba1c e6be bae1 243c a586 213b 7146 b3bd
00000300: 9eca 733d fd52 6cbd 1675 22bd b5ab 903c
00000310: 7709 17bd a69f 21bc 81e2 5e3d 94a0 78bd
00000320: 9348 9cbe 5440 6f3e 6539 023f 436e e43d
00000330: ce5c 31ba 6829 da3d a08a 23bd d656 c3be
00000340: 9f59 ddbe d287 993e 31ec 4fbf be44 d53e
00000350: 7f75 91bf 5a00 a6bf fa85 803e 5456 d6bf
00000360: 1537 1e3e ee07 47bf 4663 bebd 1822 8c3e
00000370: c29e d6be 901c 933e 0896 5ebc 42b5 7fbe
00000380: f7aa 963e 9fa3 18be e912 8f3e 2a39 3f3f
00000390: b455 a7bd f53c 753d 0580 803e c03d 173d
000003a0: cb1c 7dbe b26a 33be 0004 f93a eb1f c93b
000003b0: 17f4 b6bd 82df 61bd 58ed 353d 5e0a 3f3c
000003c0: a48b d83c c7a4 68bd c555 ea3d 25a4 f23d
000003d0: d0c5 c4be dc40 e4bd ef5f 4c3f 6dc6 7b3e
000003e0: d365 1bbf fd57 bf3e 1fb8 5f3e 1803 2ebf
000003f0: 6948 6cbe 2bc0 e7bd cde4 b0be 108c 1fbf
0.23777574 -0.5969779 -0.19204856 -0.076481625 -0.42588806 0.05779521 0.24483529 -0.3685544
0.24562556 -0.25183472 0.020909779 -0.05324971 -0.38386983 0.38146028 -0.21983798 -0.15539922
-0.54834384 -0.14001167 0.070734136 -0.023860855 0.028222369 -0.04223565 0.11330714 -0.048930954
-0.103247836 -0.0648471 -0.08529499 0.1980729 -0.41775265 0.10672938 0.25596863 -0.13226411
-0.4611066 -0.5486908 0.36781362 0.110493585 0.45143685 0.019763894 0.26274386 0.024139076
0.20124397 -0.25878295 -0.2673279 0.3246268 0.018116448 0.034608062 -0.038441315 0.12562734
0.067111894 0.031343706 0.094103344 0.12665357 0.019206885 -0.14604169 -0.41924134 -0.41175136
0.0073161484 -0.27420184 0.08313253 -0.28594625 0.15905635 -0.50550467 -0.2951621 -0.92940557
0.0028462952 0.06047446 0.33911818 0.6634376 -0.7566865 0.46879748 0.6604582 -0.09729294
0.08481623 0.022175103 -0.1316187 0.23044339 0.4782235 0.34357658 -0.1435811 0.052647986
-0.3948485 0.49923468 0.8368119 0.08028189 0.352126 0.21094161 -0.7759851 -0.39390737
-0.33959517 -1.0035064 -0.0010548503 -0.03267766 0.12720159 0.062419303 0.14056776 0.006412402
0.023767136 0.040866606 -0.11155236 -0.19372012 -0.20471135 -0.4733824 0.016827548 0.169786
0.03262453 0.46870276 0.37240046 0.01896682 -0.15858774 0.2758806 0.39972043 -0.0727365
0.104543544 0.42260492 -0.39363745 -0.14426172 0.24853668 -0.04757473 -0.0378758 0.10174048
-0.051168267 -0.021371298 0.15252155 -0.0426704 -0.09407503 0.009246765 -0.8832492 -0.51234007
-0.04057066 -0.34521252 -1.4555635 -0.22789715 -0.014321789 -0.6248324 0.016919639 0.123252794
0.21730198 -0.02589482 -0.5380848 0.039781395 -0.7161467 -0.25682634 0.6769649 -0.8856341
0.28695348 0.0409759 -0.39471653 0.024895517 -0.0879971 -0.2291097 0.04510371 0.4123764
0.26405165 -1.1435119 -0.59547305 0.23639238 -0.12431943 0.5803579 0.445292 -0.18406214
-0.53421307 -0.29295114 0.046303757 0.096071914 0.0074368906 -0.07732718 0.16348217 -0.01701416
-0.045881413 0.04324653 0.12252576 0.3675358 -0.11696892 -0.20287165 0.31686223 0.10424181
-0.6971799 -0.0059915837 0.2663018 -0.025776073 0.6545303 0.09712494 -0.5464077 0.4151489
-0.070558734 -0.98458636 0.4988357 0.29958043 -0.44943792 0.010063583 0.0024646905 -0.0875367
0.059519403 -0.05769633 -0.039662443 0.017660001 -0.03687426 -0.009864723 0.05441523 -0.060700014
-0.3052412 0.23364383 0.5086883 0.11153843 -0.0006765843 0.10652429 -0.039927125 -0.38152188
-0.43232438 0.29986435 -0.81219774 0.4165401 -1.1363982 -1.2968857 0.25102216 -1.6745095
0.154507 -0.77746475 -0.09296279 0.2736976 -0.41917998 0.2873273 -0.013585575 -0.24971488
0.2942731 -0.14906166 0.27944115 0.746966 -0.081706434 0.059872586 0.2509767 0.036924124
-0.24718015 -0.1752117 0.0018998384 0.006137838 -0.08933275 -0.055144794 0.0444158 0.011660187
0.026433773 -0.05679777 0.114421405 0.11847714 -0.3843217 -0.111451834 0.79833883 0.24587412
-0.60702246 0.37371817 0.2184758 -0.6797347 -0.23074497 -0.1131595 -0.3454956 -0.62323093

conv_block_2.0.bias f4 [8]
00000000: 8eb4 013f f939 ce3d b6cc 3ebe 316e 8e3e
00000010: a2c5 99be fba0 3dbe 8680 2dbf 29ea 193e
0.5066613 0.10069651 -0.18632779 0.27818444 -0.30033594 -0.1851844 -0.67774236 0.15030731

conv_block_2.2.weight f4 [8, 8, 3, 3]
00000000: c850 37be 110c 1b3e 6f98 f03e d398 b03e
00000010: 6712 b6bc 18c2 fb3d f989 dd3d d6e6 72bf
00000020: eb9e cebe 250b 99bc 7670 02bf 0250 8fbe
00000030: 8c18 e1be a3d3 1a3e d7c6 973c 4c60 72be
00000040: 7356 fbbd 5eec 073e fe2c ad3e c758 d73e
00000050: e8cd 8d3e 7ec6 653e 5057 21bf c365 32bf
00000060: 90df b4bd 2536 08be 0eac 433f 5403 fd3e
00000070: 99ea 88be 8d85 66bf fb18 093e 2a9d c1be
00000080: 8e86 49bf 2fbe 4ebe 164a 5a3e 4055 c1bf
00000090: b687 25be 3170 33be 08af 00be 714f f83d
000000a0: 5d9a f63d be79 283e 1679 30be 30e3 003e
000000b0: b91c 4abe c0da 3f3d f931 63bd 1832 603d
000000c0: b8c5 6abd 93d3 3a3c 334f 65bc 00be c7bd
000000d0: 3ce2 89bd 6a49 26bd 50a4 eabe ae85 4ebf
000000e0: b9d5 5bbf fde0 0fbf 9d31 34be 35fc 9e3e
000000f0: f437 b2be c594 5abe 8403 19be 60fe 8fbe
00000100: 5a45 b33e ce6a 4abb a8d4 023e 21a5 1a3a
00000110: 7c16 b13c a1b3 5abc eb34 f1be acce ccbd
00000120: 0f37 5dbe 2faa 59be 9351 e93d c4c7 30be
00000130: 6304 c83e 0113 b93e 2277 06be 2c73 9d3b
00000140: bfd9 80be f96f 863e d800 353e 45c2 6e3e
00000150: 1615 b6be c1b7 5fbe 64c1 9fbe d03a 2fbe
00000160: 8a24 3ebe c23a de3d 81d5 903e a39b ff3d
00000170: 0e3a 133e 8082 153e f016 d13e e8db d2be
00000180: 3c51 cebe a59e 0e3f 72ad 48be 291e 89be
00000190: bd04 c7be e38d f2be a7a2 29bf 3de4 9ebd
000001a0: 9216 503e abcc de3e f080 083f e617 113f
000001b0: 8b82 853e 537b 373e 063c 7dbe 3844 adbe
000001c0: 7309 203c 0299 44bf 1172 58be f50b c93d
000001d0: 19dd 8dbe 6331 713d 83cf e5bc 850a eb3d
000001e0: d1cb 7a3d 31a7 bc3d 04b4 093d 8c33 a23d
000001f0: 4506 d43d b1b2 0c3d ff09 79be 9541 c0be
00000200: 66fb 14bf 6b8c 87be 19f4 c3be 6508 a13d
00000210: 1296 e9be ffa3 203e 0c1e 5bbf 7946 b13d
00000220: d569 ffbd 6c4c 85bf 69cc d2bd 78e6 6dbf
00000230: 4a64 37bf 0100 54be 1f26 4abf 4040 18bf
00000240: 56d3 0abd 1d57 01bd 3298 b6bc c646 9b3b
00000250: 9853 313e a142 263e 4c8e 64be ff1d 353e
00000260: 2a2b 823e e63f e5be c155 d03d b7b0 0bbe
00000270: 016f a8be 5dca 35be f892 bdbd 9a40 80be
00000280: 85c4 083e c39a d63e 55f4 b23e 5f36 c9bd
00000290: 1a7e bebc e1d9 a23e 5c52 a03e d6f4 85bf
000002a0: 05b9 bc3d b106 a43e c302 c7bd 492b 883d
000002b0: 7753 7ebe f32f 2cbf 0fea cb3e daf1 bb3e
000002c0: abf6 3ebe da9c 1ebd caa6 973e 65a0 2e3e
000002d0: 1e89 a9be f82d d9be d42e c0be 4b93 f2bc
000002e0: 6b66 b3be 1537 e2be 085f c0be 6f00 9abe
000002f0: 5008 87be 8009 7ebc d53b cdbd 9ca0 db3c
00000300: c178 c33c 1141 373d b3b1 2c3c 4683 08bd
00000310: f5a5 f33c e442 ec3d 5af7 903d e1b7 943e
00000320: ffd4 8b3e 5d14 133f 72b5 87be b2c1 69be
00000330: c929 203d c6a5 9dbd acff 5b3d 2592 e23c
00000340: c64b 4ebf 9a3d e2be 7364 81be 4c6b 1bbf
00000350: ca58 4fbf d748 d33e ec76 8d3d 4396 933e
00000360: c5e6 86be ec33 b6be 50ad 6e3e 4d48 573f
00000370: c56f 8dbf da85 a53d f2a8 0b3f 16a6 76be
00000380: 45d6 8e3d 1725 21bd 3b81 dd3e e398 66bd
00000390: f9b2 8abe 3c98 723e 4c6e b03b d96f dabe
000003a0: e9b9 acbd 92eb ca3c ba3e 52bf d35b e6be
000003b0: 988d 24be b948 d33e 46f1 a9be faf6 1f3e
000003c0: 3ec0 90bc 0408 fdbe 4fd9 3fbf 2ad3 4cbe
000003d0: fa8b c23d def2 b03e 81ba c53d d75a c9be
000003e0: 8d61 7c3e e069 403e 2309 d4be 01ff 853e
000003f0: 4b7a 8bbe 50e3 a4bd c7d1 9abd ac5e 50bf
-0.1790191 0.15141322 0.46991298 0.34491596 -0.022225572 0.1229288 0.10817332 -0.9488348
-0.4035562 -0.018682072 -0.5095285 -0.2799073 -0.4396404 0.15119796 0.018527431 -0.23669547
-0.12272348 0.1327376 0.3382339 0.4205992 0.27696157 0.22439 -0.63023853 -0.69686526
-0.08831704 -0.13301904 0.7643441 0.49416602 -0.26741484 -0.9004753 0.13388436 -0.3781522
-0.7872094 -0.20189737 0.21317324 -1.5104141 -0.16165051 -0.17523266 -0.12566769 0.12124527
0.12041161 0.16452691 -0.1723369 0.12586665 -0.1973752 0.046839476 -0.05546758 0.054735273
-0.057317466 0.011402982 -0.013995933 -0.097530365 -0.06732604 -0.040597357 -0.45828485 -0.8067273
-0.8587299 -0.5620268 -0.17597051 0.31051794 -0.34808314 -0.21345814 -0.14942747 -0.2812376
0.3501385 -0.0030886414 0.12776434 0.000589924 0.021617167 -0.013348491 -0.47110686 -0.10000357
-0.21603034 -0.21256326 0.11392512 -0.17263705 0.39065847 0.3614731 -0.13131383 0.0048049893
-0.25166127 0.26257303 0.17676103 0.23316295 -0.35562962 -0.2184744 -0.31202233 -0.17112279
-0.18568626 0.10851051 0.2828789 0.12480857 0.14377615 0.14600563 0.40837812 -0.411834
-0.40296352 0.5571082 -0.19597414 -0.26780823 -0.38870803 -0.47373876 -0.6626381 -0.07758377
0.2032111 0.43515524 0.53321743 0.5667709 0.2607616 0.17918138 -0.24729928 -0.3384111
0.009767878 -0.7679597 -0.21137263 0.09816734 -0.27707747 0.05888499 -0.02805305 0.11476616
0.06122953 0.09211577 0.033618942 0.07919988 0.10352758 0.0343501 -0.2432022 -0.37550035
-0.58196104 -0.26474318 -0.3827217 0.07862929 -0.45622307 0.1568756 -0.8559272 0.0865602
-0.12471358 -1.0413947 -0.102928944 -0.9292979 -0.71637404 -0.20703126 -0.7896442 -0.5947304
-0.033892952 -0.03157722 -0.02228937 0.0047386615 0.17317045 0.16236354 -0.22319907 0.17687224
0.25423557 -0.44775313 0.10172606 -0.1364163 -0.3289719 -0.17752977 -0.09256548 -0.25049287
0.13356216 0.4191495 0.34952036 -0.098248236 -0.02325349 0.31806853 0.31312835 -1.0465343
0.09214977 0.32036355 -0.09717324 0.06648881 -0.24836527 -0.67260665 0.3982701 0.36707956
-0.18648784 -0.038723804 0.29619437 0.17053373 -0.33112425 -0.42417884 -0.37535727 -0.02961125
-0.35039076 -0.4418265 -0.37572503 -0.30078456 -0.2637353 -0.015505195 -0.10021178 0.026809983
0.02386129 0.044739787 0.010540414 -0.033328317 0.02974222 0.11536196 0.070784286 0.29046538
0.2731094 0.57452947 -0.2650562 -0.22827795 0.03910235 -0.076976344 0.053710625 0.027657578
-0.8058437 -0.44187623 -0.2527195 -0.607106 -0.80994856 0.4126651 0.06907448 0.28825578
-0.26347938 -0.35586488 0.23308301 0.840947 -1.1049734 0.08082171 0.54554665 -0.24086794
0.069744624 -0.039342012 0.43262658 -0.056298148 -0.2708967 0.23690885 0.005384242 -0.42663458
-0.08433897 0.024770532 -0.82126963 -0.4499193 -0.16069639 0.4126642 -0.3319189 0.15621558
-0.017669793 -0.49420178 -0.7494096 -0.20002428 0.09499355 0.34560293 0.096547134 -0.39327118
0.24646588 0.18790388 -0.4141322 0.26171115 -0.2724174 -0.08051169 -0.07559543 -0.8139446

conv_block_2.2.bias f4 [8]
00000000: 69a2 e8bd f135 ce3c bb16 b93d b93d 073d
00000010: a587 72be faa6 f4bd 4213 0abe 8b70 353e
-0.11359102 0.025172206 0.090375386 0.033017848 -0.23684557 -0.11945911 -0.13483909 0.17718713

classifier.1.weight f4 [9, 2048]
00000000: a259 13bf ed46 39bf 952b 16bf 5b6f dabd
00000010: 5ce2 6f3e 9832 65bf b081 ed3d 2cb3 97bf
00000020: e6e3 36bf 1ea6 debe 971e 43bf 4e33 eabe
00000030: 01b0 8e3f f783 c6be d8c1 e5be 84d9 083f
00000040: 5eca 16be 6aa0 0c3e 0a11 d3be d7b8 17be
00000050: 42c5 0bbe 26ca 9ebe 583d 14bf 9b11 09bf
00000060: fbcb cebe 6576 6ebf 4737 91be 0076 29bf
00000070: e9d4 c0bb 1740 0b3b 3347 bcbe 4346 c4be
00000080: 1f34 24bf 6729 3dbd 38e9 39bf d284 a7be
00000090: d47c 60bd 987d d5be f5ad 3ebe a60b d4be
000000a0: 4f0e 41be 3f17 43bf 08d9 78bc 8952 b93e
000000b0: fd76 9bbf 1efb 81be 82b6 0dbf 8fa8 cf3e
000000c0: 684f a1be e409 813e 1c3f fd3e 7790 0fbf
000000d0: 84b8 ed3e ddc5 bfbe dc6f d63d afa5 12bf
000000e0: 4ae3 903e 3658 8e3e 3471 7cbe 8730 113e
000000f0: d404 0d3d 99ef c03d a643 743e daa1 993d
00000100: bb06 47bf d956 c0be 0ead aebe c98b 93be
00000110: 8645 14bc 6204 35be cc45 7dbf 93d8 65bf
00000120: 0a43 3bbe 3d12 bd3e 90b0 98bc d4b8 48bf
00000130: e27c 66be 32a0 36be e5e2 aabf 00f3 a3be
00000140: ae5c e6be 2d19 d5bd 031d 7a3e c8e2 0f3d
00000150: dbd9 093e 28e2 143f 31af dfbe 569d 41bf
00000160: ef6b d6bd 2e6b b9be fae3 a7be 8803 a7bd
00000170: 4bc4 b6be c1bd 2cbf 6b9f 8e3e f1f3 b0be
00000180: 395f e9be d5a6 763e 305f 49be a1ba 0f3e
00000190: 4b8c 25be ab6b 25be a774 96be 17d8 19be
000001a0: 769e 19bf 267c efbe 0bf9 27bf e565 d9be
000001b0: 252a 88bd acf4 5ebf 000d f5be 8cdb 92bf
000001c0: 6984 06bf 38ef 0abf b14c 563b 837e 0c3f
000001d0: d4ad 6b3d 732b d3be 20c7 863e b53b 5f3c
000001e0: e10f 09be 070d f0bd 02bd ef3e 32b4 7fbe
000001f0: eedb a93e a95b b4be 65f3 de3e 1418 e93e
00000200: e29b 4dbe c2ca 0ebf 2ec8 8e3e f6ea 97be
00000210: b344 e03d 48dd c2be 697f 01bf f501 35be
00000220: f4df 023e 6631 49be 8348 83bd 5e28 a1be
00000230: 0627 7d3e eece c0be 8330 b5be 93f4 30bf
00000240: 4c64 80bf c8b3 18bf 7f22 083f 5270 99bd
00000250: 33d6 b1bd dd30 42be 3400 0fbf 8121 8cbe
00000260: 3176 0ebf dd9f 2ebd 3573 2cbf 5506 aebf
00000270: 9b0b c43d 31f2 03bf e1d5 f53e af71 f3bd
00000280: 8f83 1cbe 6d11 ad3e b509 143f 5fa2 2ebf
00000290: 4874 e23d 20a8 7dbe 7f29 31be ee0e 3dbe
000002a0: 18f2 89be c9d6 dcbe fc9d 72be b6fa 9dbe
000002b0: 3063 03bf df23 553e 106b 1fbe 13b8 8fbe
000002c0: 6a64 38bf 8ff3 ad3d 7c44 923d cbaa b8be
000002d0: e2d0 d23a fee1 f73d f2b1 9fbd 3e93 0dbf
000002e0: 5a37 46be e16b 8fbd dc77 26be f3fd a8be
000002f0: f84e d8be e3ff 26bf c8a3 04bf e089 713f
00000300: b2d2 aebe ccc7 933e ff26 86be be65 92bd
00000310: 06ca 6dbf 5707 38be 2952 e4be 466d ecbe
00000320: 7262 ba3e 53d7 a33e dd41 1cbf 56ce c73d
00000330: acfe 9fbd 332d d83c 06f9 a2be b35a c53e
00000340: a2f2 61bd 8e23 efbd e706 a4be 736a 3e3d
00000350: c475 7b3e dc4c 83be d4c3 4a3e a339 28bf
00000360: 2ddc 46bf 418a d63d c8a6 11bf c33a 85be
00000370: 35ad 0ebf ecc4 b53d 5728 babe 57c3 2b3d
00000380: 3956 70bf 81e3 85be 6c74 f2be b9e0 87bc
00000390: 1c97 1fbf a633 4c3e e638 95be aa8f 22bf
000003a0: 283c c6bd 887e d0be d2f1 b1be 4aa1 24bf
000003b0: c8b0 4bbe 00a6 f7bd c8a2 0ebf 008e 5b3e
000003c0: 19c2 36be 40dd 8d3e 9837 fa3d b5f4 073f
000003d0: 2655 9f3e 229d 5fbf 8779 b73d 232c 763d
000003e0: 55b4 ca3d 4ae2 b8bf 949e f9be 98f9 963d
000003f0: d700 3fbf d92a 973d 8740 c2be 91d7 773d
-0.57558644 -0.7237385 -0.5866025 -0.106657706 0.23426193 -0.89530325 0.115970016 -1.1851554
-0.71441495 -0.43486112 -0.7621855 -0.45742267 1.1147462 -0.38772556 -0.44874454 0.534569
-0.14725634 0.13733068 -0.41223937 -0.14816605 -0.13649467 -0.31013602 -0.57906103 -0.5354249
-0.4039 -0.93149406 -0.28362486 -0.6619568 -0.005884756 0.0021247917 -0.3677307 -0.38334855
-0.6414203 -0.046182062 -0.7262149 -0.3271852 -0.054806545 -0.41697383 -0.18621047 -0.41415137
-0.18853115 -0.76207346 -0.015188463 0.36195782 -1.2145687 -0.253869 -0.5535661 0.40558288
-0.31505895 0.25202858 0.4946221 -0.5607981 0.46429837 -0.37455645 0.10470554 -0.57284063
0.28298408 0.27801675 -0.24652559 0.14178668 0.034428433 0.094206996 0.23853931 0.07501574
-0.77744645 -0.3756626 -0.34116405 -0.28817585 -0.009049779 -0.17677453 -0.98934627 -0.8978359
-0.18287292 0.36927977 -0.018638879 -0.78407025 -0.22508577 -0.17834547 -1.3350493 -0.32021332
-0.44992584 -0.104051925 0.2442513 0.035128385 0.13462012 0.5815759 -0.43688348 -0.756307
-0.104698054 -0.36214584 -0.3279112 -0.081549704 -0.35696635 -0.6747704 0.27856 -0.34561113
-0.45580462 0.24087079 -0.19665217 0.14036037 -0.16166799 -0.16154353 -0.29385874 -0.15023838
-0.6000742 -0.46774405 -0.65614384 -0.42460552 -0.066486634 -0.8709209 -0.4786148 -1.147325
-0.5254579 -0.5427127 0.003269952 0.5488054 0.057538822 -0.41244087 0.26323795 0.013625075
-0.13384964 -0.11721235 0.4682389 -0.24971083 0.33175606 -0.3522618 0.4354507 0.45526183
-0.20078996 -0.55778134 0.278871 -0.29671448 0.10950603 -0.3805945 -0.5058504 -0.17676528
0.12780744 -0.1964775 -0.06410315 -0.3147611 0.24721918 -0.37657875 -0.35388574 -0.6912319
-1.0030608 -0.59649324 0.53177637 -0.074921265 -0.086834334 -0.18963952 -0.55859685 -0.2736931
-0.55649096 -0.042632926 -0.6736329 -1.3595682 0.09572526 -0.5154143 0.4801474 -0.11886918
-0.1528456 0.33802357 0.5782731 -0.6821651 0.11057335 -0.24771166 -0.17300986 -0.18462726
-0.26942515 -0.43132618 -0.23693079 -0.3085534 -0.51323223 0.20814465 -0.15568185 -0.28070125
-0.7202822 0.08493721 0.071419686 -0.36067805 0.001608398 0.121036515 -0.07797612 -0.553028
-0.19357052 -0.07002998 -0.1625666 -0.33006248 -0.42247748 -0.652342 -0.5181241 0.94351006
-0.34145123 0.2886337 -0.26201627 -0.07148312 -0.9288639 -0.1797155 -0.44593933 -0.4617712
0.36403233 0.32000217 -0.61038 0.09756152 -0.07812247 0.02638874 -0.31830615 0.3854576
-0.055163033 -0.116767034 -0.32036516 0.046488237 0.24556643 -0.25644577 0.19801265 -0.65712947
-0.7767971 0.104755886 -0.56895113 -0.26021394 -0.5573304 0.088754505 -0.36358902 0.041934337
-0.93881565 -0.26150134 -0.47354448 -0.016586648 -0.6233995 0.19941577 -0.29144973 -0.63500464
-0.09679443 -0.40721536 -0.34754807 -0.6430861 -0.19891655 -0.12092209 -0.55717134 0.21440887
-0.1784748 0.27707863 0.12217635 0.5310777 0.3111965 -0.8734914 0.089587264 0.060100686
0.09897677 -1.4444058 -0.48753798 0.07371825 -0.74610656 0.073812194 -0.37939855 0.060508315

classifier.1.bias f4 [9]
00000000: 8f7f cabe 25bf 153f a063 e9bd cbb7 733e
00000010: e06b ae3f f824 f93e 4888 76bf 4caf c4bd
00000020: b2be 38bf
-0.39550444 0.5849479 -0.11395955 0.2380058 1.3626671 0.48661017 -0.963017 -0.09603748
-0.7216598
