models/TinyVGG_pneumoniaMNIST.pth (torch, 19850 bytes, 9 tensors)

conv_block_1.0.weight f4 [8, 1, 3, 3]
0	0x3e375ce9	0.17906536
1	0x3e31e7da	0.173736
2	0xbe620cd5	-0.22075208
3	0x3e63c9ad	0.22244902
4	0xbe3f8a93	-0.18705206
5	0xbdae9bdb	-0.08525821
6	0xbe567c53	-0.20945863
7	0x3df88325	0.12134389
8	0x3e3e9e97	0.18615185
9	0xbe34e0a0	-0.17663813
10	0x3ec103ac	0.37698114
11	0x3e13fe85	0.1445256
12	0x3e9ab6e5	0.30217662
13	0x3e001da6	0.1251131
14	0x3e6d64ae	0.23182938
15	0xbb8aa8b2	-0.004231536
16	0x3ea408ac	0.32037866
17	0x3dcd6118	0.10028285
18	0xbe1f5918	-0.1556133
19	0x3dae02b4	0.08496609
20	0xbe1d43c8	-0.15357888
21	0xbd201dd8	-0.03909096
22	0xbe0aa2a8	-0.13538611
23	0x3e626e3e	0.22112367
24	0xbe86b81c	-0.2631234
25	0xbe1d5bb3	-0.15367012
26	0xbdc0c490	-0.09412491
27	0xbea4e161	-0.322032
28	0xbd2c8fa6	-0.04212918
29	0xbecd1fc9	-0.40063313
30	0x3eb42099	0.3518112
31	0xbe3e51ac	-0.18585843
32	0x3eb66c6b	0.3562959
33	0x3e8b806c	0.27246416
34	0x3e03522a	0.12824312
35	0x3edfb701	0.43694308
36	0x3def1d58	0.11675519
37	0x3eafe407	0.3435366
38	0x3dae93d4	0.0852429
39	0xbd366463	-0.04452933
40	0x3e2a8e80	0.16655922
41	0xbd3c3e5a	-0.0459579
42	0x3e2d112d	0.16901083
43	0x3eaf193e	0.34198946
44	0x3e4fe66d	0.20302744
45	0xbde09bd1	-0.109672196
46	0x3e60c56c	0.2195031
47	0x3db410ad	0.08792243
48	0x3e2fc977	0.17166696
49	0xbe5b0bd0	-0.21391225
50	0xbeadcb69	-0.33944252
51	0xbde71a2e	-0.1128429
52	0xbe80f5fe	-0.25187677
53	0x3e8d9d10	0.27658892
54	0x3e821e09	0.2541354
55	0x3e7ce6f1	0.24697472
56	0x3e198950	0.14993787
57	0x3cf15c68	0.029463008
58	0x3e700cb8	0.23442352
59	0xbeaca19c	-0.33717048
60	0xbdb05a17	-0.08610933
61	0xbecaec59	-0.39633444
62	0xbe07131e	-0.13190886
63	0xbe2c4d79	-0.16826428
64	0x3d05036c	0.032473966
65	0xbe152a68	-0.14566958
66	0x3e6f7ac2	0.23386672
67	0xbe8278d1	-0.254828
68	0xbe893f90	-0.26806307
69	0xbe4b1d48	-0.19835389
70	0x3e943c13	0.28952083
71	0x3db05aa6	0.0861104

conv_block_1.0.bias f4 [8]
0	0x3eaac617	0.33354256
1	0xbeaa1df5	-0.3322598
2	0xbea947bb	-0.33062539
3	0xbe7d2898	-0.24722517
4	0xbea6204c	-0.32446516
5	0x3e8bb8a3	0.27289304
6	0x3e0e2f9c	0.13885349
7	0x3ec1aa78	0.3782537

conv_block_1.2.weight f4 [8, 8, 3, 3]
0	0xbe5074e8	-0.20357096
1	0xbdeb07f5	-0.11476127
2	0x3d4a6da4	0.049420968
3	0xbe062d46	-0.13103208
4	0x3ddab860	0.10679698
5	0x3c72d382	0.014820935
6	0x396b63b4	0.00022448489
7	0xbd9b7b6e	-0.07591902
8	0xbd33208a	-0.043732204
9	0xbcaa3e87	-0.020781768
10	0x3a86145b	0.0010229455
11	0xbd14e7c3	-0.036353838
12	0x3d3dc30a	0.046328582
13	0x3cda24b0	0.026628822
14	0xbd97bcb5	-0.0740904
15	0xbde4a345	-0.11163954
16	0x3d3e99a2	0.046533234
17	0xbd40fd63	-0.04711665
18	0xbd2b21ac	-0.04178016
19	0xbde989ac	-0.11403212
20	0xbd8a381c	-0.06748983
21	0x3cf12b6c	0.02943965
22	0xbc7edcb0	-0.015555546
23	0xbdaf32ff	-0.085546486
24	0x3b352ae0	0.0027643964
25	0xbda4de32	-0.08050193
26	0xbdccc4ad	-0.099984504
27	0x3d1edbd8	0.038783878
28	0x3c50e4c7	0.012749857
29	0xbdacfac2	-0.08446266
30	0xbdf17927	-0.11790686
31	0xbe82ac39	-0.2552202
32	0xbdf153f9	-0.11783595
33	0xbbe5e026	-0.007015246
34	0xbccb698c	-0.024830602
35	0x3e1bf67f	0.1523075
36	0xbd461150	-0.048356354
37	0xbe14cda0	-0.14531565
38	0xbdd75aea	-0.10515387
39	0xbdfcc589	-0.12342364
40	0xbd3868c3	-0.045021784
41	0xbd8b48dd	-0.06801007
42	0xbd78fef7	-0.06079003
43	0xbddd1ef8	-0.107969224
44	0xbdad083f	-0.084488384
45	0xbe7bb8b5	-0.24582179
46	0xbd825d4f	-0.063654535
47	0xbdd7ef6a	-0.105437115
48	0x3e44aff8	0.19207752
49	0x3e634791	0.22195269
50	0x3ead12b7	0.3380334
51	0x3d6d4ceb	0.057934683
52	0x3c32994a	0.010900805
53	0x3e5572c5	0.20844562
54	0xbe68657f	-0.22694968
55	0xbd3690d4	-0.044571713
56	0xbd58c108	-0.052918464
57	0xbd2ddaab	-0.042444866
58	0x3e53ce1e	0.20684096
59	0x3db21063	0.08694532
60	0xbe0f4fb9	-0.13995256
61	0xbe7e43e9	-0.24830593
62	0xbdea90ff	-0.11453437
63	0xbe7b5a57	-0.2454618
64	0xbd4a99e7	-0.04946318
65	0xbc81ec35	-0.015859703
66	0xbb8e4ce8	-0.004342664
67	0x3e3a3cb3	0.18187217
68	0x3e1f7d1e	0.15575072
69	0xbddfb76f	-0.10923659
70	0x3e07068b	0.1318609
71	0x3c431201	0.011906148
72	0xbd1bd4e0	-0.03804481
73	0xbde16355	-0.11005274
74	0x3daf2632	0.08552207
75	0xbe06ef0c	-0.13177127
76	0x3d2a0316	0.04150685
77	0x3d09e3ca	0.033664502
78	0xbc74ecad	-0.014949006
79	0xbdad7419	-0.084694095
80	0x3dcf8652	0.101330414
81	0x3e2b6c80	0.16740608
82	0x3e35d1be	0.17755792
83	0x3d299f12	0.041411467
84	0x3e252aa8	0.16129553
85	0x3de29d0a	0.11065109
86	0x3d4a90b0	0.04945439
87	0x3e3c03e4	0.18360859
88	0x3df553d5	0.1197888
89	0x3c82d84f	0.015972285
90	0xbd74528e	-0.059649043
91	0xbbb86ba0	-0.0056280643
92	0x3d86c3fd	0.065803505
93	0xbcf6b3a0	-0.030114949
94	0xbd89b6a4	-0.06724289
95	0xbd254dac	-0.040357277
96	0xbdb45036	-0.088043615
97	0x3d2c272a	0.042029537
98	0x3dbad259	0.09122152
99	0x3c4e5706	0.01259399
100	0x3e148897	0.1450523
101	0x3e1751dd	0.14777322
102	0x3e095d83	0.13414578
103	0x3d835383	0.06412413
104	0x3e64d092	0.22345188
105	0x3dc0a719	0.09406871
106	0x3e0a5ec8	0.13512719
107	0x3e251b58	0.16123712
108	0x3d9a8b0b	0.075460516
109	0x3e167a10	0.14695
110	0x3dcda97e	0.10042094
111	0x3cf941bf	0.030426858
112	0x3e2e8001	0.17041017
113	0x3e3824e8	0.17982829
114	0x3dad6993	0.08467402
115	0x3dbf9aaf	0.093556754
116	0x3df1a168	0.11798364
117	0xbe43227f	-0.19056128
118	0xbe68bacb	-0.22727506
119	0xbe246d77	-0.16057383
120	0xbe984642	-0.29741102
121	0xbe789c4a	-0.2427837
122	0xbcf0e0c1	-0.029404046
123	0xbd94b9d5	-0.07262007
124	0xbdbc0d0a	-0.091821745
125	0xbe17318c	-0.14764994
126	0xbe807009	-0.25085476
127	0xbe540fbd	-0.20709129
128	0xbcea7751	-0.028621348
129	0x3df4ebfb	0.11959072
130	0x3e92f68c	0.28703725
131	0x3e909c48	0.28244233
132	0xbe141f27	-0.14465009
133	0xbd203f62	-0.039122947
134	0xbc28186b	-0.010259728
135	0xbce52a62	-0.027974311
136	0xbe069078	-0.13141048
137	0xbe3755b7	-0.17903791
138	0xbe214894	-0.15750343
139	0xbe6ed88d	-0.23324795
140	0xbe6ffb70	-0.2343576
141	0xbd21c87c	-0.039497837
142	0xbe28b2e1	-0.16474487
143	0xbdd648ae	-0.10463081
144	0xbe085a9a	-0.13315812
145	0x3d727435	0.059192855
146	0x3d933ef6	0.07189743
147	0x3cdd7e1c	0.027037673
148	0xbdd25aad	-0.10271201
149	0xbe0b8c28	-0.13627684
150	0xbdc406dc	-0.09571621
151	0x3da57780	0.080794334
152	0x3d48e479	0.049046014
153	0x3daa8dfb	0.08327862
154	0x3d593ee7	0.053038504
155	0x3c6f314b	0.014599155
156	0xbc851c82	-0.016248945
157	0xbddd53b2	-0.10806979
158	0xbddfbd41	-0.10924769
159	0xbde1c142	-0.11023189
160	0x3d24b68b	0.04021315
161	0xbd8a9074	-0.067658335
162	0xbcc24bec	-0.023717843
163	0xbd8ae748	-0.06782395
164	0xbcafece0	-0.021475255
165	0xbda9e081	-0.08294774
166	0xbd9db534	-0.077005774
167	0x3d201f72	0.03909249
168	0xbd0f764e	-0.035024934
169	0x3d95005d	0.0727546
170	0xbd1adc38	-0.037807673
171	0xbdb10d9a	-0.086451724
172	0xbcaa5730	-0.020793527
173	0xbd69ff15	-0.05712803
174	0xbd13af00	-0.036055565
175	0xbde5c5d7	-0.112193756
176	0x3d8709c9	0.06593663
177	0xbda8090a	-0.08204849
178	0x3d729f6a	0.05923406
179	0x3d5b0cc6	0.05347898
180	0x3d8bf299	0.06833381
181	0xbddc3746	-0.1075273
182	0x3d8ac770	0.06776321
183	0xbd92460e	-0.07142268
184	0x3cb4649a	0.022020627
185	0x3db055fb	0.086101495
186	0xbc882844	-0.016620763
187	0xbc085017	-0.008319876
188	0xbd0ed199	-0.034867857
189	0xbde801b6	-0.11328451
190	0x3d70f9e4	0.058832064
191	0xbe0168bc	-0.12637609
192	0x3d6abdf8	0.057310075
193	0x3d9eb4a7	0.077493005
194	0x3dc1f423	0.094703935
195	0xbce3ba08	-0.027798668
196	0xbdd21c04	-0.1025925
197	0x3caf6a8b	0.021413108
198	0x3d49d254	0.04927285
199	0xbe058931	-0.13040616
200	0xbd2b7f01	-0.041869167
201	0xbdb12ff5	-0.08651725
202	0xbce2daa1	-0.027692141
203	0xbd9e32ab	-0.07724508
204	0xbd4551ce	-0.04817372
205	0xbd329d3c	-0.04360698
206	0xbdf40da3	-0.119166635
207	0x3da5a506	0.08088116
208	0x3da5faa7	0.08104449
209	0xbd13eee5	-0.0361165
210	0xbcefa5b8	-0.029253826
211	0xbd8bfd1b	-0.068353854
212	0xbe020c79	-0.1270007
213	0xbdeae095	-0.11468617
214	0x3d16aa6d	0.036783624
215	0xbd91914f	-0.071077935
216	0xbe99fe84	-0.30076993
217	0x3c6317d8	0.013860665
218	0x3c02c106	0.007980591
219	0xbe63ae87	-0.22234546
220	0x3d0d8b3a	0.034556605
221	0x3d17d2c7	0.037066247
222	0xbe52b632	-0.20577314
223	0xbc9125f5	-0.017718295
224	0xbd17ee53	-0.037092518
225	0xbddffa33	-0.109363936
226	0x3e0da47c	0.13832277
227	0x3e5f0392	0.21778706
228	0xbe66f760	-0.22555304
229	0x3e7d0310	0.247082
230	0x3eb37b4e	0.35055012
231	0xbde3b678	-0.111187875
232	0x3e0986d0	0.13430333
233	0x3e8e2af8	0.27767158
234	0x3de51bc1	0.11186934
235	0x3cfdfd84	0.031004675
236	0x3da1d029	0.079010315
237	0x3dedf3f3	0.11618795
238	0xbc93eed0	-0.01805821
239	0x3cc86174	0.024460532
240	0xbda7c0c8	-0.08191067
241	0xbcc6f450	-0.02428642
242	0x3db2bf25	0.08727864
243	0xbe173f8f	-0.1477034
244	0xbe56dd42	-0.2098284
245	0x3d47a5f1	0.04874224
246	0xbd0ef8a4	-0.03490509
247	0x3cf93cb7	0.030424459
248	0x3e9f9c7f	0.31174085
249	0x3e22e5e3	0.15908007
250	0x3e66b23a	0.22528926
251	0x3ee8ce3d	0.45469847
252	0xbe94e010	-0.29077196
253	0x3d99057c	0.07471749
254	0x3e7a2bf7	0.24430834
255	0xbe83706c	-0.2567171

conv_block_1.2.bias f4 [8]
0	0x3ccd0d08	0.025030628
1	0xbe4281f7	-0.1899489
2	0xbd1d2c9c	-0.03837262
3	0x3d0ca10a	0.034333266
4	0xbdc259e8	-0.094898045
5	0x3dd87731	0.10569609
6	0xbe0a8f74	-0.13531286
7	0x3e28c9df	0.16483258

conv_block_2.0.weight f4 [8, 8, 3, 3]
0	0xbe269f7d	-0.16271777
1	0xbe12dd2b	-0.14342181
2	0xbdbfd09e	-0.093659624
3	0x3cc5bf1a	0.024138976
4	0x3d5c9bb7	0.05385944
5	0xbe878776	-0.26470536
6	0xbc99349a	-0.01870184
7	0xbc8b171a	-0.01697879
8	0x3c8ca6e3	0.017169422
9	0x3e2c08c4	0.16800219
10	0x3cbd49e8	0.02310653
11	0x3e793bd6	0.24339232
12	0xbd9f63c2	-0.07782699
13	0xbddd2796	-0.10798566
14	0xbde864a8	-0.11347324
15	0xbc8aa3c6	-0.016923796
16	0x3d43ce9d	0.047804464
17	0x3bf1ef0f	0.0073832343
18	0xbd894424	-0.0670245
19	0x3d11b2ab	0.03557078
20	0xbd1ac7e8	-0.0377883
21	0x3dea23c8	0.11432606
22	0xbdbad33b	-0.0912232
23	0xbccb2777	-0.024799092
24	0xbdfb72dd	-0.12277768
25	0xbd601f82	-0.05471755
26	0x3cf7362a	0.030177195
27	0x3e382fb4	0.17986947
28	0xbbce4e91	-0.006295987
29	0x3e2b6643	0.16738228
30	0xbdd33646	-0.10313086
31	0xbdf744da	-0.12073679
32	0x3ce1d0d6	0.027565401
33	0x3ddb37f9	0.10704035
34	0xbe41b5f2	-0.18917063
35	0xbc68b4bc	-0.014203247
36	0x3d9234ff	0.071390145
37	0xbd61b57c	-0.055104718
38	0xbd665ad2	-0.056238957
39	0xbdca70a7	-0.09884768
40	0x3cf27028	0.029594496
41	0xbdc3a225	-0.09552411
42	0x3d4be97e	0.049783222
43	0x3d1870fa	0.037217118
44	0xbdd1b17e	-0.10238932
45	0x3c08e1e3	0.008354637
46	0xbe4b5303	-0.19855885
47	0xbe93c0c7	-0.28858015
48	0x3efe617e	0.49683756
49	0x3e276dac	0.1635043
50	0x3e465371	0.19367768
51	0x3f367b53	0.7128193
52	0x3edeca25	0.435136
53	0xbd44066b	-0.047857683
54	0xbd2c6fde	-0.042098872
55	0xbd0be562	-0.034154303
56	0xbcf81d7c	-0.030287497
57	0x3d881ba5	0.06645898
58	0x3d2f808e	0.04284721
59	0x3dbf331d	0.09335921
60	0xbd34ca06	-0.044137977
61	0x3d227432	0.039661594
62	0x3d2bbfb2	0.04193086
63	0xbe742357	-0.23841606
64	0xbee35684	-0.44401944
65	0xbedee181	-0.4353142
66	0x3ed6e49b	0.41971287
67	0x3e275ffc	0.16345209
68	0x3d91b687	0.071148925
69	0x3f34038c	0.7031791
70	0x3f103722	0.56334126
71	0x3e94afbe	0.2904033
72	0xbe0096a7	-0.1255747
73	0xbd82e407	-0.06391149
74	0x3d6c829b	0.057741743
75	0x3ecd5ea2	0.40111262
76	0x3e8148b3	0.25250778
77	0xbdb34cc9	-0.0875488
78	0x3d86cc5e	0.06581949
79	0x3d035c1a	0.032070257
80	0xbe1affba	-0.15136614
81	0xbe1bf00b	-0.15228288
82	0xbe5b51e0	-0.21417952
83	0xbe9ccbc2	-0.30624205
84	0xbdd44e7e	-0.10366534
85	0x3da4d701	0.08048821
86	0x3d3f01f7	0.046632733
87	0x3e053115	0.13007005
88	0x3da8ddc5	0.08245424
89	0x3e0828fa	0.13296881
90	0x3ddd7256	0.108128235
91	0xbd8d769a	-0.06907387
92	0x3a72e500	0.0009265691
93	0x3d364525	0.044499535
94	0xbdc08211	-0.09399808
95	0x3dea6703	0.11445429
96	0xbd6131e2	-0.054979213
97	0xbd266410	-0.04062277
98	0xbd029bf4	-0.03188701
99	0xbf15bf72	-0.5849525
100	0xbef007e8	-0.46881032
101	0x3da64def	0.081203334
102	0xbe43c4e1	-0.19118072
103	0xbe7745af	-0.24147676
104	0x3c625956	0.013815245
105	0x3d9d5181	0.07681561
106	0x3b44ff74	0.0030059488
107	0x3e5df2e2	0.21674684
108	0xbd90679a	-0.070510104
109	0xbd6b30cd	-0.057419587
110	0xbc91bc94	-0.017790116
111	0xbcb0924f	-0.02155414
112	0xbd995d94	-0.07488552
113	0x3c1f09c0	0.009706914
114	0x3c3fe7d8	0.011712991
115	0xbc15f403	-0.009152415
116	0x3c85d71c	0.016337924
117	0x3c842ace	0.016133692
118	0x3e9a41b7	0.3012826
119	0x3e87026b	0.26369032
120	0x3e290376	0.16505226
121	0x3e88c12c	0.26709878
122	0x3ea74847	0.3267233
123	0xbd929e57	-0.07159107
124	0xbd41a25b	-0.047273975
125	0x3db1c94a	0.08680971
126	0xbd5a4ef0	-0.053297937
127	0x3da318ff	0.07963752
128	0x3d76c82a	0.060249485
129	0xbde991b7	-0.11404746
130	0x3d79b95a	0.06096778
131	0xbdfcb046	-0.12338309
132	0xbd85b76c	-0.065291256
133	0xbca0f3e0	-0.019647539
134	0xbda2aff1	-0.079437144
135	0x3dc109f5	0.09425727
136	0x3e5bcef6	0.21465668
137	0x3e730f99	0.23736419
138	0x3dbc8e8f	0.092068784
139	0x3ec196f0	0.3781047
140	0x3e4eb15f	0.20184849
141	0xbe5da01e	-0.21643111
142	0xbbcf5d13	-0.006328234
143	0x3b2b317d	0.0026122027
144	0x3dbca9c9	0.092120714
145	0xbcfb23fb	-0.030656805
146	0xbd58b157	-0.0529035
147	0x3e83c77e	0.25738138
148	0x3e067318	0.13129842
149	0xbce175e1	-0.02752203
150	0x3d762e83	0.06010295
151	0xbdb26246	-0.087101504
152	0xbd35f459	-0.04442248
153	0x3e06f211	0.13178279
154	0xbda033cf	-0.07822382
155	0x3daa6d32	0.083216086
156	0x3d9700f3	0.07373228
157	0x3d878930	0.06617963
158	0xbda149d6	-0.07875411
159	0xbc0fb9dc	-0.00877234
160	0xbce79cbf	-0.028272985
161	0x3c5fe896	0.013666293
162	0x3d8fda8c	0.070241064
163	0xbd9742b2	-0.07385768
164	0x3d71acc2	0.059002645
165	0xbd37642e	-0.044773273
166	0x3d69fd7f	0.05712652
167	0x3bdfaf50	0.006826319
168	0xbdac0bf7	-0.084007196
169	0xbd608412	-0.054813452
170	0xbd93c8cb	-0.072160326
171	0xb9376cc8	-0.00017492764
172	0xbd841402	-0.06449129
173	0x3e31e060	0.17370749
174	0xbd6135bc	-0.054982886
175	0xbde4352b	-0.111429535
176	0x3e3796f0	0.17928672
177	0xbe1df8bb	-0.15426914
178	0xbdcb8803	-0.099380516
179	0x3e6a9c33	0.22911148
180	0xbcf5276e	-0.029926028
181	0xbd182ae8	-0.037150294
182	0x3c8a3a2a	0.016873438
183	0xbc85b345	-0.016320834
184	0x3d4b86dc	0.04968916
185	0x3ddd4652	0.10804428
186	0x3d15b4ef	0.036549505
187	0xbd554f74	-0.052077726
188	0xbde20155	-0.1103541
189	0x3d165f41	0.036711935
190	0x3e2b0b2f	0.16703485
191	0x3e874131	0.26416925
192	0x3ea716d1	0.32634595
193	0x3ecb29fb	0.39680466
194	0x3eb60d78	0.3555715
195	0xbd1e6d42	-0.038678415
196	0xbdfb7eba	-0.122800305
197	0xbe80d059	-0.25158957
198	0x3db98019	0.09057636
199	0xbd90374a	-0.070417956
200	0xbd8eb203	-0.06967547
201	0x3dad73cc	0.08469352
202	0x3d9e83e5	0.07740001
203	0x3cb1add5	0.021689335
204	0x3bf211b0	0.0073873624
205	0xbdcb05e7	-0.09913235
206	0xbc486eb8	-0.012233429
207	0x3e2d8ae8	0.1694752
208	0x3eb18a95	0.34676042
209	0x3e9429c3	0.28938112
210	0x3e8e807d	0.27832404
211	0x3ed7ce28	0.42149472
212	0x3ee14d48	0.44004273
213	0xbe2b193e	-0.16708848
214	0x3be1b4ca	0.006888007
215	0xbe31eba7	-0.1737505
216	0x3d213977	0.039361443
217	0x3d152c46	0.036419176
218	0x3bdca536	0.006733562
219	0x3d7c63f4	0.06161876
220	0x3d426b3b	0.047465544
221	0x3d9b9bb1	0.07598055
222	0x3db98d13	0.09060111
223	0xbcf6dbe0	-0.030134141
224	0xbdcc56ea	-0.09977515
225	0x3c155841	0.00911528
226	0xbd506a01	-0.050882343
227	0xbda7da82	-0.08195974
228	0xbd03ad40	-0.032147646
229	0xbd5d9e1f	-0.054105874
230	0x3cacaebf	0.02107942
231	0x3d167bb2	0.03673906
232	0xbdb7fcc1	-0.08983756
233	0xbdd370cc	-0.10324249
234	0xbcef1284	-0.029183634
235	0xbd3a9270	-0.04554981
236	0x3dd9091f	0.10597443
237	0x3d7fab62	0.062419303
238	0x3dd9f101	0.10641671
239	0x39c55400	0.00037637353
240	0x3cc2b34c	0.023767136
241	0x3d2763be	0.040866606
242	0xbde47590	-0.11155236
243	0x3c2c6b98	0.010523699
244	0xbd326489	-0.04355291
245	0xbdd5b6c5	-0.10435251
246	0xbdbb482f	-0.09144627
247	0x3d77a34a	0.06045846
248	0x3d7b5f18	0.061369985
249	0x3d5fb98a	0.054620303
250	0x3d8bf9c6	0.0683475
251	0xbdc76027	-0.097351365
252	0xbca6c0b8	-0.020355567
253	0x3d36c41e	0.044620626
254	0xbc9f8408	-0.019472137
255	0xbcbd73c8	-0.023126498

conv_block_2.0.bias f4 [8]
0	0x3dbc986e	0.09208761
1	0x3cb9e87b	0.022693863
2	0xbd3c4749	-0.04596642
3	0xbdab2b70	-0.083578944
4	0x3e1d956c	0.15389031
5	0x3c50666d	0.012719733
6	0xbe254452	-0.16139343
7	0x3d53ed58	0.05174002

conv_block_2.2.weight f4 [8, 8, 3, 3]
0	0xbe972e7d	-0.29527655
1	0xbe08a3e0	-0.13343763
2	0xbd980940	-0.07423639
3	0xbeb62bcd	-0.35580292
4	0xbe63af5b	-0.22234862
5	0xbe3d51ce	-0.18488237
6	0xbe6dfc48	-0.23240769
7	0x3d5556e5	0.052084822
8	0x3d631a5f	0.05544507
9	0x3e51bd73	0.20482425
10	0xbe094ab9	-0.1340741
11	0xbee034ef	-0.43790385
12	0x3cbfd8a1	0.023418726
13	0xbd285a0a	-0.041101493
14	0xbe866911	-0.26252034
15	0xbea0b9a0	-0.3139162
16	0xbde22afe	-0.11043356
17	0x3cea110b	0.02857258
18	0x3da1f0a1	0.079072244
19	0xbbc16933	-0.0059024333
20	0xbe9f7fd5	-0.31152216
21	0xbcea999f	-0.028637705
22	0xbbfb2dbe	-0.007665365
23	0xbe07d88f	-0.13266204
24	0xba6a68b7	-0.00089419953
25	0x3dc7e32b	0.09760126
26	0xbd867ede	-0.06567167
27	0x3da74405	0.081672706
28	0x3dbbbf2e	0.09167324
29	0x3d8519fd	0.064990975
30	0x3c06eac5	0.008234684
31	0x3cfd7153	0.030937826
32	0xbdaea286	-0.08527093
33	0xbcc44748	-0.02395977
34	0x3d260ae9	0.04053775
35	0xbd7754bd	-0.060383547
36	0xbe40ca35	-0.18827136
37	0x3d3bad79	0.045819733
38	0x3e372740	0.17886066
39	0xbd9be90c	-0.076128095
40	0x3e1d4e60	0.15361929
41	0x3e7c8ea5	0.2466379
42	0x3e5b0ca0	0.21391535
43	0x3e206bb8	0.15666091
44	0x3e65d55b	0.2244467
45	0x3e206928	0.15665114
46	0x3e77d7a8	0.2420336
47	0xbe4bd427	-0.19905148
48	0xbd0689d0	-0.032846272
49	0xbe235a7a	-0.15952483
50	0xbe50f53c	-0.2040605
51	0xbdc0969c	-0.094037265
52	0xbe4b43b6	-0.19850048
53	0xbe41c092	-0.18921116
54	0xbe0e9a4b	-0.13926046
55	0x3d4aa9c2	0.0494783
56	0xbe9277fe	-0.28607172
57	0x3e50ddac	0.20397061
58	0x3e92a136	0.2863862
59	0xbe230d18	-0.15922964
60	0x3eb957bf	0.36199757
61	0x3ead7dd4	0.33885062
62	0x3dc48d62	0.09597279
63	0x3e9517a3	0.29119596
64	0x3d4f5a13	0.05062301
65	0xbea8ee39	-0.3299425
66	0x3e2466b4	0.16054803
67	0xbdf2966b	-0.11845096
68	0xbe854dba	-0.26035863
69	0xbd9bebd6	-0.076133415
70	0xbe86a836	-0.2630021
71	0xbe05ce3e	-0.13066956
72	0xbe142575	-0.14467414
73	0xbce79130	-0.028267473
74	0xbd80d0d7	-0.06289833
75	0xbd86053f	-0.06543969
76	0xbe327a8e	-0.17429563
77	0xbe4ebef9	-0.20190038
78	0xbc8a6e4a	-0.016898293
79	0x3d0ac539	0.033879492
80	0xbe24be2e	-0.16088173
81	0xbbd7f2d5	-0.006590227
82	0xbd898929	-0.06715614
83	0x3cd77843	0.026302462
84	0x3daf95d4	0.08573499
85	0x3d9aaee5	0.0755289
86	0xbdc6e469	-0.097115345
87	0x3c2ccf7c	0.010547515
88	0x3c1e9d9d	0.009681133
89	0xbd956787	-0.07295137
90	0x3d895e6b	0.06707462
91	0xbd3d6800	-0.04624176
92	0xbc036107	-0.008018739
93	0xbde62f39	-0.11239476
94	0xbb34f99d	-0.0027614601
95	0x3d0a7e9c	0.03381215
96	0xbdaa6892	-0.083207265
97	0xbe18473f	-0.14870928
98	0xbdff5375	-0.1246709
99	0x3d2dac35	0.042400558
100	0xbdeba2bf	-0.11505651
101	0xbc965a10	-0.018353492
102	0xbb1c4c6f	-0.002384927
103	0xbd46fd9b	-0.0485817
104	0x3d2fab7e	0.042888157
105	0x3c04f3cf	0.008114769
106	0x3d9e83d0	0.07739985
107	0xbc2b7bd8	-0.010466538
108	0xbdfe5384	-0.12418273
109	0x3d1808ab	0.03711764
110	0xbd200d09	-0.03907493
111	0xbd999c24	-0.075004846
112	0xbe0de637	-0.13857351
113	0xbcf12400	-0.029436111
114	0xbe1191fb	-0.14215843
115	0xbcbfa644	-0.023394711
116	0x3ce86917	0.028370423
117	0xbe20b060	-0.15692282
118	0xbe00832f	-0.12550043
119	0xbdc0e366	-0.09418373
120	0x3ca61f29	0.02027853
121	0x3d6410cc	0.05568008
122	0x3d1fd904	0.03902532
123	0x3cbecc65	0.023290822
124	0xbdf05289	-0.11734492
125	0xbe0b3572	-0.13594607
126	0x3d13380b	0.03594212
127	0x3c0a2ca3	0.008433494
128	0x3d99ef43	0.07516339
129	0xbb960589	-0.0045782966
130	0x3d6260d6	0.05526813
131	0x3cf2095e	0.029545482
132	0x3d82974b	0.06376513
133	0xbe171a32	-0.14756086
134	0x3dac5afc	0.084157914
135	0xbe1c0ee2	-0.15240052
136	0x3d96f738	0.07371372
137	0x3c81071b	0.015750458
138	0xbe3b3b46	-0.1828433
139	0x3c697404	0.014248852
140	0xbc834155	-0.016022364
141	0xbe4d860f	-0.2007067
142	0xbde7645b	-0.11298438
143	0xbd425b1f	-0.04745018
144	0x3d2f30aa	0.04277102
145	0xbe6f809e	-0.23388907
146	0x3e182bcf	0.14860462
147	0xbdc15e89	-0.09441859
148	0xbe9a6750	-0.30156946
149	0xbe4c728f	-0.19965576
150	0xbe7e5ea8	-0.24840796
151	0xbe77a7eb	-0.2418515
152	0xbc8e51d1	-0.017372997
153	0xbe2af540	-0.16695118
154	0xbe2de5df	-0.1698222
155	0xbd2ea1c8	-0.042634755
156	0xbe5cee66	-0.21575317
157	0xbde31535	-0.11088029
158	0x3d253ef5	0.040343244
159	0xbe9df60b	-0.30851778
160	0xbe9473b2	-0.2899452
161	0xbc2a74bd	-0.010403809
162	0x3ceadb84	0.028669126
163	0xbd274b7c	-0.040843472
164	0xbd878d8e	-0.06618796
165	0xbd82abd9	-0.063804336
166	0xbd2e3ac6	-0.04253652
167	0xbcfcbe96	-0.030852597
168	0xbe0d1157	-0.13776146
169	0xbc9702b4	-0.018433906
170	0xbd8376c0	-0.06419134
171	0x3d3b48ca	0.045723714
172	0x3cc49d15	0.024000684
173	0x3db4a113	0.08819785
174	0xbb7e9bc0	-0.0038850158
175	0xbd9ebb2c	-0.07750544
176	0x3d57c786	0.052680515
177	0xbd93d94b	-0.0721918
178	0x3caa6e7e	0.02080464
179	0xbd007bc5	-0.031368036
180	0xbe08b3a7	-0.13349782
181	0xbd4f33a1	-0.050586347
182	0x3e40bbd6	0.18821654
183	0x3d819d8c	0.06328878
184	0x3dee8c77	0.11647885
185	0x3e8ecfd0	0.27892923
186	0xbdba67ed	-0.091018535
187	0x3dbb4c7e	0.09145449
188	0x3e71636e	0.23573086
189	0x3e505af5	0.20347197
190	0xbce8e037	-0.028427226
191	0xbdbfd2a6	-0.0936635
192	0xbc9025fb	-0.017596235
193	0xbe0de5ce	-0.13857195
194	0xbe993a77	-0.29927418
195	0xbe58100d	-0.21099873
196	0xbe509730	-0.20370173
197	0xbe9cd1bf	-0.30628774
198	0xbce7cf6b	-0.028297147
199	0x3e107e15	0.14110596
200	0xbeb3339c	-0.35000312
201	0x3de2c75b	0.1107318
202	0x3e758820	0.23977709
203	0xbe440bbc	-0.19145101
204	0x3eb494a2	0.35269648
205	0x3effd822	0.49969584
206	0x3dfe866f	0.12427985
207	0xbd1812db	-0.037127357
208	0xbc654c84	-0.0139952935
209	0xbd3b2337	-0.04568788
210	0x3dd62225	0.10455731
211	0xbe325d97	-0.17418514
212	0xbe59ae77	-0.2125796
213	0xbd84ce94	-0.06484714
214	0xbe4a5977	-0.1976069
215	0xbe859407	-0.26089498
216	0xbd76f93b	-0.06029628
217	0xbe08126f	-0.13288282
218	0x3d211db0	0.039334953
219	0xbd423e33	-0.0474226
220	0xbc0b85d7	-0.008515797
221	0x3d921a16	0.07133882
222	0x3bba3728	0.0056828447
223	0xbd11ca6a	-0.035593428
224	0xbcedee83	-0.029044395
225	0x3d9749ec	0.07387146
226	0xbe26e6f1	-0.16299035
227	0xbd26d392	-0.040729113
228	0xbd301c54	-0.042995766
229	0x3c4e5c8b	0.012595306
230	0xbd84fc71	-0.06493462
231	0xbd8e92f1	-0.069616206
232	0xbda71bd5	-0.081596054
233	0x3b98d5fc	0.004664181
234	0xbdd19018	-0.10232562
235	0xbe0f9afe	-0.14023969
236	0xbdf1f6de	-0.11814664
237	0xbdbc9b71	-0.092093356
238	0xbcacb3b1	-0.021081777
239	0x3cb74490	0.02237156
240	0xbd89fb1d	-0.06737349
241	0x3d311367	0.043231394
242	0xbdd45fe9	-0.10369856
243	0xbd8770e1	-0.06613327
244	0xbd581c2e	-0.05276125
245	0xbda64a2e	-0.081196174
246	0xbda92d40	-0.08260584
247	0xbdd70e02	-0.10500719
248	0xbdd5e95d	-0.10444901
249	0x3cfbfa44	0.030758984
250	0x3d93319f	0.07187199
251	0x3de2996f	0.110644214
252	0x3d306fc6	0.043075345
253	0xbd82b4a5	-0.063821115
254	0xbbc098d7	-0.005877595
255	0xbe04ef56	-0.12981924

conv_block_2.2.bias f4 [8]
0	0x3da5a104	0.08087352
1	0xbde41c48	-0.11138207
2	0x3d97086c	0.07374653
3	0xbe4d37cb	-0.20040815
4	0x3d18a005	0.03726198
5	0x3e951636	0.29118508
6	0xbd368054	-0.044555977
7	0xbcff803a	-0.031189073

classifier.1.weight f4 [1, 2048]
0	0xbdbf1773	-0.093306445
1	0xbe0e11ed	-0.13874026
2	0xbea33252	-0.3187433
3	0x3d7973c4	0.06090142
4	0x3d768a2a	0.060190357
5	0xbd965aa1	-0.07341505
6	0xbe38ea3f	-0.18058108
7	0xbd43b408	-0.047779113
8	0xbe0d1647	-0.1377803
9	0xbcc67670	-0.024226397
10	0xbd8d1d69	-0.06890375
11	0xbcf4ed90	-0.029898435
12	0x3e989d7c	0.2980765
13	0x3f0c4c66	0.54804075
14	0x3dfdd07a	0.123932794
15	0x3ce8a642	0.02839959
16	0x3dc8725b	0.097874366
17	0x3e8b340c	0.27188146
18	0x3e05f88f	0.13083099
19	0xbdc579b1	-0.096423514
20	0xbc8bf9b1	-0.017086836
21	0x3d8439ec	0.0645636
22	0xbd871467	-0.06595688
23	0x3e13f7ed	0.14450045
24	0xbd4899f5	-0.04897495
25	0xbdaafd32	-0.083490744
26	0xbe3327d8	-0.17495668
27	0xbe81d279	-0.2535589
28	0xbe3cf08c	-0.18451136
29	0xbd2c2d2f	-0.042035278
30	0xbd6b2b9f	-0.057414647
31	0x3d1527e3	0.036414992
32	0x3aa43839	0.0012528963
33	0x3de44bc1	0.111472614
34	0x3e1b0e9f	0.15142296
35	0xbd465b9f	-0.04842722
36	0xbc18b157	-0.009319625
37	0x3d21e710	0.039527
38	0x3ddfc4f2	0.10926236
39	0x3e0d4d89	0.13799109
40	0x3dc8ceb7	0.09805053
41	0x3ce6a0c1	0.028152825
42	0xbb8a6f9a	-0.0042247297
43	0x3db8c817	0.09022539
44	0x3e02fa87	0.12790881
45	0x3e17f507	0.14839564
46	0x3dcefb9d	0.10106585
47	0x3c772a28	0.015085734
48	0xbd15a046	-0.0365298
49	0xbd2cf476	-0.042225324
50	0x3dc689e1	0.09694267
51	0xbbeb1f7b	-0.0071753836
52	0xbe35acff	-0.17741774
53	0xbe3714e4	-0.17879063
54	0x3e437c11	0.19090296
55	0x3db78d3b	0.089624844
56	0x3dde2275	0.10846416
57	0x3e1653c2	0.14680389
58	0x3de73565	0.11289481
59	0x3e0199d7	0.12656341
60	0x3dbdf482	0.09275152
61	0xbd6f5471	-0.05843014
62	0xbc1c7619	-0.009549641
63	0xbe082e28	-0.13298857
64	0xbd00e096	-0.03146418
65	0xbd702db8	-0.05863735
66	0xbdeb2230	-0.1148113
67	0xbe2b6558	-0.16737878
68	0xbc8bc081	-0.017059566
69	0xbe2508ca	-0.16116634
70	0x3de55b85	0.111990966
71	0x3d309bae	0.043117218
72	0x3da42d49	0.0801645
73	0x3df1dc8b	0.11809643
74	0x3d6d3d3a	0.05791972
75	0xbe985d37	-0.29758617
76	0xbdd62c46	-0.10457663
77	0xbe2dfa03	-0.16989903
78	0xbd9655ca	-0.07340582
79	0xbe6bbd13	-0.23021345
80	0x3d0775c0	0.03307128
81	0x3d8a2698	0.067456424
82	0xbe156a2e	-0.14591286
83	0xbe06e7a0	-0.13174295
84	0x3e51dcf0	0.20494437
85	0x3cc2f8aa	0.023800213
86	0x3d91143b	0.07083937
87	0xbcf1dc6d	-0.029524053
88	0x3c5bfa52	0.01342638
89	0xbd8964e6	-0.06708698
90	0x3e3d30b6	0.18475613
91	0x3e0d4ae8	0.13798106
92	0xbe444f6a	-0.19170919
93	0xbd9670d5	-0.0734574
94	0xbd73d69a	-0.059530832
95	0xbe0734da	-0.13203755
96	0xbd537908	-0.051629096
97	0xbde7fb30	-0.11327207
98	0x3d4fee66	0.050764464
99	0x3cc90c1c	0.024541907
100	0x3e418fbd	0.18902488
101	0xbe383da0	-0.17992258
102	0xbda82081	-0.08209325
103	0xbd05c279	-0.032656167
104	0x3dc3b2b4	0.09555569
105	0xbc95f4fc	-0.018305294
106	0xbd0c70e7	-0.03428736
107	0x3e117354	0.1420415
108	0x3d83c7b0	0.06434572
109	0x3cd75a6e	0.026288237
110	0x3d8f4e59	0.069973655
111	0xbe0fdcb2	-0.14049032
112	0xbe196d76	-0.14983162
113	0xbe22bd79	-0.1589259
114	0x3d22bdb8	0.03973171
115	0x3ee795f9	0.45231608
116	0xbdbaaf10	-0.09115422
117	0x3df24ff6	0.118316576
118	0xbd9e8b74	-0.07741442
119	0x3c11791d	0.008878973
120	0x3d8c2900	0.06843758
121	0x3d9861b8	0.07440513
122	0xbdba4abd	-0.090962864
123	0xbc5243e6	-0.012833571
124	0x3e841258	0.25795245
125	0x3cdd766f	0.027034013
126	0x3cf2d884	0.029644258
127	0x3c01bf11	0.007919089
128	0xbe27f233	-0.16400985
129	0xbe196bdf	-0.14982556
130	0xbd26555e	-0.040608756
131	0x3df55490	0.1197902
132	0xbe056638	-0.13027275
133	0x3e763b1d	0.24045987
134	0xbda88aef	-0.082296245
135	0x3d3323b1	0.04373521
136	0x3d5bb127	0.053635743
137	0x3df75487	0.12076669
138	0xbd5164f5	-0.05112167
139	0xbcff2956	-0.03114764
140	0xbe3c48ca	-0.18387142
141	0x3dd8d2bd	0.1058707
142	0xbdab90b9	-0.08377213
143	0xbdcbf63e	-0.09959076
144	0xbcacbc7f	-0.021085976
145	0xbe16def6	-0.1473349
146	0xba889568	-0.0010420503
147	0x3e4144b4	0.18873864
148	0x3ebb2447	0.36551115
149	0x3e06f9c0	0.1318121
150	0xbd8d37fd	-0.068954445
151	0x3cb38c2d	0.021917427
152	0x3c633146	0.013866728
153	0x3d79b2b4	0.06096144
154	0x3d88a240	0.06671572
155	0xbddc77dc	-0.10765049
156	0xbd6b68d0	-0.057473004
157	0x3b481b36	0.0030533797
158	0xbe2650da	-0.1624178
159	0xbbe8c3e1	-0.0071034287
160	0x3e18bd43	0.14915948
161	0xbe96e836	-0.29474038
162	0xbe028b3b	-0.12748425
163	0x3df1840f	0.11792766
164	0x3e818d53	0.25303134
165	0x3db0d9b8	0.086352766
166	0xbd1274b4	-0.035755828
167	0x3d5bb3e9	0.053638373
168	0xbceeb167	-0.029137326
169	0x3a8fcf3d	0.0010971796
170	0x3dad8349	0.08472306
171	0x3db51659	0.08842153
172	0x3e053189	0.13007177
173	0x3e532ac9	0.2062179
174	0xbd7438d1	-0.059624497
175	0x3e633b5b	0.22190611
176	0x3de75353	0.1129519
177	0xbc8df260	-0.017327487
178	0xbe5854f6	-0.2112616
179	0xbe2542ce	-0.16138765
180	0xbe147a13	-0.14499693
181	0x3eb0ed54	0.34556067
182	0x3d7a8725	0.06116404
183	0x3d720800	0.05908966
184	0xbd316c64	-0.04331626
185	0x3b0ee571	0.0021804238
186	0x3e05a76a	0.13052145
187	0x3e8e8ca0	0.27841663
188	0x3e34e92f	0.17667077
189	0x3ec1dce3	0.37863836
190	0x3d843e0a	0.064571455
191	0x3e88be2d	0.26707593
192	0x3dc1568b	0.09440335
193	0xbd5f9956	-0.054589592
194	0xbe0007d7	-0.1250299
195	0xbe1487c5	-0.14504917
196	0x3d98b9fd	0.074573494
197	0x3e5e4ab4	0.21708184
198	0x3c97e55f	0.01854199
199	0x3ce6b250	0.028161198
200	0xbd2ae9bc	-0.041726813
201	0x3ce2500f	0.027626066
202	0x3c9a2a3b	0.018818965
203	0x3ce95fce	0.028488066
204	0xbdce06de	-0.100599036
205	0xbe9517e4	-0.2911979
206	0xbdf6e13e	-0.1205468
207	0xbc1327d6	-0.008981666
208	0x3d7d9a11	0.061914507
209	0x3da02573	0.07819643
210	0xbdb2d79b	-0.0873253
211	0xbda70281	-0.081547745
212	0xbcd71fdd	-0.02626031
213	0xbc9e672e	-0.01933631
214	0xbbd2aaba	-0.0064290436
215	0x3b4298a4	0.0029693032
216	0xbd86089b	-0.0654461
217	0xbd16a4e7	-0.036778357
218	0xbc86f1fd	-0.01647281
219	0x3cae7e7d	0.021300549
220	0xbcf761c8	-0.030197993
221	0xbd75edbd	-0.060041178
222	0x3d63e4f6	0.055638276
223	0xbe0ad7fb	-0.13558953
224	0x3db2204b	0.08697566
225	0x3d70a38a	0.058749713
226	0xbd8a7c36	-0.067619726
227	0xbe379e82	-0.1793156
228	0xbdd6a24c	-0.104801744
229	0xbdb8d473	-0.090248965
230	0xbd807884	-0.062729865
231	0xbda2253d	-0.07917259
232	0xbdb99fc5	-0.09063677
233	0xbdcaf12d	-0.09909282
234	0xb9e7230b	-0.00044085862
235	0x3b1dac26	0.0024058907
236	0xbcb6e414	-0.022325553
237	0xbd07321e	-0.03300678
238	0x3d6c838c	0.05774264
239	0xbe19a7d4	-0.15005428
240	0x3e2c468d	0.16823788
241	0x3e210184	0.15723234
242	0xbd7af3a2	-0.061267503
243	0xbdc29c72	-0.09502496
244	0xbddcd4f3	-0.10782804
245	0xbde8c925	-0.1136649
246	0xbd940264	-0.072270185
247	0xbdbbef17	-0.09176462
248	0xbdc62706	-0.09675412
249	0xbda8614e	-0.082216844
250	0xbdd25492	-0.10270037
251	0xbdb85b56	-0.09001796
252	0xbd52b0d6	-0.051438175
253	0x3d345e7f	0.04403543
254	0xbcbf2112	-0.023331199
255	0xbccab250	-0.02474323
