models/TinyVGG_pathMNIST.pth (torch, 85828 bytes, 10 tensors)

conv_block_1.0.weight f4 [8, 3, 3, 3]
0.8258778 0.75275636 0.13560125 0.75168866 0.5144136 0.35131234 -0.36733887 -0.10169569
-0.0922851 -0.07401786 0.02580908 0.04341638 0.22622755 0.13424939 0.19989133 0.24411584
0.40892306 0.09797776 -0.55620915 -0.34486946 -0.5817993 -0.54209393 -0.2937569 -0.07911834
-0.45848963 0.020347718 -0.052188598 -0.13084176 0.0047419844 -0.20625857 0.13190903 -0.19978389
0.10735989 -0.011865725 -0.10227394 0.0708373 0.019107357 0.1436715 0.008220279 -0.102348946
0.014959401 -0.09546107 0.03627531 0.13125557 0.066734165 -0.09836901 0.09789516 0.01840836
0.053610675 -0.15751143 -0.23594755 -0.12037502 -0.19046076 0.11105196 0.312082 -0.54763174
-0.9866625 0.08008779 -0.7348521 -0.98579246 0.16181152 -0.3822522 0.063491724 -0.35257187
-0.483164 -0.3411358 -0.53282845 -1.0531358 -0.16123602 -0.5920576 -0.28459406 0.31445956
0.6374564 0.14059442 -0.1719 0.35969827 0.2715056 0.52050537 0.6779398 0.6961113
0.55118036 -0.1311955 0.102109805 -0.07778919 0.11680256 -0.045668527 0.1100903 -0.14952756
-0.09711989 0.058673486 0.0406854 -0.04906684 0.114713624 0.13082935 -0.13955969 -0.102742985
0.17621921 -0.06493892 -0.06822671 -0.18621367 -0.11021043 0.048074737 -0.025402099 -0.13969682
0.004514247 -0.1314591 -0.16327402 -0.10597508 -0.273144 0.07426761 0.59916455 0.12516561
0.60685986 0.20472926 -0.009463379 0.0814941 0.107676946 -0.5430009 -0.6695806 -0.31303048
-0.28915948 -0.13072851 -0.17076601 -0.1592285 -0.33688578 -0.32905546 0.30159068 -0.11798457
0.3166545 0.31827077 0.5055374 0.2328067 0.22276779 0.38033617 0.14476669 -0.53752357
-0.7548958 -0.6281522 0.0041603846 -0.18525355 -0.48614585 -0.21344596 0.13426214 -0.39357358
-0.16271809 0.1307151 0.429404 0.47323596 0.54005635 -0.14872946 0.39547518 0.30042288
0.16095999 -0.052396405 0.34597674 0.15594122 0.3245951 0.34613726 0.1987897 -0.084786244
0.22725224 0.13597319 -0.5054439 -0.20869958 -0.21846528 -0.5608495 -0.22936212 -0.11752651
-0.098840505 -0.42809385 -0.39311644 -0.87889206 -0.50585425 -0.99082863 -1.0727669 -0.9102734
-1.1270745 -0.34131527 -0.7269931 -1.0048115 0.56992656 1.0230812 0.77652496 0.33410612
0.90508986 0.81374204 -0.014330884 -0.42636907 -0.37177372 0.5113478 -0.2021962 -0.03320617
0.520504 0.7109863 0.5880599 -0.14055964 0.2864712 0.43194103 -0.2142946 0.1931243
0.12418019 -0.9618463 0.068955354 0.051239073 -1.4479607 -0.2518701 -0.18492053 -0.35360315
-0.59159356 -0.21305557 -0.058408197 -0.0051375567 -0.13082324 -0.31417575 -0.029895032 0.29987526
00000000: ba6c 533f a4b4 403f 0edb 0a3e ab6e 403f
00000010: 9cb0 033f 36df b33e d713 bcbe d445 d0bd
00000020: f8ff bcbd ad96 97bd 906d d33c 60d5 313d
00000030: 32a8 673e ac78 093e 50b0 4c3e 81f9 793e
00000040: 5d5e d13e 90a8 c83d b963 0ebf bb92 b0be
00000050: cdf0 14bf abc6 0abf 4e67 96be cc08 a2bd
00000060: 27bf eabe 42b0 a63c b6c3 55bd 62fb 05be
00000070: a662 9b3b 7235 53be 2913 073e 2694 4cbe
00000080: 81df db3d 7568 42bc 0075 d1bd 2513 913d
00000090: 0887 9c3c 9f1e 133e 59ae 063c 539c d1bd
000000a0: 4718 753c 1881 c3bd 6b95 143d dc67 063e
000000b0: ecab 883d b175 c9bd 427d c83d 21cd 963c
000000c0: de96 5b3d ad4a 21be 3c9c 71be 2e87 f6bd
000000d0: 2508 43be 366f e33d 36c9 9f3e 9831 0cbf
000000e0: ea95 7cbf 1105 a43d 441f 3cbf e55c 7cbf
000000f0: ebb1 253e 8fb6 c3be f307 823d 4d84 b4be
00000100: 4661 f7be 5aa9 aebe 7267 08bf 27cd 86bf
00000110: 0e1b 25be 1691 17bf 50b6 91be d800 a13e
00000120: 5830 233f fcf7 0f3e 8e06 30be 5f2a b83e
00000130: c802 8b3e d73f 053f 768d 2d3f 5a34 323f
00000140: 281a 0d3f 1d58 06be f21e d13d f04f 9fbd
00000150: 2e36 ef3d ec0e 3bbd 0677 e13d c11d 19be
00000160: cbe6 c6bd 9c53 703d bca5 263d 50fa 48bd
00000170: faee ea3d 21f8 053e bce8 0ebe ea6a d2bd
00000180: cf72 343e b2fe 84bd 72ba 8bbd ccae 3ebe
00000190: 02b6 e1bd 04ea 443d 1018 d0bc af0c 0fbe
000001a0: 40ec 933b 379d 06be 4e31 27be 7609 d9bd
000001b0: 88d9 8bbe 9e19 983d d962 193f 6a2b 003e
000001c0: 2b5b 1b3f 8ca4 513e 4a0c 1bbc 61e6 a63d
000001d0: bb85 dc3d 1b02 0bbf a269 2bbf 8845 a0be
000001e0: b60c 94be b2dd 05be 49dd 2ebe cc0c 23be
000001f0: 4b7c acbe f579 a8be 186a 9a3e e5a1 f1bd
00000200: 8a20 a23e 63f4 a23e e66a 013f e164 6e3e
00000210: 3d1d 643e 6cbb c23e b83d 143e 259b 09bf
00000220: da40 41bf 95ce 20bf d653 883b 1bb3 3dbe
00000230: 1ce8 f8be 9491 5abe 047c 093e 7a82 c9be
00000240: 929f 26be 2eda 053e d7da db3e fc4b f23e
00000250: 2241 0a3f 894c 18be b97b ca3e 07d1 993e
00000260: b2d2 243e 9d9d 56bd dd23 b13e 0eaf 1f3e
00000270: 5431 a63e e738 b13e 878f 4b3e 69a4 adbd
00000280: d0b4 683e 8e3c 0b3e c564 01bf 58b5 55be
00000290: 5db5 5fbe d593 0fbf e7dd 6abe bdb1 f0bd
000002a0: e46c cabd 1e2f dbbe 8f46 c9be 12ff 60bf
000002b0: aa7f 01bf f2a6 7dbf 6d50 89bf ad07 69bf
000002c0: fa43 90bf e0c0 aebe 381c 3abf aa9d 80bf
000002d0: b5e6 113f 53f4 823f 57ca 463f f50f ab3e
000002e0: f8b3 673f 6651 503f 16cc 6abc 0c4d dabe
000002f0: 2059 bebe b0e7 023f 850c 4fbe 3103 08bd
00000300: c03f 053f 3303 363f 188b 163f deee 0fbe
00000310: 5aac 923e 6027 dd3e 0b70 5bbe 60c2 453e
00000320: 2f52 fe3d 8f3b 76bf 7738 8d3d 10e0 513d
00000330: c756 b9bf 1ef5 80be cf5b 3dbe 790b b5be
00000340: ad72 17bf 3d2b 5abe 6f3d 6fbd f358 a8bb
00000350: 87f6 05be a5db a0be 6de6 f4bc 4089 993e

conv_block_1.0.bias f4 [8]
-0.5698267 -0.099095024 0.34834778 -0.07330069 -0.8877777 0.37508488 -0.12715831 -0.4917411
00000000: 2ae0 11bf 55f2 cabd a45a b23e ac1e 96bd
00000010: 6645 63bf 200b c03e ca35 02be 7dc5 fbbe

conv_block_1.2.weight f4 [8, 8, 3, 3]
-0.6717407 -0.20187008 -0.6387768 0.804447 0.5191098 -0.10856181 -0.19338576 0.25065148
-0.15553513 0.10086177 0.083300225 0.038892146 0.03736949 -0.07579064 -0.06906111 -0.1212352
0.06055421 -0.037953593 0.48835856 -1.4484704 0.12365855 -0.17550698 -1.0457278 0.17092206
-0.3056729 0.35040778 0.23864622 -0.086451724 -0.020793527 -0.05712803 -0.036055565 -0.112193756
0.06593663 -0.08204849 0.05923406 0.05347898 0.45019925 -0.0039852937 -0.13074894 0.037019104
0.6099055 0.37113965 -0.26620847 -0.16798922 -0.04729836 -0.41960517 -0.18104114 -0.3513122
0.009717666 0.026451882 0.4320151 -0.10726191 -0.10804491 0.24368525 0.35478815 0.43218347
0.43750903 -0.2169665 -0.2600034 0.19998896 -0.09769607 2.2988234 -0.78313136 -2.4822724
0.29780152 -3.0779042 -1.6495843 0.28884825 -1.6172439 -0.50497824 -0.074017376 -1.1036686
0.5273854 0.6102974 0.4897859 -0.12362489 -0.28921056 -0.2002301 -1.6089053 -0.5000977
0.1780861 0.11928455 0.011367267 0.025244972 -0.03928512 0.09782814 0.1665887 0.0855284
-0.027187819 0.09994746 -0.47528827 0.08568125 0.011548993 0.25672743 0.19008431 -0.6191502
1.867884 -0.21581721 -0.39543432 0.060415886 -0.0745749 -0.09450305 -0.08053518 -0.11630465
-0.09093852 -0.02914428 0.07953503 0.01972618 -0.07436067 0.021617161 0.10549412 -0.31068423
0.015911696 0.21653481 -0.7220004 -0.3039116 0.7074832 -0.005586578 -0.7887433 0.07116072
0.32074192 -0.5724511 -0.020254154 0.19281079 0.092662364 0.20057161 -0.40873882 -0.4389194
-0.24967614 0.8736847 1.0448806 0.79357165 -1.3901758 -0.42926472 -0.7896936 -1.2767712
-0.00057013973 -0.6418464 -1.0803175 -0.07660697 -0.092001125 0.2004025 -0.58883643 0.33390054
-0.13415554 -0.02561208 0.07795057 0.041131128 -0.06861697 -0.015298083 -0.08687792 -0.056854147
0.021342643 0.06417448 0.09762425 -0.10819984 0.078797065 -0.08311947 0.04413139 0.09973096
0.0016549081 0.10722201 -0.10041523 -0.04501432 0.059680846 -0.025675975 -0.053525556 -0.04911937
0.02669282 0.0041628564 0.037765406 -0.066228054 -0.095665604 0.012746848 0.034916796 -0.054413266
-0.032974474 0.07959285 0.009387992 0.0053172484 -0.06434274 -0.10672477 -0.111271955 -0.056334615
-0.05990625 0.0035140705 -0.034307733 -0.046105966 0.06304845 -0.012804504 0.061606493 -0.072223954
-0.054461457 0.04331506 -0.07852128 -0.08611031 -0.005692169 -0.05653842 -0.088348046 0.069904454
0.0947715 0.019118197 -0.020519443 -0.109162316 -0.042925946 0.030003197 0.055570446 -0.014898449
-0.04659278 0.04690338 -0.0938566 0.07448403 -0.047802318 0.0018037558 -0.023289256 0.01428815
0.4757124 0.55304354 0.22831807 -0.1411498 -0.21616139 -0.20289217 -0.29072127 -0.21555673
0.082749225 -0.09521121 -0.006824468 -0.1180983 -0.094573446 0.02495571 0.03563204 0.023258135
-0.037133213 0.11034209 -2.388606 -0.1475163 0.7166968 -0.22802155 0.12210956 -0.59004116
-0.38905844 -0.48562202 1.147966 -0.06437116 0.11365674 0.10074595 0.10553386 0.06917993
0.089030586 -0.015774347 -0.06484498 0.05888509 0.08209242 0.3359268 -0.098793924 -0.38317183
00000000: 33f7 2bbf 08b7 4ebe e086 23bf 3df0 4d3f
00000010: 61e4 043f a755 debd eb06 46be 6455 803e
00000020: 9a44 1fbe 9e90 ce3d 4f99 aa3d 5f4d 1f3d
00000030: c010 193d 2038 9bbd e96f 8dbd 294a f8bd
00000040: b107 783d 3a75 1bbd 220a fa3e 7a67 b9bf
00000050: b240 fd3d 1ab8 33be 69da 85bf 3106 2f3e
00000060: 2981 9cbe a668 b33e ad5f 743e 9a0d b1bd
00000070: 3057 aabc 15ff 69bd 00af 13bd d7c5 e5bd
00000080: c909 873d 0a09 a8bd 6a9f 723d c60c 5b3d
00000090: 8480 e63e 1197 82bb 0de3 05be 58a1 173d
000000a0: c422 1c3f 0406 be3e 7a4c 88be 5e05 2cbe
000000b0: edbb 41bd 7dd6 d6be d962 39be 31df b3be
000000c0: d836 1f3c 9eb1 d83c 1531 dd3e 22ac dbbd
000000d0: a646 ddbd a088 793e cba6 b53e 2747 dd3e
000000e0: 2f01 e03e 772c 5ebe 2a1f 85be e8c9 4c3e
000000f0: e114 c8bd ec1f 1340 4c7b 48bf 8ddd 1ec0
00000100: 7179 983e 62fc 44c0 9425 d3bf ebe3 933e
00000110: d901 cfbf 4146 01bf 6c96 97bd 0345 8dbf
00000120: bb02 073f 733c 1c3f 38c5 fa3e 0c2f fdbd
00000130: 6813 94be 1f09 4dbe 9cf0 cdbf 6706 00bf
00000140: 345c 363e 754b f43d c63d 3a3c 8bce ce3c
00000150: 6fe9 20bd 1f5a c83d 3a96 2a3e 8429 af3d
00000160: fdb8 debc 41b1 cc3d fc58 f3be a779 af3d
00000170: fd37 3d3c c771 833e 76a5 423e a180 1ebf
00000180: d316 ef3f 30ff 5cbe 5e76 cabe a676 773d
00000190: baba 98bd d18a c1bd a1ef a4bd 2231 eebd
000001a0: fa3d babd fcbf eebc 43e3 a23d cc98 a13c
000001b0: 684a 98bd 7916 b13c 4d0d d83d 0112 9fbe
000001c0: 3f59 823c 4dbb 5d3e 05d5 38bf 4d9a 9bbe
000001d0: 9e1d 353f 9d0f b7bb 15eb 49bf b6bc 913d
000001e0: 4938 a43e 288c 12bf 0aec a5bc 3170 453e
000001f0: c4c5 bd3d a562 4d3e 3746 d1be 0bba e0be
00000200: 1aab 7fbe cda9 5f3f a6be 853f 8327 4b3f
00000210: 48f1 b1bf 96c8 dbbe 5c29 4abf 3d6d a3bf
00000220: 6e75 15ba 0c50 24bf d847 8abf 1de4 9cbd
00000230: 166b bcbd 5036 4d3e fcbd 16bf 03f5 aa3e
00000240: 1260 09be 6dd0 d1bc 8ca4 9f3d 1d79 283d
00000250: 0e87 8cbd d0a4 7abc 0ded b1bd e5df 68bd
00000260: c4d6 ae3c e96d 833d 39ef c73d e197 ddbd
00000270: 5b60 a13d 8a3a aabd 1ec3 343d bf3f cc3d
00000280: 80e9 d83a 3797 db3d 80a6 cdbd f060 38bd
00000290: e773 743d 6c56 d2bc 9d3d 5bbd 6431 49bd
000002a0: e7aa da3c 9268 883b e6af 1a3d 93a2 87bd
000002b0: 54ec c3bd 28d8 503c ea04 0f3d 72e0 5ebd
000002c0: 3e10 07bd 9301 a33d 18d0 193c 503c ae3b
000002d0: 20c6 83bd 8492 dabd 8de2 e3bd 20bf 66bd
000002e0: 4260 75bd 524c 663b 4486 0cbd 9cd9 3cbd
000002f0: 8c1f 813d fbc9 51bc 1757 7c3d 27ea 93bd
00000300: fa12 5fbd 226b 313d c4cf a0bd 9a5a b0bd
00000310: 6085 babb d594 67bd d2ef b4bd 112a 8f3d
00000320: 8f17 c23d c49d 9c3c 6418 a8bc 7e90 dfbd
00000330: 1ed3 2fbd 44c9 f53c d69d 633d a018 74bc
00000340: 12d8 3ebd c21d 403d e437 c0bd 158b 983d
00000350: 5dcc 43bd 006c ec3a 1cc9 bebc d818 6a3c
00000360: 9390 f33e 4394 0d3f 36cc 693e 9389 10be
00000370: 6959 5dbe f7c2 4fbe 6bd9 94be e7ba 5cbe
00000380: 6d78 a93d 18fe c2bd c99f dfbb 86dd f1bd
00000390: b9af c1bd eb6f cc3c e7f2 113d d887 be3c
000003a0: ff18 18bd 09fb e13d ecde 18c0 830e 17be
000003b0: 7179 373f 7b7e 69be 9414 fa3d f00c 17bf
000003c0: ab32 c7be 73a3 f8be 8df0 923f 07d5 83bd
000003d0: ddc4 e83d e553 ce3d 2322 d83d 35ae 8d3d
000003e0: ab55 b63d 3439 81bc 72cd 84bd 7e31 713d
000003f0: 1220 a83d 99fe ab3e 7854 cabd 192f c4be

conv_block_1.2.bias f4 [8]
-0.22318535 0.09897871 -0.16204391 -0.7195067 -0.18446568 0.03052814 -0.093399726 0.18702318
00000000: b38a 64be 5ab5 ca3d d7ee 25be 9731 38bf
00000010: 92e4 3cbe 2616 fa3c 5b48 bfbd 0183 3f3e

conv_block_2.0.weight f4 [8, 8, 3, 3]
0.0031399787 -0.031322364 0.1047621 -0.011678838 0.39055735 0.17591429 -0.6151085 0.2572467
-0.34679812 0.5681143 -0.4907341 -0.5961871 -0.18929978 -0.85807455 -0.5774445 -0.3331407
-1.037811 0.36948088 0.08049388 -0.08036323 0.059002645 -0.028559372 0.053624317 -0.0055952445
-0.103247836 -0.08820051 -0.103000484 -1.0985161 -0.401376 0.2631181 -0.22505404 -2.235669
-0.2845336 1.014862 -0.3517338 -0.26019832 -0.026097089 -0.3116835 0.3300223 0.19905342
-0.09819409 0.040105496 0.3156116 0.19328578 -0.18516105 -0.7991162 -0.048770186 -1.5742855
-0.1842569 -1.2262427 -1.497757 -0.11391243 -0.038311496 -1.5682367 0.2750164 0.26550815
0.06411749 0.032041434 -0.38549763 -0.17936483 -0.29812312 -0.29480383 -0.45842025 0.15505421
0.92859286 0.7805319 0.7938322 0.99050677 -0.3704327 -0.57455516 1.0226558 -0.4407694
-0.009557223 0.45939463 -0.16050795 0.41070744 0.50736 -0.39542285 0.18262596 -0.08289888
-0.10245041 -0.47928262 0.100639455 0.008005217 -0.11085377 0.08914205 0.13845898 -0.1307261
-0.38503975 -0.5700965 -0.029183634 -0.04554981 0.10597443 0.062419303 0.10641671 0.00037637353
0.023767136 0.040866606 -0.11155236 0.3296851 0.11306149 -0.2601326 -0.37411743 -0.14361793
-0.30214575 0.041013755 0.59079206 -0.3857489 0.11134236 -0.15360549 0.21812432 -0.159291
0.42229348 0.7060839 -0.051576525 0.41061807 0.34772924 0.34268972 -0.3971988 -0.16674528
0.4156859 0.031496543 -0.29163176 0.3560508 -0.095653385 0.0022253678 -0.07249949 0.1009958
0.018806582 0.06057929 0.029711116 0.014785428 0.039127424 -0.09188396 -0.052078612 0.120125055
-0.25193405 -0.45653227 0.2935256 -1.1171097 -0.6228402 -0.91754544 0.36449683 -1.0700889
-0.09036833 -0.06293308 -0.028493173 -0.115786694 -0.13402277 -0.1102935 0.033169225 -0.06844554
-0.15999374 -0.093788266 -0.1166214 -0.15493476 -0.056832254 0.028866325 -0.02721591 -0.03106235
-0.083578095 -0.02810657 0.046303757 0.04661765 0.031648465 -0.045935653 0.10054477 -0.01701416
-0.045881413 0.07381182 0.09605535 0.014080302 -0.08272617 -0.13110678 -0.06603862 0.038477194
-0.18459468 -0.12255971 -0.12707937 -0.03749661 -0.042774092 -0.13959166 -0.022923926 -0.07339187
0.010282186 -0.27216753 0.11157397 -0.23266575 -0.1497925 0.031134332 0.08436802 -0.10914989
0.10247821 -0.019040775 -0.026108574 0.09797927 -0.110941 -0.046188008 -0.20215487 -0.18344285
-0.009115612 -0.14505425 -0.030276204 -0.10811998 -0.059033144 -0.12167789 0.043714363 0.06691144
-0.12877999 -0.035720892 0.090727724 0.027447706 -0.040084943 0.042705197 -0.14552608 -0.142893
0.34994224 -0.018017776 0.04748411 -0.5948828 -0.9346338 -0.9080778 0.40237948 0.6139264
-0.13682275 -0.18705073 -0.29186642 0.24477947 0.34815684 -0.04696447 -0.5366101 -0.15339035
0.19738866 -0.23769684 -0.007321388 -0.0025323909 -0.075178586 -0.072479725 -0.00017465388 0.034718093
0.026433773 -0.05679777 0.09985182 0.14940888 -0.71395946 -0.3726152 -0.012468381 -0.37740323
-0.057017546 0.17196517 0.5819182 0.16537786 -0.4872678 0.43740112 -0.39060676 0.37378672
00000000: 1ac8 4d3b e14b 00bd 838d d63d 9958 3fbc
00000010: 22f7 c73e e022 343e c077 1dbf d7b5 833e
00000020: 868f b1be f06f 113f 8041 fbbe b89f 18bf
00000030: cdd7 41be c6aa 5bbf 67d3 13bf 6b91 aabe
00000040: fed6 84bf 992c bd3e fad9 a43d 7a95 a4bd
00000050: c2ac 713d 58f5 e9bc 2ca5 5b3d 5058 b7bb
00000060: 9a73 d3bd 78a2 b4bd ebf1 d2bd 2d9c 8cbf
00000070: 2881 cdbe 6ab7 863e 9174 66be 3315 0fc0
00000080: 63ae 91be ffe6 813f 7416 b4be b738 85be
00000090: 90c9 d5bc fb94 9fbe aff8 a83e a9d4 4b3e
000000a0: fc19 c9bd a945 243d d897 a13e b5ec 453e
000000b0: dc9a 3dbe e192 4cbf 3fc3 47bd 3082 c9bf
000000c0: d7ad 3cbe 85f5 9cbf 80b6 bfbf ec4a e9bd
000000d0: 84ec 1cbd fbbb c8bf f3ce 8c3e aff0 873e
000000e0: 0850 833d e13d 033d f25f c5be 6aab 37be
000000f0: 98a3 98be 87f0 96be 0fb6 eabe 88c6 1e3e
00000100: 43b8 6d3f f0d0 473f 9638 4b3f da91 7d3f
00000110: 5ba9 bdbe 0c16 13bf 63e6 823f 87ac e1be
00000120: e695 1cbc c635 eb3e 325c 24be 3f48 d23e
00000130: 58e2 013f dd74 cabe 4d02 3b3e e3c6 a9bd
00000140: 85d1 d1bd 8864 f5be 0f1c ce3d 5028 033c
00000150: 4d07 e3bd 1b90 b63d 31c8 0d3e 10dd 05be
00000160: ee23 c5be d8f1 11bf 8412 efbc 7092 3abd
00000170: 1f09 d93d 62ab 7f3d 01f1 d93d 0054 c539
00000180: 4cb3 c23c be63 273d 9075 e4bd 7ccc a83e
00000190: c88c e73d 1a30 85be 528c bfbe 9410 13be
000001a0: d9b2 9abe 0afe 273d 263e 173f e180 c5be
000001b0: 7707 e43d c24a 1dbe fb5b 5f3e 2e1d 23be
000001c0: da36 d83e eac1 343f e841 53bd 883c d23e
000001d0: 9109 b23e 0775 af3e a45d cbbe 46bf 2abe
000001e0: c8d4 d43e 8502 013d c250 95be 4a4c b63e
000001f0: ece5 c3bd 7ad7 113b 9d7a 94bd e3d6 ce3d
00000200: 4310 9a3c fd21 783d ba64 f33c 943e 723c
00000210: 1444 203d a82d bcbd 6250 55bd 2004 f63d
00000220: 80fd 80be 99be e9be fd48 963e 73fd 8ebf
00000230: 7572 1fbf 42e4 6abf 549f ba3e acf8 88bf
00000240: 0813 b9bd 0fe3 80bd 846a e9bc 9321 edbd
00000250: 443d 09be 8fe1 e1bd 74dc 073d 2d2d 8cbd
00000260: 66d5 23be 1014 c0bd 33d7 eebd 38a7 1ebe
00000270: f0c8 68bd 1279 ec3c e6f3 debc 7876 febc
00000280: fe2a abbd c03f e6bc 02a9 3d3d 26f2 3e3d
00000290: d2a1 013d 0627 3cbd 6bea cd3d 4861 8bbc
000002a0: 26ee 3bbd a72a 973d abb8 c43d 11b1 663c
000002b0: 576c a9bd db40 06be 423f 87bd 439a 1d3d
000002c0: 6306 3dbe 9600 fbbd 1821 02be 0c96 19bd
000002d0: e333 2fbd 1ef1 0ebe f5ca bbbc 7a4e 96bd
000002e0: 9d76 283c 8b59 8bbe e580 e43d ee3f 6ebe
000002f0: 3563 19be 6d0d ff3c 24c9 ac3d fa89 dfbd
00000300: 19e0 d13d 66fb 9bbc a6e1 d5bc 5ba9 c83d
00000310: 0935 e3bd a32f 3dbd b001 4fbe 71d8 3bbe
00000320: a659 15bc 1a89 14be cd05 f8bc 026e ddbd
00000330: bdcc 71bd 4232 f9bd d50d 333d dd08 893d
00000340: e7de 03be 1250 12bd 75cf b93d 03da e03c
00000350: 1c30 24bd a5eb 2e3d ca04 15be 8b52 12be
00000360: a12b b33e 049a 93bc b37e 423d 3d4a 18bf
00000370: 2944 6fbf c977 68bf af04 ce3e 482a 1d3f
00000380: 431b 0cbe 3a8a 3fbe 846f 95be 78a7 7a3e
00000390: 9d41 b23e d15d 40bd 485f 09bf 5c12 1dbe
000003a0: 4120 4a3e cd66 73be 41e8 efbb 78f6 25bb
000003b0: 3bf7 99bd 4070 94bd 4b23 37b9 8f34 0e3d
000003c0: a48b d83c c7a4 68bd 1c7f cc3d a4fe 183e
000003d0: 0cc6 36bf 6bc7 bebe 2e48 4cbc ff3a c1be
000003e0: 3b8b 69bd a317 303e 97f8 143f d058 293e
000003f0: 2a7b f9be 0af3 df3e 9cfd c7be f960 bf3e

conv_block_2.0.bias f4 [8]
0.24630158 0.0004826386 -0.17356573 0.23034298 -0.24191663 -0.22181307 -0.17950518 -0.0044553317
00000000: 7b36 7c3e a80a fd39 37bb 31be 08df 6b3e
00000010: feb8 77be f722 63be 35d0 37be 08fe 91bb

conv_block_2.2.weight f4 [8, 8, 3, 3]
0.21653318 -0.017578688 -0.3844587 0.14432576 -0.4894989 -1.2322198 0.18049693 0.08387882
-0.096202716 0.2216844 -0.16130275 -0.5233464 -0.025295842 -0.39108256 -0.19747734 0.24178231
-0.41069368 0.183983 0.07375857 0.05240459 0.07174637 -0.059902426 -0.07739004 -0.096375234
-0.1628517 -0.009704238 0.009932867 0.477513 0.83278126 -0.102056034 0.37383935 0.5362367
-0.20221233 0.1673287 -0.5979971 -1.7382877 -0.48008707 -0.2974228 -0.32183933 -0.5846302
-0.15449896 -0.10744726 -0.38221794 -0.23914477 -0.12323285 -0.82634366 -0.8223638 -0.15081812
0.18448691 0.23277728 0.49542564 0.11312308 0.21480234 0.6321883 -0.0078626275 0.0003014841
-0.12398948 -0.046374 -0.030340398 -0.10647098 0.06315282 0.088239476 -0.0098758945 0.062431287
-0.027107075 0.23602308 0.22127998 0.15512641 0.0036826553 -0.27395463 -0.22250466 0.008606706
0.1627204 0.03786955 0.18099661 0.031445444 0.28409472 0.37959856 -0.29991764 0.08413574
-0.13338329 -0.2516547 -0.0542415 0.08624995 -0.027104644 0.31194314 0.07496848 -0.44051787
-0.24297033 -0.61690855 -0.13846906 -0.17365716 -0.09661622 -0.027095005 0.06194461 0.05396689
-0.05036046 0.04980749 -0.017578904 0.2101977 -0.3926306 -0.029653922 -0.49998146 -0.49205762
-0.5149282 0.312487 -0.8736495 0.46503532 0.20080306 0.07484164 -0.12981929 -0.1993557
0.15948877 -0.233705 0.08059602 0.36604255 0.106692955 0.04634188 0.28250563 0.23387957
-0.032348003 0.08800609 -0.35853925 0.11218169 0.20849504 -0.0327751 0.07463085 -0.030521065
0.032458674 0.00039885435 -0.020897672 0.04498448 0.02526261 -0.08522248 -0.058994353 0.24176852
-0.31618375 -0.50682443 0.089700334 -0.24884501 -1.0142872 0.06754871 -0.5810783 0.037948154
-0.1670029 0.44960633 0.029526994 -0.2209269 0.67792815 -0.03063929 0.19696802 0.40965655
-1.0499797 0.07684996 0.09464394 0.38061723 -0.59885544 -0.4487259 -0.07706377 -0.50851744
0.052223932 0.11790624 0.09249881 0.061898094 0.039287064 -0.042293336 -0.061356816 -0.04241154
-0.095724374 -0.03701074 0.19526893 -0.123864695 -0.0370701 -0.22018562 -0.11914857 -0.09362054
-0.0646857 0.26987866 0.3560013 0.008791701 0.13182448 -1.2417467 -0.5556881 -0.2640922
-0.78356785 -0.07260232 0.14838147 -0.035317868 0.28360206 0.23405068 0.19249834 0.29088202
0.15749523 -0.08380554 0.13561453 -0.047294073 0.10460166 -0.036880217 -0.02503808 0.070692725
0.0574128 -0.051128786 0.06597988 -0.009269454 0.028462466 -0.03709327 -0.06771956 0.06895888
0.019667713 -0.08699189 -3.759014 -1.6121093 -0.54098386 -1.4752538 -1.5726999 -0.16357194
-0.6381006 -1.1210967 -0.19271521 -1.110699 -2.1419883 -0.10033049 -0.6715406 -0.33402142
-0.5923325 -0.41780144 0.3058784 -0.01258993 0.26476976 0.25131154 0.09070963 -0.21871379
0.17062177 -0.24795878 0.12212314 -0.1331837 0.0118401805 0.12809865 0.10823546 -0.053768087
0.04652892 0.008194799 0.022903005 -0.2631164 -0.78105193 -0.29602244 0.47377717 -0.34987298
-0.07559244 0.49828616 0.28352675 -0.43810102 0.35054773 0.05003984 -0.23346399 -0.18130136
00000000: e0ba 5d3e 2e01 90bc c5d7 c4be 22ca 133e
00000010: 9a9f fabe 61b9 9dbf 30d4 383e a9c8 ab3d
00000020: ee05 c5bd 3c01 633e 8c2c 25be 08fa 05bf
00000030: 3a39 cfbc f93b c8be 8037 4abe c895 773e
00000040: 7146 d2be 0a66 3c3e bc0e 973d 32a6 563d
00000050: c3ef 923d 3f5c 75bd ab7e 9ebd 6160 c5bd
00000060: 99c2 26be 86fe 1ebc 77bd 223c 957c f43e
00000070: 2731 553f c102 d1bd df67 bf3e cf46 093f
00000080: c010 4fbe 3758 2b3e 5716 19bf 3680 debf
00000090: f9cd f5be cd47 98be 20c8 a4be 53aa 15bf
000000a0: fa34 1ebe 4f0d dcbd 12b2 c3be 5ee2 74be
000000b0: 8161 fcbd 428b 53bf 6f86 52bf 1170 1abe
000000c0: 23ea 3c3e 2b5d 6e3e 6ea8 fd3e 13ad e73d
000000d0: 25f5 5b3e 18d7 213f 40d2 00bc 8310 9e39
000000e0: 32ee fdbd aaf2 3dbd 6d8c f8bc 750d dabd
000000f0: 4456 813d e6b6 b43d 81ce 21bc f3b7 7f3d
00000100: a80f debc 09b0 713e 3897 623e 75d9 1e3e
00000110: b458 713b c843 8cbe 43d8 63be 2403 0d3c
00000120: 2da0 263e 1a1d 1b3d 2d57 393e f0cc 003d
00000130: dd74 913e be5a c23e ce8e 99be 5c4f ac3d
00000140: a195 08be e3d8 80be 562c 5ebd d0a3 b03d
00000150: 8f0a debc 03b7 9f3e 1389 993d 8f8b e1be
00000160: 37cd 78be b8ed 1dbf d5ca 0dbe 2fd3 31be
00000170: bade c5bd 58f6 ddbc a2b9 7d3d 630c 5d3d
00000180: c546 4ebd f002 4c3d a201 90bc 113e 573e
00000190: e106 c9be c8ec f2bc 92fd ffbe faee fbbe
000001a0: 56d2 03bf 4cfe 9f3e 7ea7 5fbf 1c19 ee3e
000001b0: 519f 4d3e 9346 993d 59ef 04be e723 4cbe
000001c0: 0651 233e 5d50 6fbe 870f a53d ee69 bb3e
000001d0: d681 da3d fcd0 3d3d 94a4 903e 207e 6f3e
000001e0: 577f 04bd 893c b43d 7592 b7be 84bf e53d
000001f0: b97f 553e 2f3f 06bd 0fd8 983d 5007 fabc
00000200: 63f3 043d 531d d139 9831 abbc a541 383d
00000210: 88f3 ce3c 2089 aebd 10a4 71bd 2b92 773e
00000220: d6e2 a1be 3fbf 01bf cfb4 b73d 3ad1 7ebe
00000230: 2ad4 81bf fa56 8a3d 8cc1 14bf 866f 1b3d
00000240: cf02 2bbe cd32 e63e 98e2 f13c a93a 62be
00000250: b38c 2d3f 40ff fabc fcb1 493e 81be d13e
00000260: bc65 86bf 8363 9d3d afd4 c13d 43e0 c23e
00000270: 974e 19bf 67bf e5be 9cd3 9dbd 332e 02bf
00000280: c3e8 553d d478 f13d 0470 bd3d db88 7d3d
00000290: 79eb 203d c73b 2dbd 4951 7bbd b9b7 2dbd
000002a0: 240b c4bd 9398 17bd 94f4 473e c6ac fdbd
000002b0: d1d6 17bd 5778 61be 2a04 f4bd 20bc bfbd
000002c0: f079 84bd 892d 8a3e cd45 b63e 110b 103c
000002d0: fffc 063e 8ef1 9ebf 9341 0ebf 1837 87be
000002e0: e797 48bf 86b0 94bd 50f1 173e 78a9 10bd
000002f0: 4a34 913e fbaa 6f3e 491e 453e 7dee 943e
00000300: 6e46 213e 3da2 abbd 89de 0a3e 6eb7 41bd
00000310: 6539 d63d b60f 17bd a91c cdbc 59c7 903d
00000320: af29 6b3d 6b6c 51bd 7620 873d e8de 17bc
00000330: 1e2a e93c 1def 17bd 8db0 8abd 503a 8d3d
00000340: 2f1e a13c ce28 b2bd af93 70c0 9959 cebf
00000350: eb7d 0abf 1ed5 bcbf 3b4e c9bf 677f 27be
00000360: 905a 23bf 1980 8fbf 2357 45be 632b 8ebf
00000370: 5616 09c0 127a cdbd 16ea 2bbf db04 abbe
00000380: 1aa3 17bf 12ea d5be 189c 9c3e fe45 4ebc
00000390: e78f 873e e8ab 803e f8c5 b93d 82f6 5fbe
000003a0: 79b7 2e3e e8e8 7dbe b21b fa3d 4f61 08be
000003b0: 51fd 413c 4b2c 033e 8eaa dd3d ed3b 5cbd
000003c0: 1c95 3e3d 7a43 063c 159f bb3c 31b7 86be
000003d0: 05f3 47bf 4190 97be ec92 f23e 8d22 b3be
000003e0: 36d0 9abd 5d1f ff3e 6b2a 913e c74e e0be
000003f0: fe7a b33e 93f6 4c3d 2f11 6fbe 10a7 39be

conv_block_2.2.bias f4 [8]
0.07411081 -0.2346727 0.074394315 0.06169374 -0.22687119 0.23213336 -0.3373555 0.13262495
00000000: 69c7 973d 0a4e 70be 0c5c 983d 93b2 7c3d
00000010: ec50 68be 5eb4 6d3e dcb9 acbe d6ce 073e

classifier.1.weight f4 [9, 2048]
1.3302014 0.5438884 0.11376717 0.5236421 -0.15013091 -0.54603964 0.33549473 0.044477418
-0.07069263 0.33931574 -0.0009140366 -0.033567406 -0.19484206 0.014157776 -0.04904347 0.6411056
-0.6191796 1.0388987 0.7904851 -0.6802409 1.3698823 0.6380107 -0.24267547 0.29968756
0.8053385 0.3258516 0.37174904 0.34223422 0.4758097 0.5429933 0.40352324 0.2802475
-0.9043642 0.972797 0.011609764 0.64379805 0.25577694 0.847266 0.35382128 0.10860207
0.6483285 0.0043998836 0.10320876 -0.11115094 0.4642681 0.24958877 0.8169387 0.20220247
-0.34858733 0.92087775 0.4025854 0.33897263 0.9050765 0.65801245 0.5293248 0.0337139
-0.16192971 0.6426825 0.091192566 0.7240968 0.13103667 -0.32691813 0.19633847 0.26286134
0.13770147 0.5577535 -0.037506267 0.1563627 0.24826735 -0.32007372 0.06500803 -0.30427063
0.33372834 0.16995607 0.26021552 0.4740472 0.0046336795 0.40358016 0.14469238 0.64707804
1.3557402 0.47892654 0.552049 0.07339363 0.111644514 -0.2435445 0.43405628 -0.15647987
0.32015836 -0.28472766 -0.12018927 0.822681 -0.08391664 -0.11284594 0.06912831 -0.20275876
0.7450003 0.6453119 0.60083747 0.39311135 0.12013741 -0.008512861 0.6314454 0.6477024
0.25603142 0.35803598 -0.10160174 0.29673308 -0.62675565 -0.25196764 0.4984252 -0.33644995
0.48140937 0.7740177 0.10042906 0.33442345 -0.08658164 0.22589166 0.8575884 -0.007873713
-0.028252179 0.29122156 0.17300388 0.60414284 -0.5072422 0.21501863 0.57401574 -0.28131938
0.31960848 0.15391992 0.8055272 0.43913886 0.45889807 0.39416814 0.5804793 0.36997813
-0.105811104 0.84224254 -0.05025886 0.3677496 0.440236 0.052612774 0.7212963 -0.104448184
0.7745876 0.8654159 0.07523869 -0.16138175 0.42534524 -0.194781 0.36823186 0.7749186
0.951744 0.70306104 0.64272153 0.35152128 -0.5724101 1.047841 0.4687191 0.524348
-0.02244825 0.17288142 0.48187312 0.2724016 0.076836176 0.80053973 -0.5462161 0.21495697
0.72723645 -0.49905372 0.8107324 0.66148734 0.5135602 0.15916547 0.44214153 0.24557698
-0.00996927 0.25540993 0.20398536 0.3826671 0.0009228394 1.0622737 0.6695149 0.31617585
0.39950645 0.6516013 0.5348312 0.53135395 0.29395548 -0.06381349 0.47243983 0.18355201
0.7650671 0.43150544 0.44418174 0.8822963 0.3242262 -0.14301383 0.55970925 -0.17763329
0.5744965 -0.3861607 0.22881395 0.55864537 0.651053 0.6558398 0.6521115 -0.33285332
0.34039274 0.14849825 0.62785196 0.36654413 0.27898112 -0.06667846 0.37580857 0.429506
0.13555029 -0.39212412 0.37700006 0.2724171 0.66287804 0.16472502 0.79783183 0.14136244
0.3730206 0.5980685 -0.24238406 0.858525 0.5436276 -0.41538024 0.36251011 0.19452964
1.6440799 0.15973678 -0.110098325 0.028164005 -0.016840085 0.074210905 0.68063176 0.44269326
0.31660232 1.1446704 0.75427866 0.24591716 0.22947207 -0.7011869 0.2380744 -0.34368458
0.6658335 -0.7332905 1.0864419 0.7447361 0.024392568 0.16390482 0.772502 0.09602553
00000000: 0a44 aa3f 453c 0b3f c3fe e83d 690d 063f
00000010: ebbb 19be 41c9 0bbf f7c5 ab3e f42d 363d
00000020: 4cc7 90bd cbba ad3e f59b 6fba fa7d 09bd
00000030: ad84 47be 04f6 673c cee1 48bd 7f1f 243f
00000040: 8e82 1ebf a2fa 843f 3b5d 4a3f 4524 2ebf
00000050: 4e58 af3f ab54 233f eb7f 78be a670 993e
00000060: aa2a 4e3f 05d6 a63e e455 be3e 5339 af3e
00000070: 549d f33e 9c01 0b3f 999a ce3e 9a7c 8f3e
00000080: 6a84 67bf 3909 793f e136 3e3c f3cf 243f
00000090: 32f5 823e 6de6 583f 1028 b53e c36a de3d
000000a0: dbf8 253f e62c 903b 1d5f d33d 1ba3 e3bd
000000b0: 8cb4 ed3e 3394 7f3e e522 513f 2a0e 4f3e
000000c0: 0a7a b2be a5be 6b3f ac1f ce3e d28d ad3e
000000d0: 18b3 673f 8173 283f d581 073f 9617 0a3d
000000e0: e7d0 25be d786 243f 2bc3 ba3d 685e 393f
000000f0: 7a2e 063e d061 a7be f40c 493e c395 863e
00000100: 9d01 0d3e efc8 0e3f 2ca0 19bd 8b1d 203e
00000110: cc39 7e3e b4e0 a3be ee22 853d 5cc9 9bbe
00000120: 71de aa3e f708 2e3e f83a 853e 51b6 f23e
00000130: 1fd6 973b 0fa2 ce3e 3d2a 143e e8a6 253f
00000140: e588 ad3f dc35 f53e 1553 0d3f 664f 963d
00000150: e1a5 e43d bb63 79be a03c de3e 423c 20be
00000160: cceb a33e d3c7 91be cb25 f6bd 399b 523f
00000170: 7ddc abbd c61b e7bd 2593 8d3d fe9f 4fbe
00000180: 57b8 3e3f 2933 253f 7cd0 193f e445 c93e
00000190: 9a0a f63d 8779 0bbc 68a6 213f d3cf 253f
000001a0: 8d16 833e 7e50 b73e 9314 d0bd 66ed 973e
000001b0: 0f73 20bf e701 81be 9631 ff3e 2b43 acbe
000001c0: 4a7b f63e 0626 463f c0ad cd3d 8d39 ab3e
000001d0: b751 b1bd 2550 673e ea8a 5b3f bf00 01bc
000001e0: 1d71 e7bc fe1a 953e ee27 313e 1ba9 1a3f
000001f0: a0da 01bf d82d 5c3e b2f2 123f 1809 90be
00000200: b9a3 a33e 2f9d 1d3e 0837 4e3f cfd6 e03e
00000210: b0f4 ea3e 68d0 c93e 4b9a 143f c66d bd3e
00000220: 7eb3 d8bd 359d 573f 3cdc 4dbd ad49 bc3e
00000230: 9d66 e13e 7e80 573d e0a6 383f eee8 d5bd
00000240: 5f4b 463f e58b 5d3f be16 9a3d 4241 25be
00000250: dac6 d93e ac74 47be e388 bc3e 1161 463f
00000260: 7fa5 733f cffb 333f 6689 243f 99fa b33e
00000270: 7889 12bf a71f 863f f3fb ef3e ac3b 063f
00000280: 64e5 b7bc d407 313e 13b8 f63e 3978 8b3e
00000290: 495c 9d3d 2cf0 4c3f d1d4 0bbf ae1d 5c3e
000002a0: 2b2c 3a3f f883 ffbe 298c 4f3f 3c57 293f
000002b0: ae78 033f 46fc 223e 6060 e23e 8878 7b3e
000002c0: 2656 23bc 17c5 823e 8ae1 503e f1ec c33e
000002d0: b4ea 713a 96f8 873f 5465 2b3f cde1 a13e
000002e0: 1c8c cc3e 58cf 263f b3ea 083f d006 083f
000002f0: 5581 963e a6b0 82bd a2e3 f13e 0ff5 3b3e
00000300: 70db 433f 48ee dc3e ca6b e33e 2cde 613f
00000310: fa00 a63e 3872 12be 1b49 0f3f 80e5 35be
00000320: 3412 133f dbb6 c5be 344e 6a3e 6203 0f3f
00000330: 69ab 263f 1ee5 273f c7f0 263f c06b aabe
00000340: f547 ae3e ed0f 183e e8ba 203f acab bb3e
00000350: 9dd6 8e3e b78e 88bd fb69 c03e 36e8 db3e
00000360: b2cd 0a3e 7ec4 c8be 2706 c13e 417a 8b3e
00000370: 60b2 293f adad 283e b53e 4c3f 51c1 103e
00000380: 8efc be3e 041b 193f 8733 78be 4bc8 5b3f
00000390: 2e2b 0b3f b8ac d4be ed9a b93e c732 473e
000003a0: 3671 d23f 0a92 233e 3b7b e1bd 33b8 e63c
000003b0: 38f4 89bc e3fb 973d e23d 2e3f b1a8 e23e
000003c0: b319 a23e 8f84 923f 6818 413f b5d1 7b3e
000003d0: bafa 6a3e fc80 33bf c7c9 733e 6df7 afbe
000003e0: 1074 2a3f edb8 3bbf 8710 8b3f 06a7 3e3f
000003f0: ecd2 c73c aad6 273e b1c2 453f 08a9 c43d

classifier.1.bias f4 [9]
1.3089421 -0.9261348 1.3637127 0.34856784 2.1127772 -0.5318664 -2.811717 0.15488163
-0.6773137
00000000: 6a8b a73f 2c17 6dbf 238e ae3f 7c77 b23e
00000010: be37 0740 6528 08bf 2cf3 33c0 4a99 1e3e
00000020: 6e64 2dbf
